pl/model_1.pth (torch, 470032 bytes, 135 tensors)

tabnet.tabnet.initial_bn.weight f4 [3]
1.1215174 1.0329506 0.95109224
00000000: e28d 8f3f ba37 843f c87a 733f

tabnet.tabnet.initial_bn.bias f4 [3]
0.16267763 0.0063362154 0.036490273
00000000: f794 263e 07a0 cf3b d376 153d

tabnet.tabnet.initial_bn.running_mean f4 [3]
0.5370007 53.070183 4.065217
00000000: e178 093f de47 5442 4216 8240

tabnet.tabnet.initial_bn.running_var f4 [3]
0.29757595 265.04492 10.146264
00000000: e05b 983e c085 8443 1957 2241

tabnet.tabnet.initial_splitter.shared.shared_layers.0.weight f4 [128, 3]
0.8123054 0.33964336 2.7419894 -0.094266504 -0.3504858 -1.0781628 0.68102884 0.4626433
0.62118715 -1.2181675 -0.71941113 -1.9887711 0.3659861 1.446702 0.6873121 -0.17791334
-1.0020125 0.3086323 0.30293292 -0.9354094 1.4711459 -0.6075489 0.42066392 -1.288659
-0.13543937 0.2556528 -0.77418286 -0.98875934 -1.6719888 0.57087713 -0.22303133 -0.30713645
-0.69584316 1.5488514 -0.94472235 -0.4899227 0.028741976 2.2917464 -1.0243679 -2.483557
-0.4054157 1.0673985 1.5697247 -0.53425825 -0.018287344 -1.2099109 -1.5666071 -0.7611672
0.6931585 1.3712237 0.26750144 -0.83794385 0.6013415 -0.23006794 -2.0110433 -0.97112036
0.27846068 -0.2533541 -0.4708123 -1.0948457 -1.3229265 -0.80038935 -2.726773 -0.0092804395
-0.15416619 1.1481713 1.366931 0.33644304 -0.1184346 0.26612762 0.4316926 -1.3227131
-0.25198868 1.5780045 -0.29603273 -1.640408 0.09213602 0.93255746 -2.1609397 -0.35723343
1.5045513 -2.0145307 -0.22495349 -1.062335 -2.0760384 0.24878474 -0.16616859 -0.63131654
-0.2240277 -0.25843725 0.58745074 0.38958284 -0.44540858 -0.7914698 1.1133553 -0.98742396
1.5518556 -0.068885066 0.08860304 -0.56653523 -0.50497997 -0.73884964 -0.14584805 -0.726782
0.49549606 -0.41702694 -1.6071881 0.8720816 0.5916897 1.0928477 -0.5807962 -0.9891123
1.437577 -0.15692082 0.46274295 1.2039165 1.2315345 -0.60631806 -0.51201415 -2.3188806
-1.9163667 -0.33552903 -1.1283045 -0.10650585 0.49433684 1.9551007 1.1467907 0.89138705
-0.67082655 0.39900222 -0.75531965 1.4733542 1.3180496 -0.6785841 0.112526655 0.6765285
0.04736429 -1.1781545 -1.0801446 1.2325013 -2.3670719 -2.1717606 -0.05720433 0.5390848
-1.4970111 0.45669806 -0.40810344 -0.30020365 -0.66046125 -0.47127968 -1.0144682 -0.39431387
-0.7671873 2.7796404 -0.274805 0.64330965 -0.5557743 -1.0747217 -1.6566676 -1.116549
-1.6331402 -2.6750553 -0.87060165 -0.5593353 1.603274 0.2514746 1.6424941 -0.16760342
-0.46009356 -1.8570813 1.1142268 0.041539434 -0.9506593 0.08708573 0.9659082 1.73912
-0.4511212 0.18646395 0.5308104 -0.4692934 0.11388408 0.4317927 0.38294765 -1.2034339
-1.6093264 0.9299911 -0.277444 1.1570141 -0.11315482 1.079997 -0.32700148 -1.2862476
-0.7271299 1.0623875 0.48582172 0.581467 -1.181284 0.65081817 -1.4390388 0.91201
-1.5939834 2.2890475 1.0056542 0.82553214 -0.28697366 0.9512252 0.7245914 0.14105582
-0.4914846 -0.6401238 0.19117293 -2.5855222 0.48883557 -1.1207736 1.079726 -1.2762783
0.25109428 -0.0026194628 0.44570917 1.0270075 -0.19018114 -1.6280763 1.7729368 1.1906652
-1.6848688 -1.3528638 -0.28114045 1.0390782 -1.1471803 -0.69650245 -0.48388803 0.78932554
-0.5770544 -0.4556469 -0.4075022 -1.7635101 0.1293577 0.988558 -0.22980489 -1.8586797
0.49014407 0.059676033 1.0026802 -1.5793996 0.83252573 -0.4632735 0.17651334 -1.0929638
-1.1805642 1.9584279 0.4847566 0.15365678 -0.12380499 -0.47787803 -0.14215787 -0.6424252
00000000: 3ff3 4f3f bce5 ad3e c17c 2f40 cc0e c1bd
00000010: e072 b3be 3d01 8abf e857 2e3f 95df ec3e
00000020: 1f06 1f3f eaec 9bbf 542b 38bf 0d90 febf
00000030: 8862 bb3e 882d b93f b0f3 2f3f ea2e 36be
00000040: f241 80bf 0e05 9e3e 061a 9b3e fe76 6fbf
00000050: 824e bc3f 5388 1bbf 4361 d73e c7f2 a4bf
00000060: 9eb0 0abe ece4 823e d930 46bf 551f 7dbf
00000070: bb03 d6bf 0125 123f 5362 64be fd40 9dbe
00000080: c722 32bf c340 c63f 53d9 71bf 26d7 fabe
00000090: 4b74 eb3c f9ab 1240 7d1e 83bf 99f2 1ec0
000000a0: a692 cfbe 84a0 883f bdec c83f 26c5 08bf
000000b0: 57cf 95bc 5cde 9abf 9586 c8bf dbdb 42bf
000000c0: d672 313f 4284 af3f f3f5 883e 7d83 56bf
000000d0: 84f1 193f ee96 6bbe efb4 00c0 589b 78bf
000000e0: 6692 8e3e a1b7 81be 4f0e f1be e723 8cbf
000000f0: a855 a9bf 51e6 4cbf 7383 2ec0 fc0c 18bc
00000100: bedd 1dbe 47f7 923f 98f7 ae3f 4342 ac3e
00000110: d78d f2bd e141 883e d006 dd3e aa4e a9bf
00000120: a904 81be 0dfc c93f 9a91 97be e4f8 d1bf
00000130: cfb1 bc3d 16bc 6e3f d64c 0ac0 4de7 b6be
00000140: 2395 c03f 12ee 00c0 355a 66be 98fa 87bf
00000150: d0dd 04c0 6dc1 7e3e 1928 2abe f69d 21bf
00000160: 8467 65be e351 84be 2c63 163f 6777 c73e
00000170: 980c e4be c49d 4abf 6d82 8e3f d1c7 7cbf
00000180: 34a3 c63f 9d13 8dbd 8375 b53d 7408 11bf
00000190: 5e46 01bf 4025 3dbf 3159 15be 630e 3abf
000001a0: a9b1 fd3e 8e84 d5be 57b8 cdbf bd40 5f3f
000001b0: fa78 173f 6fe2 8b3f 0faf 14bf 7736 7dbf
000001c0: 8602 b83f daaf 20be a5ec ec3e f019 9a3f
000001d0: eca2 9d3f a937 1bbf 5c13 03bf 8a68 14c0
000001e0: 814b f5bf 76ca abbe 486c 90bf bd1f dabd
000001f0: b819 fd3e bd40 fa3f 0aca 923f f131 643f
00000200: 4abb 2bbf 054a cc3e a15c 41bf df96 bc3f
00000210: d9b5 a83f b0b7 2dbf 6074 e63d f930 2d3f
00000220: 0f01 423d c4cd 96bf 2e42 8abf 9ac2 9d3f
00000230: 1b7e 17c0 20fe 0ac0 164f 6abd 7601 0a3f
00000240: 0f9e bfbf 54d4 e93e eff2 d0be 4bb4 99be
00000250: fd13 29bf 924b f1be 18da 81bf 82e3 c9be
00000260: 6366 44bf a1e5 3140 3eb3 8cbe f1af 243f
00000270: 3947 0ebf 7b90 89bf af0d d4bf 14eb 8ebf
00000280: bd0a d1bf 1b34 2bc0 c0df 5ebf 9930 0fbf
00000290: 1538 cd3f 47c1 803e 3f3d d23f 3ba0 2bbe
000002a0: 6291 ebbe d7b4 edbf fc9e 8e3f 4125 2a3d
000002b0: 685e 73bf 015a b23d c345 773f 7c9b de3f
000002c0: 5cf9 e6be 68f0 3e3e 31e3 073f 3947 f0be
000002d0: 0e3c e93d ef13 dd3e b711 c43e 1f0a 9abf
000002e0: 68fe cdbf e613 6e3f 240d 8ebe 0a19 943f
000002f0: b7bd e7bd 573d 8a3f bd6c a7be c3a3 a4bf
00000300: 2f25 3abf 50fc 873f a0bd f83e 05db 143f
00000310: 5034 97bf 059c 263f 6c32 b8bf 7d79 693f
00000320: a607 ccbf c17f 1240 47b9 803f 1356 533f
00000330: 36ee 92be 7f83 733f d27e 393f f070 103e
00000340: dfa3 fbbe 27df 23bf d6c2 433e 3279 25c0
00000350: a848 fa3e 8275 8fbf 7634 8a3f 165d a3bf
00000360: 6e8f 803e 4bab 2bbb fe33 e43e fb74 833f
00000370: d8be 42be ce64 d0bf 98ef e23f b867 983f
00000380: c8a9 d7bf a42a adbf a4f1 8fbe 8400 853f
00000390: ced6 92bf fc4d 32bf 2cc0 f7be 3d11 4a3f
000003a0: d6b9 13bf 8d4a e9be 21a4 d0be b3ba e1bf
000003b0: 5876 043e 2312 7d3f f951 6bbe 37e9 edbf
000003c0: 2af4 fa3e db6e 743d d357 803f c429 cabf
000003d0: 6820 553f 2f32 edbe eabf 343e 3de6 8bbf
000003e0: ba1c 97bf c4ad fa3f 0432 f83e 3458 1d3e
000003f0: 788d fdbd 6eac f4be d591 11be fa75 24bf

tabnet.tabnet.initial_splitter.shared.shared_layers.1.weight f4 [128, 64]
-0.41910094 -1.1040804 0.7181964 -0.11410527 0.3670997 0.099934764 0.39951685 -0.7472944
-0.00158755 -0.1422461 0.034756213 -0.064860426 0.011514453 0.2585718 -0.60085297 0.24326733
-0.25773916 -0.28516027 0.84019953 0.98487115 0.7737454 0.21207161 0.15356874 -1.2161872
-0.4507507 0.32750115 0.44563273 0.5345287 0.20930777 0.68941355 -1.0286411 0.045812603
-0.6154714 -0.80468166 0.4883275 0.19230947 0.4603278 0.17972276 -0.85361606 -0.6045518
0.12529513 0.031122966 -0.1415836 0.049563073 0.114385076 0.15139253 -0.36213118 1.3744278
0.014761514 -0.78314763 0.5321732 0.13085727 -0.2814697 -0.3556904 0.4976539 0.14616674
-0.11975136 0.040415198 -0.9299958 0.6870476 -0.07568371 -0.2183012 -0.06056891 -0.26655304
0.5391037 -1.1026134 0.1370555 -0.14346221 1.0763744 -0.40944803 -0.2131366 -0.058292557
0.4332136 0.6374254 0.104702994 -0.12797163 -0.6288401 -0.060580894 -0.14706433 0.85681385
-0.21172331 -0.35051218 -0.097225346 0.39525017 -0.8213594 -0.85439086 0.68781865 0.77483165
-0.27321044 -0.86494863 0.4739441 0.00076802075 0.43203214 -0.39104706 0.046815153 -0.86589
-0.51774025 0.10192229 0.5086791 -0.27519795 0.3594061 -0.6749813 0.86165154 -0.37946177
-0.28925848 -0.08230585 0.122619905 -0.43409225 -0.4570813 -0.47943655 -0.21643873 -0.016644964
0.06113432 0.13865407 -1.8163077 0.15532766 -0.2727776 0.16704229 -0.07783271 -0.51371634
-0.40082842 -0.3114877 0.27988398 0.8657045 -0.10720687 -0.3771131 -0.04459213 0.2001651
-1.2740749 -0.42776516 -1.3686242 -0.9181848 0.60717857 0.366928 -0.24102215 0.3270642
0.9802128 0.70744383 0.087013684 -0.1525798 1.0597537 -0.7426358 -0.7350566 0.45448446
-0.11577171 0.41697234 -0.33914483 -0.50689715 -0.0038236496 0.7205717 -0.047283255 0.21001785
0.25551388 1.1925462 -0.2532007 0.25333145 -0.17460273 0.6573185 -0.9734299 0.41473857
0.45996296 0.39594132 0.025428928 -0.22876237 0.10788486 -0.36997217 0.25273606 0.38323548
0.5332395 -0.28682747 -0.2442796 0.12856756 -0.415412 0.12822066 -0.12533443 0.09494649
0.5831916 0.3682099 0.48260483 -0.23773775 0.027484095 -0.5656074 -0.11428127 -0.5822739
0.74640816 0.7073255 -0.29506162 -0.5985861 -0.004528738 -0.050790176 -0.13947353 -0.11628095
-0.80307585 0.14169651 -0.76679164 0.055013247 -0.49365783 0.24545304 0.22531073 -0.37224355
0.13909571 0.18686634 0.10331518 0.12221671 -1.2562555 -0.045431226 -0.32948768 -1.0290157
-0.28712824 0.18145506 0.60248834 -0.25105652 0.7347645 0.65801466 0.1566918 -0.35065082
-0.31479707 0.6203426 -0.2962882 -0.17646246 0.68187153 -0.2573017 -0.3328227 0.7254664
-0.1995394 0.039644435 0.45150787 0.74391913 0.22219492 -0.056081362 0.09877562 0.44368073
0.9470404 1.0596385 -0.0556471 0.51733917 -0.45469916 0.078793 -0.3167512 -0.6167194
-0.008877585 0.6625792 0.47583178 0.47012913 -0.20420387 -0.30610868 0.2769652 0.46483222
0.3967464 0.26095864 0.07892603 0.65814924 -0.1661575 -0.23734117 -0.151713 0.26123732
00000000: 6694 d6be 8252 8dbf b8db 373f 06b0 e9bd
00000010: 7ef4 bb3e 99aa cc3d 798d cc3e b04e 3fbf
00000020: 5715 d0ba f6a8 11be 885c 0e3d 8bd5 84bd
00000030: 1ea7 3c3c 8663 843e 80d1 19bf 121b 793e
00000040: 63f6 83be 8700 92be 5117 573f 8420 7c3f
00000050: 2e14 463f 4d29 593e 2041 1d3e 06ac 9bbf
00000060: ccc8 e6be 3bae a73e f929 e43e dfd6 083f
00000070: c754 563e 687d 303f 83aa 83bf ffa5 3b3d
00000080: 898f 1dbf 9eff 4dbf 1006 fa3e c6ec 443e
00000090: 16b0 eb3e 3e09 383e 9586 5abf e8c3 1abf
000000a0: 5e4d 003e 97f5 fe3c 4bfb 10be a602 4b3d
000000b0: b942 ea3d a506 1b3e 4269 b9be 40ed af3f
000000c0: 47da 713c 5d7c 48bf 813c 083f 73ff 053e
000000d0: cc1c 90be 0d1d b6be 7ecc fe3e bcac 153e
000000e0: 3340 f5bd 688a 253d 3414 6ebf 5ae2 2f3f
000000f0: 1000 9bbd 5a8a 5fbe 1b17 78bd a479 88be
00000100: b302 0a3f 7022 8dbf 4758 0c3e c2e7 12be
00000110: a3c6 893f 2ca3 d1be 7b40 5abe 2dc4 6ebd
00000120: 2cce dd3e 502e 233f 866e d63d ff0a 03be
00000130: aafb 20bf ac23 78bd 0898 16be 2758 5b3f
00000140: ffcd 58be 5576 b3be 151e c7bd 3b5e ca3e
00000150: 9c44 52bf 5cb9 5abf e214 303f 5e5b 463f
00000160: 3de2 8bbe 466d 5dbf cda8 f23e 0055 493a
00000170: 5133 dd3e 5237 c8be 3fc1 3f3d f8aa 5dbf
00000180: a08a 04bf a2bc d03d cb38 023f bfe6 8cbe
00000190: 1404 b83e 93cb 2cbf 3295 5c3f d048 c2be
000001a0: b019 94be f88f a8bd 2520 fb3d 5741 debe
000001b0: 8f06 eabe b578 f5be 1da2 5dbe 055b 88bc
000001c0: fb67 7a3d 55fb 0d3e c57c e8bf 370e 1f3e
000001d0: 81a9 8bbe 220d 2b3e c266 9fbd ea82 03bf
000001e0: 6239 cdbe 517b 9fbe f44c 8f3e cf9e 5d3f
000001f0: 478f dbbd f814 c1be 3da6 36bd 14f8 4c3e
00000200: e314 a3bf 0904 dbbe 142f afbf 290e 6bbf
00000210: 0e70 1b3f fddd bb3e 83ce 76be f574 a73e
00000220: 3aef 7a3f 0a1b 353f 3b34 b23d e13d 1cbe
00000230: 02a6 873f 611d 3ebf ab2c 3cbf 30b2 e83e
00000240: b819 edbd 667d d53e 64a4 adbe 03c4 01bf
00000250: 3296 7abb 6377 383f 16ac 41bd eb0e 573e
00000260: b7d2 823e 5ba5 983f 86a3 81be a9b4 813e
00000270: 0fcb 32be 0646 283f b432 79bf 9d58 d43e
00000280: 4480 eb3e d2b8 ca3e 5450 d03c af40 6abe
00000290: bdf2 dc3d fe6c bdbe 9f66 813e 7137 c43e
000002a0: 6282 083f 0ddb 92be 6e24 7abe 37a7 033e
000002b0: e2b0 d4be 474c 033e ab57 00be 4e73 c23d
000002c0: 0b4c 153f 0286 bc3e fb17 f73e 8671 73be
000002d0: 5326 e13c a6cb 10bf 4c0c eabd e70f 15bf
000002e0: 9b14 3f3f 4913 353f 5112 97be f03c 19bf
000002f0: cf65 94bb 5c09 50bd 26d2 0ebe b524 eebd
00000300: 6196 4dbf e418 113e 754c 44bf 9255 613d
00000310: b8c0 fcbe 0b58 7b3e dbb7 663e b596 bebe
00000320: 1b6f 0e3e e459 3f3e e996 d33d c14c fa3d
00000330: fbcc a0bf 1816 3abd 9cb2 a8be c9b6 83bf
00000340: 7902 93be 5bcf 393e ad3c 1a3f 7b8a 80be
00000350: 8719 3c3f a673 283f d173 203e 8188 b3be
00000360: 152d a1be c6ce 1e3f 16b3 97be 93b2 34be
00000370: 228f 2e3f 0cbd 83be bd67 aabe 2ab8 393f
00000380: 0e54 4cbe 3462 223d 0a2c e73e 7c71 3e3f
00000390: 1187 633e 92b5 65bd df4a ca3d 1f2a e33e
000003a0: 3d71 723f 3ca2 873f 37ee 63bd 5770 043f
000003b0: 54ce e8be 395e a13d 372d a2be 53e1 1dbf
000003c0: 4a73 11bc ca9e 293f 39a0 f33e c4b4 f03e
000003d0: d21a 51be 47ba 9cbe 62ce 8d3e 7dfe ed3e
000003e0: 5822 cb3e 5f9c 853e f8a3 a13d 787c 283f
000003f0: 3125 2abe 9009 73be a75a 1bbe e6c0 853e

tabnet.tabnet.initial_splitter.shared.glu_layers.0.fc.weight f4 [128, 3]
0.8123054 0.33964336 2.7419894 -0.094266504 -0.3504858 -1.0781628 0.68102884 0.4626433
0.62118715 -1.2181675 -0.71941113 -1.9887711 0.3659861 1.446702 0.6873121 -0.17791334
-1.0020125 0.3086323 0.30293292 -0.9354094 1.4711459 -0.6075489 0.42066392 -1.288659
-0.13543937 0.2556528 -0.77418286 -0.98875934 -1.6719888 0.57087713 -0.22303133 -0.30713645
-0.69584316 1.5488514 -0.94472235 -0.4899227 0.028741976 2.2917464 -1.0243679 -2.483557
-0.4054157 1.0673985 1.5697247 -0.53425825 -0.018287344 -1.2099109 -1.5666071 -0.7611672
0.6931585 1.3712237 0.26750144 -0.83794385 0.6013415 -0.23006794 -2.0110433 -0.97112036
0.27846068 -0.2533541 -0.4708123 -1.0948457 -1.3229265 -0.80038935 -2.726773 -0.0092804395
-0.15416619 1.1481713 1.366931 0.33644304 -0.1184346 0.26612762 0.4316926 -1.3227131
-0.25198868 1.5780045 -0.29603273 -1.640408 0.09213602 0.93255746 -2.1609397 -0.35723343
1.5045513 -2.0145307 -0.22495349 -1.062335 -2.0760384 0.24878474 -0.16616859 -0.63131654
-0.2240277 -0.25843725 0.58745074 0.38958284 -0.44540858 -0.7914698 1.1133553 -0.98742396
1.5518556 -0.068885066 0.08860304 -0.56653523 -0.50497997 -0.73884964 -0.14584805 -0.726782
0.49549606 -0.41702694 -1.6071881 0.8720816 0.5916897 1.0928477 -0.5807962 -0.9891123
1.437577 -0.15692082 0.46274295 1.2039165 1.2315345 -0.60631806 -0.51201415 -2.3188806
-1.9163667 -0.33552903 -1.1283045 -0.10650585 0.49433684 1.9551007 1.1467907 0.89138705
-0.67082655 0.39900222 -0.75531965 1.4733542 1.3180496 -0.6785841 0.112526655 0.6765285
0.04736429 -1.1781545 -1.0801446 1.2325013 -2.3670719 -2.1717606 -0.05720433 0.5390848
-1.4970111 0.45669806 -0.40810344 -0.30020365 -0.66046125 -0.47127968 -1.0144682 -0.39431387
-0.7671873 2.7796404 -0.274805 0.64330965 -0.5557743 -1.0747217 -1.6566676 -1.116549
-1.6331402 -2.6750553 -0.87060165 -0.5593353 1.603274 0.2514746 1.6424941 -0.16760342
-0.46009356 -1.8570813 1.1142268 0.041539434 -0.9506593 0.08708573 0.9659082 1.73912
-0.4511212 0.18646395 0.5308104 -0.4692934 0.11388408 0.4317927 0.38294765 -1.2034339
-1.6093264 0.9299911 -0.277444 1.1570141 -0.11315482 1.079997 -0.32700148 -1.2862476
-0.7271299 1.0623875 0.48582172 0.581467 -1.181284 0.65081817 -1.4390388 0.91201
-1.5939834 2.2890475 1.0056542 0.82553214 -0.28697366 0.9512252 0.7245914 0.14105582
-0.4914846 -0.6401238 0.19117293 -2.5855222 0.48883557 -1.1207736 1.079726 -1.2762783
0.25109428 -0.0026194628 0.44570917 1.0270075 -0.19018114 -1.6280763 1.7729368 1.1906652
-1.6848688 -1.3528638 -0.28114045 1.0390782 -1.1471803 -0.69650245 -0.48388803 0.78932554
-0.5770544 -0.4556469 -0.4075022 -1.7635101 0.1293577 0.988558 -0.22980489 -1.8586797
0.49014407 0.059676033 1.0026802 -1.5793996 0.83252573 -0.4632735 0.17651334 -1.0929638
-1.1805642 1.9584279 0.4847566 0.15365678 -0.12380499 -0.47787803 -0.14215787 -0.6424252
00000000: 3ff3 4f3f bce5 ad3e c17c 2f40 cc0e c1bd
00000010: e072 b3be 3d01 8abf e857 2e3f 95df ec3e
00000020: 1f06 1f3f eaec 9bbf 542b 38bf 0d90 febf
00000030: 8862 bb3e 882d b93f b0f3 2f3f ea2e 36be
00000040: f241 80bf 0e05 9e3e 061a 9b3e fe76 6fbf
00000050: 824e bc3f 5388 1bbf 4361 d73e c7f2 a4bf
00000060: 9eb0 0abe ece4 823e d930 46bf 551f 7dbf
00000070: bb03 d6bf 0125 123f 5362 64be fd40 9dbe
00000080: c722 32bf c340 c63f 53d9 71bf 26d7 fabe
00000090: 4b74 eb3c f9ab 1240 7d1e 83bf 99f2 1ec0
000000a0: a692 cfbe 84a0 883f bdec c83f 26c5 08bf
000000b0: 57cf 95bc 5cde 9abf 9586 c8bf dbdb 42bf
000000c0: d672 313f 4284 af3f f3f5 883e 7d83 56bf
000000d0: 84f1 193f ee96 6bbe efb4 00c0 589b 78bf
000000e0: 6692 8e3e a1b7 81be 4f0e f1be e723 8cbf
000000f0: a855 a9bf 51e6 4cbf 7383 2ec0 fc0c 18bc
00000100: bedd 1dbe 47f7 923f 98f7 ae3f 4342 ac3e
00000110: d78d f2bd e141 883e d006 dd3e aa4e a9bf
00000120: a904 81be 0dfc c93f 9a91 97be e4f8 d1bf
00000130: cfb1 bc3d 16bc 6e3f d64c 0ac0 4de7 b6be
00000140: 2395 c03f 12ee 00c0 355a 66be 98fa 87bf
00000150: d0dd 04c0 6dc1 7e3e 1928 2abe f69d 21bf
00000160: 8467 65be e351 84be 2c63 163f 6777 c73e
00000170: 980c e4be c49d 4abf 6d82 8e3f d1c7 7cbf
00000180: 34a3 c63f 9d13 8dbd 8375 b53d 7408 11bf
00000190: 5e46 01bf 4025 3dbf 3159 15be 630e 3abf
000001a0: a9b1 fd3e 8e84 d5be 57b8 cdbf bd40 5f3f
000001b0: fa78 173f 6fe2 8b3f 0faf 14bf 7736 7dbf
000001c0: 8602 b83f daaf 20be a5ec ec3e f019 9a3f
000001d0: eca2 9d3f a937 1bbf 5c13 03bf 8a68 14c0
000001e0: 814b f5bf 76ca abbe 486c 90bf bd1f dabd
000001f0: b819 fd3e bd40 fa3f 0aca 923f f131 643f
00000200: 4abb 2bbf 054a cc3e a15c 41bf df96 bc3f
00000210: d9b5 a83f b0b7 2dbf 6074 e63d f930 2d3f
00000220: 0f01 423d c4cd 96bf 2e42 8abf 9ac2 9d3f
00000230: 1b7e 17c0 20fe 0ac0 164f 6abd 7601 0a3f
00000240: 0f9e bfbf 54d4 e93e eff2 d0be 4bb4 99be
00000250: fd13 29bf 924b f1be 18da 81bf 82e3 c9be
00000260: 6366 44bf a1e5 3140 3eb3 8cbe f1af 243f
00000270: 3947 0ebf 7b90 89bf af0d d4bf 14eb 8ebf
00000280: bd0a d1bf 1b34 2bc0 c0df 5ebf 9930 0fbf
00000290: 1538 cd3f 47c1 803e 3f3d d23f 3ba0 2bbe
000002a0: 6291 ebbe d7b4 edbf fc9e 8e3f 4125 2a3d
000002b0: 685e 73bf 015a b23d c345 773f 7c9b de3f
000002c0: 5cf9 e6be 68f0 3e3e 31e3 073f 3947 f0be
000002d0: 0e3c e93d ef13 dd3e b711 c43e 1f0a 9abf
000002e0: 68fe cdbf e613 6e3f 240d 8ebe 0a19 943f
000002f0: b7bd e7bd 573d 8a3f bd6c a7be c3a3 a4bf
00000300: 2f25 3abf 50fc 873f a0bd f83e 05db 143f
00000310: 5034 97bf 059c 263f 6c32 b8bf 7d79 693f
00000320: a607 ccbf c17f 1240 47b9 803f 1356 533f
00000330: 36ee 92be 7f83 733f d27e 393f f070 103e
00000340: dfa3 fbbe 27df 23bf d6c2 433e 3279 25c0
00000350: a848 fa3e 8275 8fbf 7634 8a3f 165d a3bf
00000360: 6e8f 803e 4bab 2bbb fe33 e43e fb74 833f
00000370: d8be 42be ce64 d0bf 98ef e23f b867 983f
00000380: c8a9 d7bf a42a adbf a4f1 8fbe 8400 853f
00000390: ced6 92bf fc4d 32bf 2cc0 f7be 3d11 4a3f
000003a0: d6b9 13bf 8d4a e9be 21a4 d0be b3ba e1bf
000003b0: 5876 043e 2312 7d3f f951 6bbe 37e9 edbf
000003c0: 2af4 fa3e db6e 743d d357 803f c429 cabf
000003d0: 6820 553f 2f32 edbe eabf 343e 3de6 8bbf
000003e0: ba1c 97bf c4ad fa3f 0432 f83e 3458 1d3e
000003f0: 788d fdbd 6eac f4be d591 11be fa75 24bf

tabnet.tabnet.initial_splitter.shared.glu_layers.0.bn.bn.weight f4 [128]
1.0610942 1.1137556 0.858476 1.0110685 0.8383395 1.1100413 1.1375864 0.8799135
1.1996341 1.1333152 1.1049353 1.1070145 1.0266085 1.1350619 1.0853122 0.8837014
0.90787125 0.787126 1.0733094 0.8340896 1.1367317 0.862576 0.8785797 0.89025843
0.7091487 0.8877679 1.1414683 0.902222 0.85519284 1.0973543 1.0730625 1.1416955
0.86039704 0.83390725 0.837614 1.0969839 0.8695888 1.03634 1.0855713 0.79173774
0.8863708 0.88554394 0.82445985 0.8784978 0.9175809 1.0437016 1.1201926 1.0532153
0.95300376 1.1214386 0.9601684 1.3309269 0.8558683 0.9336596 0.851574 1.0887275
0.9269948 1.0694835 0.8847817 0.89561623 1.1041954 1.1242791 1.0136702 0.87540483
1.1165193 1.1272777 0.956536 1.110981 0.84782636 1.1350995 1.1160058 0.9505641
0.9253105 1.1192662 0.83920825 1.1090596 1.1157368 1.1571151 0.8602389 0.8645516
0.9539437 0.8436843 1.0824512 1.0879062 1.1727974 0.84948087 0.9171802 0.858932
0.8647246 1.0819529 1.0026892 1.0935857 0.85707814 0.65759355 1.100805 1.0793009
0.86220485 0.92552376 0.8876984 1.1888263 0.8795096 1.1929626 1.1670321 1.0875051
0.980408 0.9322912 1.092704 0.87913907 1.0314462 1.1107211 0.8333175 0.9713232
0.8727059 1.1809325 1.1689383 1.1860452 1.083454 0.9001306 0.7663459 1.0512366
1.0151978 1.0895683 1.123075 1.029591 1.1123086 1.0350538 1.0650407 0.8926173
00000000: efd1 873f 8b8f 8e3f 15c5 5b3f b16a 813f
00000010: 6b9d 563f d515 8e3f 6e9c 913f 0342 613f
00000020: 9c8d 993f 7910 913f 856e 8d3f a7b2 8d3f
00000030: e867 833f b549 913f 83eb 8a3f 413a 623f
00000040: 406a 683f 1781 493f 3462 893f e586 553f
00000050: 6d80 913f c8d1 5c3f 99ea 603f fae7 633f
00000060: c58a 353f c244 633f a21b 923f 05f8 663f
00000070: ebed 5a3f 1b76 8c3f 1d5a 893f 1423 923f
00000080: fb42 5c3f f27a 553f df6d 563f f869 8c3f
00000090: 5f9d 5e3f caa6 843f 00f4 8a3f 53af 4a3f
000000a0: 32e9 623f 02b3 623f cd0f 533f 3be5 603f
000000b0: 95e6 6a3f 0498 853f 7962 8f3f c2cf 863f
000000c0: 0ef8 733f 4d8b 8f3f 99cd 753f d05b aa3f
000000d0: 2f1a 5b3f 5104 6f3f c100 5a3f 6c5b 8b3f
000000e0: 884f 6d3f d6e4 883f 0e81 623f 1b47 653f
000000f0: 4656 8d3f 61e8 8f3f f2bf 813f 881a 603f
00000100: 1bea 8e3f a34a 903f 8bdf 743f a034 8e3f
00000110: 260b 593f f14a 913f 47d9 8e3f 2b58 733f
00000120: 26e1 6c3f 1d44 8f3f 5ad6 563f aaf5 8d3f
00000130: 77d0 8e3f 591c 943f 9e38 5c3f 4153 5d3f
00000140: a835 743f b2fb 573f c38d 8a3f 8340 8b3f
00000150: 3a1e 963f 9477 593f 52cc 6a3f f8e2 5b3f
00000160: 975e 5d3f 6f7d 8a3f 1f58 803f 9efa 8b3f
00000170: 7969 5b3f 0d58 283f 2ee7 8c3f 8826 8a3f
00000180: 75b9 5c3f 20ef 6c3f 3440 633f 762b 983f
00000190: 8b27 613f 00b3 983f 4f61 953f 5e33 8b3f
000001a0: 05fc 7a3f a3aa 6e3f badd 8b3f 420f 613f
000001b0: 6e06 843f 1c2c 8e3f 4c54 553f a3a8 783f
000001c0: a769 5f3f cc28 973f c59f 953f 54d0 973f
000001d0: 9fae 8a3f f66e 663f 3f2f 443f ec8e 863f
000001e0: 00f2 813f f976 8b3f ecc0 8f3f a3c9 833f
000001f0: 2160 8e3f a57c 843f 4153 883f 9182 643f

tabnet.tabnet.initial_splitter.shared.glu_layers.0.bn.bn.bias f4 [128]
-0.16055448 -0.10768224 0.16574499 -0.13388544 0.12725098 0.13836221 0.20242359 -0.12023611
-0.13707517 0.09456542 -0.06808939 -0.1582205 -0.010143498 0.09890539 -0.11898145 0.13479373
0.1766807 0.0701055 -0.11423339 0.16447109 0.10692658 -0.113036245 0.1388448 -0.092674404
0.21366835 -0.1359053 -0.17743874 -0.11861901 0.15488969 0.04766502 -0.15396807 0.16818585
0.099681124 -0.2189145 -0.1696849 -0.024026586 0.006704012 -0.0809916 0.070659444 -0.060079284
-0.117166206 -0.100821346 0.2535205 0.12569274 -0.07965056 -0.08029274 -0.19539848 -0.14728796
-0.09762588 0.07355418 0.11022941 -0.07923614 0.1322819 -0.17689863 -0.27275825 -0.03571278
0.15898505 0.15704483 0.18525554 0.117525585 -0.11040613 -0.1815049 0.18576144 -0.15161835
-0.13898395 0.11489112 -0.14244825 0.04783515 0.16689454 0.09205499 0.12623379 -0.13494095
0.15183133 0.13303035 0.12671588 0.10405898 -0.17005913 0.10429606 0.13741831 -0.039789006
-0.13799614 -0.2474947 0.021517301 -0.1343557 0.12647086 -0.10484288 -0.11373477 -0.10365727
-0.2037796 -0.12083598 0.11305848 -0.09392959 -0.13683604 0.1291369 0.070514955 0.1788638
-0.13141853 -0.33227912 -0.07867175 0.08449914 -0.124205336 -0.049690984 0.068599306 -0.16653775
-0.11367393 -0.10955092 -0.15389106 -0.12252216 -0.09754238 0.06734943 0.13707536 -0.10189496
0.009033187 0.0051831505 -0.13127835 -0.009681684 -0.12620007 0.13551006 -0.101878606 0.11830566
-0.080113456 -0.07074236 -0.12192927 -0.10849902 0.103217684 0.14930727 0.14277373 -0.012866424
00000000: 6568 24be 8288 dcbd 0eb9 293e 4419 09be
00000010: 154e 023e d3ae 0d3e 2148 4f3e 5a3e f6bd
00000020: 6f5d 0cbe 84ab c13d 7372 8bbd 8e04 22be
00000030: ea30 26bc e98e ca3d 8cac f3bd 5e07 0a3e
00000040: c9eb 343e 7993 8f3d 32f3 e9bd 1c6b 283e
00000050: 53fc da3d 8c7f e7bd 552d 0e3e 14cc bdbd
00000060: e0cb 5a3e c22a 0bbe 80b2 35be 86ee f2bd
00000070: 679b 1e3e 653c 433d cea9 1dbe e938 2c3e
00000080: 9e25 cc3d 1f2b 60be e1c1 2dbe 67d3 c4bc
00000090: 54ad db3b edde a5bd e6b5 903d b215 76bd
000000a0: d6f4 efbd 6c7b cebd 70cd 813e 99b5 003e
000000b0: d51f a3bd 8570 a4bd 8a16 48be a8d2 16be
000000c0: 14f0 c7bd 93a3 963d f5bf e13d 8f46 a2bd
000000d0: e874 073e ea24 35be f8a6 8bbe 9047 12bd
000000e0: facc 223e 5cd0 203e a1b3 3d3e 41b1 f03d
000000f0: 9c1c e2bd 6cdc 39be 3f38 3e3e d741 1bbe
00000100: cf51 0ebe 094c eb3d f4dd 11be caee 433d
00000110: 67e6 2a3e 5487 bc3d 6e43 013e f62d 0abe
00000120: ac79 1b3e 1c39 083e cfc1 013e e01c d53d
00000130: fb23 2ebe 2c99 d53d 63b7 0c3e ccf9 22bd
00000140: dc4e 0dbe 406f 7dbe 0d45 b03c 8a94 09be
00000150: 9481 013e ddb7 d6bd c6ed e8bd 434a d4bd
00000160: 99ab 50be db78 f7bd 348b e73d 285e c0bd
00000170: bf1e 0cbe 773c 043e 256a 903d 1228 373e
00000180: 9492 06be 7d20 aabe a81e a1bd e30d ad3d
00000190: 5e5f febd c688 4bbd cb7d 8c3d df88 2abe
000001a0: e1cd e8bd 3c5c e0bd 9e95 1dbe e6ec fabd
000001b0: 4dc4 c7bd 7fee 893d 7c5d 0c3e 4eae d0bd
000001c0: efff 133c 6bd7 a93b d56d 06be ed9f 1ebc
000001d0: 973a 01be 26c3 0a3e bba5 d0bd 3d4a f23d
000001e0: 8612 a4bd 5fe1 90bd 0eb6 f9bd bc34 debd
000001f0: cb63 d33d 01e4 183e 4733 123e b2cd 52bc

tabnet.tabnet.initial_splitter.shared.glu_layers.0.bn.bn.running_mean f4 [128]
0.25028598 -0.064820826 0.1441566 -0.2919446 0.107980266 -0.030643957 0.09784796 -0.14719754
-0.05029272 -0.16255759 -0.0689449 0.22253852 -0.0052309027 -0.3715425 0.25103268 -0.2520065
0.14337118 -0.13931286 -0.3338644 -0.09301818 -0.3410452 0.04356816 0.2251715 -0.0042603216
-0.03173235 -0.2308398 -0.29968533 -0.37895423 -0.34577477 -0.118053325 0.08384091 -0.15597112
0.25859046 -0.13040112 -0.013486389 -0.05560396 0.08891957 -0.1494929 0.1434913 -0.20178227
-0.3669694 0.06814763 0.17427324 0.1150984 0.21291468 0.06392943 -0.2578347 -0.3370637
-0.2574903 -0.07833378 -0.20438883 0.4817308 -0.17387383 -0.3170583 -0.08582074 0.05704956
-0.05503936 -0.0015891676 0.163918 0.018559994 0.04168675 -0.1832309 -0.03521313 0.121042736
-0.08542381 0.10651105 -0.29054338 0.4255107 -0.0049959095 -0.009416385 0.01736062 -0.22354747
0.061003525 0.10096797 0.23808086 -0.18362221 -0.21821503 0.10396807 -0.08547226 0.083994426
0.12256377 -0.26944163 -0.03350567 0.33605143 -0.032963794 -0.046675492 -0.06274313 -0.042958375
-0.08011425 0.44952548 0.08661417 0.15560627 0.08967691 0.050247733 -0.32338992 -0.19810414
0.23305146 -0.3523601 -0.12107522 0.064219676 0.2079138 -0.007848778 -0.42074394 0.105700165
-0.16509329 -0.15720943 -0.2578846 -0.14579074 0.25700146 0.042112894 0.19477434 -0.012715942
-0.0673598 -0.13162038 0.30353948 0.028620573 0.15253529 -0.08448854 0.08633214 0.07701505
-0.044653255 0.008092257 0.26910493 -0.20449942 0.14073567 0.014491832 0.30115145 0.13018315
00000000: 7c25 803e c8c0 84bd ca9d 133e c379 95be
00000010: c224 dd3d 0909 fbbc 8364 c83d f4ba 16be
00000020: bdff 4dbd 7f75 26be fc32 8dbd 23e1 633e
00000030: fe67 abbb d23a bebe 5b87 803e ff06 81be
00000040: e5cf 123e 08a8 0ebe 46f0 aabe 5180 bebd
00000050: 7a9d aebe 8774 323d 5c93 663e 2b9a 8bbb
00000060: c8f9 01bd 4561 6cbe 5b70 99be 4a06 c2be
00000070: 6409 b1be f1c5 f1bd c8b4 ab3d e5b6 1fbe
00000080: f865 843e df87 05be 04f6 5cbc fac0 63bd
00000090: 771b b63d ab14 19be 62ef 123e 03a0 4ebe
000000a0: 6ae3 bbbe fc90 8b3d af74 323e b6b8 eb3d
000000b0: 4e06 5a3e 6fed 823d e902 84be 9d93 acbe
000000c0: c5d5 83be 766d a0bd 4e4b 51be 6ba5 f63e
000000d0: fb0b 32be 7755 a2be c9c2 afbd cdac 693d
000000e0: f470 61bd 9e4b d0ba 1fda 273e 210b 983c
000000f0: babf 2a3d e2a0 3bbe a53b 10bd 41e5 f73d
00000100: aef2 aebd 7722 da3d 1ac2 94be 8adc d93e
00000110: bab4 a3bb 2e47 1abc dc37 8e3c a1e9 64be
00000120: d5de 793d 4cc8 ce3d 78cb 733e 7607 3cbe
00000130: c373 5fbe 36ed d43d 150c afbd 4505 ac3d
00000140: b702 fb3d 41f4 89be 3e3d 09bd ef0e ac3e
00000150: 0b05 07bd cd2e 3fbd 787f 80bd 1ff5 2fbd
00000160: f112 a4bd 3428 e63e c562 b13d 4057 1f3e
00000170: 87a8 b73d 91d0 4d3d 5d93 a5be d0db 4abe
00000180: 0ba5 6e3e 8b68 b4be 49f6 f7bd 9b85 833d
00000190: 5be7 543e 2998 00bc c06b d7be 5479 d83d
000001a0: 370e 29be 82fb 20be 7309 84be 2b4a 15be
000001b0: b295 833e 927e 2c3d ed72 473e 8756 50bc
000001c0: eff3 89bd 7ec7 06be 8769 9b3e b175 ea3c
000001d0: 3632 1c3e 5408 adbd e8ce b03d 11ba 9d3d
000001e0: 55e6 36bd 6395 043c 1fc8 893e 4c68 51be
000001f0: 031d 103e 266f 6d3c 8630 9a3e bb4e 053e

tabnet.tabnet.initial_splitter.shared.glu_layers.0.bn.bn.running_var f4 [128]
7.550805 1.10462 1.1849899 5.8761706 2.7428038 1.3257724 3.2221963 2.1685524
0.66337144 5.271913 0.5670093 3.6859 7.122409 9.537865 3.1848993 5.2833433
2.8941252 1.1976691 6.904696 1.3077773 9.338605 1.2573382 2.6653714 2.0465355
2.8033488 4.194549 8.573903 6.2641053 5.407966 0.6486932 0.89729387 2.9665742
3.0400724 1.1602379 0.9298523 4.182575 2.380477 3.0876129 2.9979339 5.3847203
5.994381 3.474839 3.402261 2.9195764 2.4545603 1.8818856 8.359601 6.35011
3.0434268 0.76317567 2.0423527 10.0711155 3.843497 10.36286 4.0140066 3.1741903
5.826027 0.97603285 5.3025103 0.6327408 0.32515413 6.355935 1.464371 2.9244561
1.7422652 2.260085 5.6927576 8.83802 1.298292 0.56090105 7.521538 4.230793
0.25835055 3.6794655 9.231338 3.6147468 2.5511057 1.1462394 3.8194947 4.298907
1.1973107 3.7938704 2.2140296 5.422251 0.28164127 2.4666681 0.24824132 11.834154
2.5714893 11.461463 1.5622605 4.2745423 3.5314763 1.7231807 5.2011795 3.6649652
9.59149 8.200466 2.0979035 3.7674668 6.4673843 0.6220837 9.97463 2.605264
2.1969635 2.8983848 4.6396995 3.0534163 3.3597877 1.529445 2.3019993 2.8649297
2.4643683 2.5888505 12.213258 3.1084914 1.8111047 3.702922 0.36640903 4.446857
6.5333905 3.1485667 7.211647 7.2905693 5.4686437 2.0434494 5.8273873 1.4132049
00000000: 32a0 f140 3064 8d3f c0ad 973f 9709 bc40
00000010: 198a 2f40 e9b2 a93f 7738 4e40 90c9 0a40
00000020: b6d2 293f 83b3 a840 8627 113f c9e5 6b40
00000030: c6ea e340 189b 1841 64d5 4b40 2611 a940
00000040: 5939 3940 394d 993f 45f3 dc40 3f65 a73f
00000050: ed6a 1541 75f0 a03f 7295 2a40 70fa 0240
00000060: 116a 3340 bf39 8640 b52e 0941 8d73 c840
00000070: 0f0e ad40 c210 263f 0db5 653f 5adc 3d40
00000080: 8c90 4240 ad82 943f cd0a 6e3f a8d7 8540
00000090: bc59 1840 739b 4540 26de 3f40 a14f ac40
000000a0: f8d1 bf40 c363 5e40 a5be 5940 57da 3a40
000000b0: 8417 1d40 a1e1 f03f edc0 0541 1a34 cb40
000000c0: 81c7 4240 7b5f 433f e8b5 0240 4a23 2141
000000d0: dbfb 7540 46ce 2541 be72 8040 ef25 4b40
000000e0: d06e ba40 4add 793f 2aae a940 4dfb 213f
000000f0: 9a7a a63e d263 cb40 8270 bb3f 4a2a 3b40
00000100: 8c02 df3f 3ca5 1040 122b b640 8868 0d41
00000110: 6f2e a63f 3697 0f3f 70b0 f040 a862 8740
00000120: 8646 843e 5d7c 6b40 8fb3 1341 0358 6740
00000130: 5145 2340 f9b7 923f 9a72 7440 a590 8940
00000140: 7a41 993f c6ce 7240 a9b2 0d40 1583 ad40
00000150: 4933 903e e4dd 1d40 f932 7e3e b258 3d41
00000160: 4893 2440 2762 3741 27f8 c73f 0dc9 8840
00000170: b503 6240 2f91 dc3f 1070 a640 ca8e 6a40
00000180: be76 1941 1c35 0341 0d44 0640 2d1e 7140
00000190: d0f4 ce40 e140 1f3f 1698 1f41 a5bc 2640
000001a0: 0d9b 0c40 237f 3940 6b78 9440 2c6b 4340
000001b0: c306 5740 dbc4 c33f f553 1340 025b 3740
000001c0: 36b8 1d40 baaf 2540 8169 4341 86f1 4640
000001d0: 47d2 e73f adfc 6c40 f799 bb3e a74c 8e40
000001e0: 8911 d140 1e82 4940 d0c5 e640 584c e940
000001f0: 21ff ae40 e0c7 0240 f579 ba40 e6e3 b43f

tabnet.tabnet.initial_splitter.shared.glu_layers.1.fc.weight f4 [128, 64]
-0.41910094 -1.1040804 0.7181964 -0.11410527 0.3670997 0.099934764 0.39951685 -0.7472944
-0.00158755 -0.1422461 0.034756213 -0.064860426 0.011514453 0.2585718 -0.60085297 0.24326733
-0.25773916 -0.28516027 0.84019953 0.98487115 0.7737454 0.21207161 0.15356874 -1.2161872
-0.4507507 0.32750115 0.44563273 0.5345287 0.20930777 0.68941355 -1.0286411 0.045812603
-0.6154714 -0.80468166 0.4883275 0.19230947 0.4603278 0.17972276 -0.85361606 -0.6045518
0.12529513 0.031122966 -0.1415836 0.049563073 0.114385076 0.15139253 -0.36213118 1.3744278
0.014761514 -0.78314763 0.5321732 0.13085727 -0.2814697 -0.3556904 0.4976539 0.14616674
-0.11975136 0.040415198 -0.9299958 0.6870476 -0.07568371 -0.2183012 -0.06056891 -0.26655304
0.5391037 -1.1026134 0.1370555 -0.14346221 1.0763744 -0.40944803 -0.2131366 -0.058292557
0.4332136 0.6374254 0.104702994 -0.12797163 -0.6288401 -0.060580894 -0.14706433 0.85681385
-0.21172331 -0.35051218 -0.097225346 0.39525017 -0.8213594 -0.85439086 0.68781865 0.77483165
-0.27321044 -0.86494863 0.4739441 0.00076802075 0.43203214 -0.39104706 0.046815153 -0.86589
-0.51774025 0.10192229 0.5086791 -0.27519795 0.3594061 -0.6749813 0.86165154 -0.37946177
-0.28925848 -0.08230585 0.122619905 -0.43409225 -0.4570813 -0.47943655 -0.21643873 -0.016644964
0.06113432 0.13865407 -1.8163077 0.15532766 -0.2727776 0.16704229 -0.07783271 -0.51371634
-0.40082842 -0.3114877 0.27988398 0.8657045 -0.10720687 -0.3771131 -0.04459213 0.2001651
-1.2740749 -0.42776516 -1.3686242 -0.9181848 0.60717857 0.366928 -0.24102215 0.3270642
0.9802128 0.70744383 0.087013684 -0.1525798 1.0597537 -0.7426358 -0.7350566 0.45448446
-0.11577171 0.41697234 -0.33914483 -0.50689715 -0.0038236496 0.7205717 -0.047283255 0.21001785
0.25551388 1.1925462 -0.2532007 0.25333145 -0.17460273 0.6573185 -0.9734299 0.41473857
0.45996296 0.39594132 0.025428928 -0.22876237 0.10788486 -0.36997217 0.25273606 0.38323548
0.5332395 -0.28682747 -0.2442796 0.12856756 -0.415412 0.12822066 -0.12533443 0.09494649
0.5831916 0.3682099 0.48260483 -0.23773775 0.027484095 -0.5656074 -0.11428127 -0.5822739
0.74640816 0.7073255 -0.29506162 -0.5985861 -0.004528738 -0.050790176 -0.13947353 -0.11628095
-0.80307585 0.14169651 -0.76679164 0.055013247 -0.49365783 0.24545304 0.22531073 -0.37224355
0.13909571 0.18686634 0.10331518 0.12221671 -1.2562555 -0.045431226 -0.32948768 -1.0290157
-0.28712824 0.18145506 0.60248834 -0.25105652 0.7347645 0.65801466 0.1566918 -0.35065082
-0.31479707 0.6203426 -0.2962882 -0.17646246 0.68187153 -0.2573017 -0.3328227 0.7254664
-0.1995394 0.039644435 0.45150787 0.74391913 0.22219492 -0.056081362 0.09877562 0.44368073
0.9470404 1.0596385 -0.0556471 0.51733917 -0.45469916 0.078793 -0.3167512 -0.6167194
-0.008877585 0.6625792 0.47583178 0.47012913 -0.20420387 -0.30610868 0.2769652 0.46483222
0.3967464 0.26095864 0.07892603 0.65814924 -0.1661575 -0.23734117 -0.151713 0.26123732
00000000: 6694 d6be 8252 8dbf b8db 373f 06b0 e9bd
00000010: 7ef4 bb3e 99aa cc3d 798d cc3e b04e 3fbf
00000020: 5715 d0ba f6a8 11be 885c 0e3d 8bd5 84bd
00000030: 1ea7 3c3c 8663 843e 80d1 19bf 121b 793e
00000040: 63f6 83be 8700 92be 5117 573f 8420 7c3f
00000050: 2e14 463f 4d29 593e 2041 1d3e 06ac 9bbf
00000060: ccc8 e6be 3bae a73e f929 e43e dfd6 083f
00000070: c754 563e 687d 303f 83aa 83bf ffa5 3b3d
00000080: 898f 1dbf 9eff 4dbf 1006 fa3e c6ec 443e
00000090: 16b0 eb3e 3e09 383e 9586 5abf e8c3 1abf
000000a0: 5e4d 003e 97f5 fe3c 4bfb 10be a602 4b3d
000000b0: b942 ea3d a506 1b3e 4269 b9be 40ed af3f
000000c0: 47da 713c 5d7c 48bf 813c 083f 73ff 053e
000000d0: cc1c 90be 0d1d b6be 7ecc fe3e bcac 153e
000000e0: 3340 f5bd 688a 253d 3414 6ebf 5ae2 2f3f
000000f0: 1000 9bbd 5a8a 5fbe 1b17 78bd a479 88be
00000100: b302 0a3f 7022 8dbf 4758 0c3e c2e7 12be
00000110: a3c6 893f 2ca3 d1be 7b40 5abe 2dc4 6ebd
00000120: 2cce dd3e 502e 233f 866e d63d ff0a 03be
00000130: aafb 20bf ac23 78bd 0898 16be 2758 5b3f
00000140: ffcd 58be 5576 b3be 151e c7bd 3b5e ca3e
00000150: 9c44 52bf 5cb9 5abf e214 303f 5e5b 463f
00000160: 3de2 8bbe 466d 5dbf cda8 f23e 0055 493a
00000170: 5133 dd3e 5237 c8be 3fc1 3f3d f8aa 5dbf
00000180: a08a 04bf a2bc d03d cb38 023f bfe6 8cbe
00000190: 1404 b83e 93cb 2cbf 3295 5c3f d048 c2be
000001a0: b019 94be f88f a8bd 2520 fb3d 5741 debe
000001b0: 8f06 eabe b578 f5be 1da2 5dbe 055b 88bc
000001c0: fb67 7a3d 55fb 0d3e c57c e8bf 370e 1f3e
000001d0: 81a9 8bbe 220d 2b3e c266 9fbd ea82 03bf
000001e0: 6239 cdbe 517b 9fbe f44c 8f3e cf9e 5d3f
000001f0: 478f dbbd f814 c1be 3da6 36bd 14f8 4c3e
00000200: e314 a3bf 0904 dbbe 142f afbf 290e 6bbf
00000210: 0e70 1b3f fddd bb3e 83ce 76be f574 a73e
00000220: 3aef 7a3f 0a1b 353f 3b34 b23d e13d 1cbe
00000230: 02a6 873f 611d 3ebf ab2c 3cbf 30b2 e83e
00000240: b819 edbd 667d d53e 64a4 adbe 03c4 01bf
00000250: 3296 7abb 6377 383f 16ac 41bd eb0e 573e
00000260: b7d2 823e 5ba5 983f 86a3 81be a9b4 813e
00000270: 0fcb 32be 0646 283f b432 79bf 9d58 d43e
00000280: 4480 eb3e d2b8 ca3e 5450 d03c af40 6abe
00000290: bdf2 dc3d fe6c bdbe 9f66 813e 7137 c43e
000002a0: 6282 083f 0ddb 92be 6e24 7abe 37a7 033e
000002b0: e2b0 d4be 474c 033e ab57 00be 4e73 c23d
000002c0: 0b4c 153f 0286 bc3e fb17 f73e 8671 73be
000002d0: 5326 e13c a6cb 10bf 4c0c eabd e70f 15bf
000002e0: 9b14 3f3f 4913 353f 5112 97be f03c 19bf
000002f0: cf65 94bb 5c09 50bd 26d2 0ebe b524 eebd
00000300: 6196 4dbf e418 113e 754c 44bf 9255 613d
00000310: b8c0 fcbe 0b58 7b3e dbb7 663e b596 bebe
00000320: 1b6f 0e3e e459 3f3e e996 d33d c14c fa3d
00000330: fbcc a0bf 1816 3abd 9cb2 a8be c9b6 83bf
00000340: 7902 93be 5bcf 393e ad3c 1a3f 7b8a 80be
00000350: 8719 3c3f a673 283f d173 203e 8188 b3be
00000360: 152d a1be c6ce 1e3f 16b3 97be 93b2 34be
00000370: 228f 2e3f 0cbd 83be bd67 aabe 2ab8 393f
00000380: 0e54 4cbe 3462 223d 0a2c e73e 7c71 3e3f
00000390: 1187 633e 92b5 65bd df4a ca3d 1f2a e33e
000003a0: 3d71 723f 3ca2 873f 37ee 63bd 5770 043f
000003b0: 54ce e8be 395e a13d 372d a2be 53e1 1dbf
000003c0: 4a73 11bc ca9e 293f 39a0 f33e c4b4 f03e
000003d0: d21a 51be 47ba 9cbe 62ce 8d3e 7dfe ed3e
000003e0: 5822 cb3e 5f9c 853e f8a3 a13d 787c 283f
000003f0: 3125 2abe 9009 73be a75a 1bbe e6c0 853e

tabnet.tabnet.initial_splitter.shared.glu_layers.1.bn.bn.weight f4 [128]
0.8856078 0.8994912 1.1356968 1.0907537 1.0331371 1.2045074 0.98502946 0.86133915
1.1618792 0.86757684 0.9125533 1.0942494 0.8861149 1.1118248 0.8804942 0.97119445
1.1277626 0.8523631 0.88205224 1.1159871 0.8712201 1.0742898 0.8888692 0.9868185
1.0560529 1.0814106 1.0869036 1.1008159 1.1327574 0.8463926 0.82350516 1.1578577
1.1301714 1.1367798 1.1308643 1.1052932 0.8899962 1.1168933 0.8576128 0.8918325
1.1135013 1.115024 0.8335456 0.87223 0.850569 0.778456 0.958948 0.8730146
1.1312025 0.85075957 1.1224525 1.1429965 0.8711738 0.9744766 0.86227626 1.1327779
1.1521503 1.0691833 1.0978731 0.8733572 0.9109331 0.82723457 0.8729723 1.1051502
0.8715071 0.93969756 1.155768 0.8667096 0.86613095 0.94407934 1.1241317 0.87181896
1.1805179 0.8626413 0.90878916 1.1164663 1.1234164 1.1017551 1.0999415 0.8222536
0.89472896 1.150239 0.8721465 1.012819 0.85138863 1.0877721 0.8853649 1.1207932
1.1413815 0.85684544 0.88302016 1.1521388 1.0595714 1.1146972 0.83547854 1.1169139
0.8916136 0.92685455 1.1419404 1.102573 0.9046151 1.2340624 0.87232506 0.8328236
0.87654126 1.0870184 0.80358964 1.120543 0.83885217 0.89211226 0.9995419 1.0758531
1.1447867 1.1099088 0.7932516 0.84284 0.8433602 0.9387779 0.61910814 0.88980687
1.1294876 0.8672616 1.0960019 0.8693272 1.0826359 1.1271547 0.9242724 1.1119343
00000000: 31b7 623f 0e45 663f 835e 913f d19d 8b3f
00000010: d63d 843f 4c2d 9a3f e42a 7c3f b980 5c3f
00000020: 75b8 943f 8419 5e3f 189d 693f 5d10 8c3f
00000030: 6dd8 623f 4650 8e3f 1168 613f 33a0 783f
00000040: 865a 903f 7834 5a3f 2dce 613f aad8 8e3f
00000050: 4808 5f3f 5482 893f ef8c 633f 23a0 7c3f
00000060: be2c 873f aa6b 8a3f a81f 8b3f 89e7 8c3f
00000070: 32fe 903f 2fad 583f 3cd1 523f ae34 943f
00000080: 75a9 903f 0082 913f 29c0 903f 3f7a 8d3f
00000090: cad6 633f 5cf6 8e3f 838c 5b3f 224f 643f
000000a0: 3687 8e3f 1bb9 8e3f 3f63 553f 774a 5f3f
000000b0: e4be 593f e448 473f 9e7d 753f e37d 5f3f
000000c0: 3ecb 903f 61cb 593f 86ac 8f3f b64d 923f
000000d0: 3f05 5f3f 4c77 793f 23be 5c3f defe 903f
000000e0: a979 933f 00db 883f 1b87 8c3f 5694 5f3f
000000f0: e932 693f a5c5 533f 1d7b 5f3f 9075 8d3f
00000100: 171b 5f3f 0590 703f 35f0 933f aee0 5d3f
00000110: c2ba 5d3f 2faf 713f 8ce3 8f3f 872f 5f3f
00000120: 361b 973f 0fd6 5c3f 68a6 683f 5ee8 8e3f
00000130: 1ccc 8f3f 5006 8d3f e2ca 8c3f 367f 523f
00000140: f50c 653f 083b 933f fe44 5f3f 0ea4 813f
00000150: 9bf4 593f 1e3c 8b3f 46a7 623f 2776 8f3f
00000160: ca18 923f 395a 5b3f 9c0d 623f 4979 933f
00000170: 09a0 873f 66ae 8e3f ece1 553f 09f7 8e3f
00000180: ca40 643f 5746 6d3f 1a2b 923f 1d21 8d3f
00000190: db94 673f c2f5 9d3f b250 5f3f ed33 553f
000001a0: 0265 603f 6b23 8b3f 0db8 4d3f f46d 8f3f
000001b0: 04bf 563f 7861 643f fae1 7f3f 8eb5 893f
000001c0: 5f88 923f 7e11 8e3f 8912 4b3f 5dc4 573f
000001d0: 74e6 573f c053 703f df7d 1e3f 62ca 633f
000001e0: 0d93 903f db04 5e3f ca49 8c3f 3a8c 5e3f
000001f0: d093 8a3f 9b46 903f 1e9d 6c3f dd53 8e3f

tabnet.tabnet.initial_splitter.shared.glu_layers.1.bn.bn.bias f4 [128]
0.08297511 -0.12091303 0.13133708 -0.123712964 0.1673417 -0.14851804 -0.1709084 -0.16448957
0.08695092 -0.099651046 0.11465483 0.12157625 -0.24240349 0.1173364 0.12979133 0.08236225
-0.11646255 -0.14881459 0.1500811 -0.14698893 0.107446976 0.1375279 -0.1060328 0.061229993
-0.0736892 -0.12024842 -0.08724628 -0.0953683 -0.046822187 0.11019212 0.119766064 0.08042722
-0.11730792 -0.08224534 0.21706925 0.10441372 0.16520445 -0.236448 0.14998265 0.036800113
0.1369289 0.12619376 -0.123125695 -0.105459906 -0.04956228 -0.14491722 0.13276286 0.16189785
-0.13137522 -0.07341448 0.16439335 -0.049007382 0.2975753 -0.12398392 -0.15472119 0.19072771
0.082957275 0.09163339 -0.017332064 -0.11366332 0.0754379 -0.110968895 -0.064725086 0.027377123
-0.06331457 -0.09287877 0.14102805 0.10747319 0.10358919 0.22591999 -0.04460666 -0.13212474
0.16370225 -0.16403829 -0.09540267 -0.039452136 -0.114702344 0.12127665 -0.1085551 0.06417919
0.1594327 -0.1366301 -0.11874265 0.136117 -0.11766725 0.08116889 0.08737821 -0.092648596
-0.051736888 0.12479258 0.073043086 0.057070784 0.15391505 -0.14134555 -0.12892556 0.15881139
0.08596987 0.13892029 0.08025081 0.12314225 -0.10827633 0.100159325 0.06692251 0.124889664
0.1193116 0.06499502 -0.15464246 -0.11336752 0.017705098 -0.1302158 -0.00018528035 -0.10905477
0.13941203 -0.1440385 0.11814942 0.18338677 -0.11910613 0.011432161 -0.108383566 0.13246337
-0.031215033 0.099640794 0.105474 0.15570179 -0.09538212 -0.16410047 -0.13982223 0.11241327
00000000: dbee a93d 40a1 f7bd 3a7d 063e 395d fdbd
00000010: 9f5b 2b3e 1d15 18be 9d02 2fbe f46f 28be
00000020: 5313 b23d d915 ccbd 27d0 ea3d f8fc f83d
00000030: 9f38 78be 114e f03d 05e8 043e 8aad a83d
00000040: eb83 eebd da62 18be dcae 193e 4484 16be
00000050: 290d dc3d 1dd4 0c3e ba27 d9bd 4dcc 7a3d
00000060: 5dea 96bd ce44 f6bd 2dae b2bd 7550 c3bd
00000070: 9fc8 3fbd 68ac e13d e947 f53d 07b7 a43d
00000080: 223f f0bd 3f70 a8bd 6747 5e3e dcd6 d53d
00000090: 5b2b 293e 6d1f 72be 0d95 193e b7bb 163d
000000a0: 1737 0c3e f038 013e 5329 fcbd 5dfb d7bd
000000b0: d101 4bbd 2e65 14be fdf2 073e 8dc8 253e
000000c0: 3a87 06be 555a 96bd bb56 283e f7bb 48bd
000000d0: ca5b 983e 48eb fdbd 3b6f 1ebe 204e 433e
000000e0: 81e5 a93d 49aa bb3d f9fb 8dbc 51c8 e8bd
000000f0: 307f 9a3d a943 e3bd 968e 84bd fd45 e03c
00000100: 12ab 81bd 3937 bebd a869 103e e71a dc3d
00000110: 9226 d43d 9257 673e 79b5 36bd b54b 07be
00000120: 90a1 273e a7f9 27be 7a62 c3bd 9098 21bd
00000130: 10e9 eabd e45f f83d 2352 debd 6170 833d
00000140: 5342 233e c3e8 0bbe 592f f3bd 4162 0b3e
00000150: 87fb f0bd e03b a63d 59f3 b23d 8cbe bdbd
00000160: 0fea 53bd 4193 ff3d 9d97 953d 0ec3 693d
00000170: e89b 1d3e e3bc 10be 1005 04be 749f 223e
00000180: f910 b03d 1f41 0e3e 895a a43d 0132 fc3d
00000190: fbbf ddbd 5520 cd3d ab0e 893d 27c6 ff3d
000001a0: a459 f43d 1c1c 853d 985a 1ebe 3b2d e8bd
000001b0: 480a 913c 4a57 05be d147 42b9 1b58 dfbd
000001c0: 07c2 0e3e d47e 13be 53f8 f13d bec9 3b3e
000001d0: eaed f3bd f54d 3b3c 34f8 ddbd 7aa4 073e
000001e0: abb6 ffbc 7910 cc3d c102 d83d 4a70 1f3e
000001f0: b357 c3bd f409 28be 8f2d 0fbe ee38 e63d

tabnet.tabnet.initial_splitter.shared.glu_layers.1.bn.bn.running_mean f4 [128]
0.15215741 0.09370803 1.2391717 0.55491656 0.42347884 -1.6951379 -0.47376662 0.029304223
-0.149053 0.056153227 0.75705844 1.1095432 -0.21971235 -0.12741655 0.12844354 0.23190352
0.25077233 0.6319439 0.47720465 -0.5407462 -1.0698061 -0.7939813 0.30183604 -0.5733724
-0.43888432 -0.16409986 -0.13038711 0.5290221 0.16452932 0.33696458 0.57192606 -0.62668
0.019248234 0.34002748 0.68229634 0.010347425 -1.0183095 0.123880975 0.36632946 0.08558493
0.90331125 0.84819335 -0.09313656 -1.037379 0.38071987 -0.6700466 -0.013125332 -0.32073548
-0.38993523 0.9781381 0.013394277 -0.14676023 0.5975736 -0.3310575 0.12072183 -0.7257921
-0.08631063 -0.5055049 -0.3313543 0.12256392 -0.7505924 0.055685136 0.45424536 1.384192
0.11502215 0.11254202 0.27138638 0.34528655 0.51976055 0.45028433 -0.83165413 -0.69200575
0.82414424 1.0994997 -0.15717153 0.9328156 0.9284505 -1.0181346 -0.38804075 0.28400293
1.14548 0.17104681 -0.32128063 -0.39124134 -0.9612232 -0.28175575 -0.75318384 -0.5331253
0.042628698 -0.08560052 -0.7045002 0.35680282 0.09017027 -0.7418583 0.1347999 0.5238861
0.43324113 -0.5703399 0.8238062 0.7333113 0.3391889 -0.15110847 1.0468187 -0.036064122
-0.38908255 1.5047882 0.6544348 -0.60581166 -0.11464684 0.40952793 0.58416116 -0.9140059
-0.10763903 0.53038406 0.84743845 0.5807454 -0.46327493 0.8037338 -0.20653014 -0.59663683
1.2218969 0.33921066 0.033772137 0.058625415 1.3890505 0.8201456 -1.2012995 0.48498303
00000000: 27cf 1b3e ffe9 bf3d 2e9d 9e3f 030f 0e3f
00000010: 38d2 d83e 47fa d8bf 8a91 f2be 690f f03c
00000020: 5aa1 18be ed00 663d 95ce 413f 8305 8e3f
00000030: 46fc 60be 7c79 02be b486 033e 1e78 6d3e
00000040: 3b65 803e 13c7 213f 2b54 f43e 586e 0abf
00000050: 68ef 88bf 5c42 4bbf 418a 9a3e 89c8 12bf
00000060: 72b5 e0be cb09 28be 3384 05be fe6d 073f
00000070: 607a 283e 9f86 ac3e bf69 123f 1a6e 20bf
00000080: 79ae 9d3c 1518 ae3e f9aa 2e3f 3f88 293c
00000090: f757 82bf 4fb5 fd3d 898f bb3e 2747 af3d
000000a0: 683f 673f 3323 593f 61be bebd d6c8 84bf
000000b0: b7ed c23e 2d88 2bbf a20b 57bc 7137 a4be
000000c0: 97a5 c7be 4267 7a3f ab73 5b3c 5048 16be
000000d0: 95fa 183f 5e80 a9be 023d f73d 83cd 39bf
000000e0: a1c3 b0bd c568 01bf 45a7 a9be cb02 fb3d
000000f0: d326 40bf 1916 643d d992 e83e 342d b13f
00000100: bc90 eb3d 6e7c e63d 28f3 8a3e 66c9 b03e
00000110: 070f 053f ab8b e63e 49e7 54bf 4a27 31bf
00000120: 1efb 523f 68bc 8c3f 93f1 20be 01cd 6e3f
00000130: efae 6d3f 3c52 82bf 47ad c6be d568 913e
00000140: 179f 923f e526 2f3e e57e a4be c950 c8be
00000150: b912 76bf 4a42 90be a8d0 40bf e67a 08bf
00000160: 6e9b 2e3d 534f afbd 205a 34bf dcae b63e
00000170: 31ab b83d 6dea 3dbf fc08 0a3e 661d 063f
00000180: c8d1 dd3e cc01 12bf f7e4 523f 4aba 3b3f
00000190: 2baa ad3e 2ebc 1abe 28fe 853f f9b7 13bd
000001a0: d435 c7be e69c c03f 0a89 273f 7916 1bbf
000001b0: f6cb eabd a5ad d13e 968b 153f 4afc 69bf
000001c0: da71 dcbd 40c7 073f baf1 583f bbab 143f
000001d0: 5f32 edbe 80c1 4d3f a37c 53be 31bd 18bf
000001e0: 1e67 9c3f 05ad ad3e a754 0a3d 3421 703d
000001f0: 68cc b13f 10f5 513f 2fc4 99bf b24f f83e

tabnet.tabnet.initial_splitter.shared.glu_layers.1.bn.bn.running_var f4 [128]
15.2051 7.363059 11.4484415 6.843542 10.625212 6.7732105 8.851915 8.729849
19.413954 7.5144444 8.314486 7.4821177 19.138197 4.672387 17.201117 8.161317
11.191533 16.870363 13.062707 15.833232 7.804512 3.3862965 11.865575 9.527087
8.891669 7.58393 4.3462243 6.154183 10.929775 5.1547084 6.413492 8.372249
18.702394 4.491306 8.228884 8.352829 11.215095 4.3730955 12.151303 4.934194
5.676996 9.079298 4.8950734 6.9054685 4.1082644 5.5438914 11.133545 7.6735325
5.2483706 7.363453 10.3555 14.088249 11.070442 5.3156905 6.0126595 14.66491
17.586266 3.0664437 7.535448 9.836526 8.21891 9.624047 7.5266576 4.423491
16.609379 13.898652 5.454288 7.1367903 8.290595 19.978838 15.890072 14.645585
9.040406 10.779155 16.156391 10.023682 11.213369 9.135954 14.228187 6.651313
11.401456 6.7140646 21.980974 11.546133 8.096397 3.2174137 7.6075726 5.68096
17.145052 6.9854336 1.3499019 8.070412 14.867099 8.8884325 20.275621 4.5773473
15.095672 6.1890583 12.89268 20.269068 14.567692 5.5587506 11.185524 5.543539
10.759887 3.41796 12.166148 5.143744 13.611667 8.490603 14.411147 1.7842764
13.175007 10.051328 4.669183 9.859804 6.2919602 6.9892535 12.521021 6.327445
4.172044 4.541757 5.3011465 9.125066 10.571984 6.7966213 13.342222 12.237067
00000000: 1748 7341 2e9e eb40 d12c 3741 4cfe da40
00000010: de00 2a41 24be d840 72a1 0d41 76ad 0b41
00000020: c74f 9b41 5476 f040 2208 0541 826d ef40
00000030: 071b 9941 3284 9540 e39b 8941 c194 0241
00000040: 8510 3341 81f6 8641 d900 5141 eb54 7d41
00000050: 90be f940 15b9 5840 65d9 3d41 f36e 1841
00000060: 4744 0e41 8eaf f240 4514 8b40 11ef c440
00000070: 5ce0 2e41 5ff3 a440 543b cd40 bbf4 0541
00000080: 819e 9541 c7b8 8f40 82a9 0341 30a5 0541
00000090: 0771 3341 66f0 8b40 bd6b 4241 ebe4 9d40
000000a0: f4a9 b540 ce44 1141 71a4 9c40 99f9 dc40
000000b0: e776 8340 8f67 b140 0023 3241 948d f540
000000c0: a7f2 a740 68a1 eb40 21b0 2541 7869 6141
000000d0: 8820 3141 231a aa40 b567 c040 79a3 6a41
000000e0: acb0 8c41 9d40 4440 6422 f140 6962 1d41
000000f0: a880 0341 19fc 1941 61da f040 3d8d 8d40
00000100: 02e0 8441 e160 5e41 8789 ae40 9660 e440
00000110: 47a6 0441 a9d4 9f41 bc3d 7e41 5154 6a41
00000120: 81a5 1041 6b77 2c41 4a40 8141 0061 2041
00000130: f669 3341 de2c 1241 a7a6 6341 8ed7 d440
00000140: 5d6c 3641 9ed9 d640 09d9 af41 f6bc 3841
00000150: d88a 0141 1bea 4d40 3c71 f340 6dca b540
00000160: 1129 8941 ac88 df40 96c9 ac3f 6820 0141
00000170: a3df 6d41 0537 0e41 7934 a241 a179 9240
00000180: df87 7141 c40c c640 6b48 4e41 0d27 a241
00000190: 4415 6941 49e1 b140 e8f7 3241 ac64 b140
000001a0: 7f28 2c41 dbbf 5a40 8ba8 4241 8d99 a440
000001b0: 63c9 5941 83d9 0741 0f94 6641 2b63 e43f
000001c0: d4cc 5241 3dd2 2041 f269 9540 c2c1 1d41
000001d0: bd57 c940 f7a7 df40 1a56 4841 6e7a ca40
000001e0: 6281 8540 1356 9140 fea2 a940 4500 1241
000001f0: d926 2941 ec7d d940 be79 5541 07cb 4341
