pl/model_0.pth (torch, 470018 bytes, 135 tensors)

tabnet.tabnet.initial_bn.weight f4 [3]
0	0x3f5eea8f	0.8707666
1	0x3f86bc9c	1.0526309
2	0x3f82f0d2	1.0229743

tabnet.tabnet.initial_bn.bias f4 [3]
0	0xbd884149	-0.06653077
1	0x3de60618	0.11231631
2	0xbdfe8cb6	-0.12429182

tabnet.tabnet.initial_bn.running_mean f4 [3]
0	0x3f0b01f7	0.54299873
1	0x4258a588	54.16165
2	0x40854229	4.164326

tabnet.tabnet.initial_bn.running_var f4 [3]
0	0x3e92fa41	0.28706554
1	0x438797d5	271.1862
2	0x41250c04	10.3154335

tabnet.tabnet.initial_splitter.shared.shared_layers.0.weight f4 [128, 3]
0	0x3f993f4a	1.1972439
1	0x3eadfc5d	0.339816
2	0xbeeddc0f	-0.46456954
3	0x3f7c3f39	0.9853397
4	0x3f7ce5f5	0.98788387
5	0x3fa8d345	1.3189474
6	0x3e8dda91	0.27705815
7	0xbf2f8e40	-0.6857643
8	0xbfe62bfe	-1.7982175
9	0xbfa0480a	-1.2521985
10	0x3e9c348c	0.3050884
11	0x3ea1c415	0.3159491
12	0xbfcf9856	-1.6218364
13	0x3ed764e2	0.42069155
14	0x3f845f9c	1.0341678
15	0xbe640ab6	-0.22269711
16	0xbfc44f04	-1.5336614
17	0x3f7de3af	0.9917554
18	0xbca9fa23	-0.020749157
19	0x3f1edfd0	0.6206026
20	0xbfae1889	-1.3601238
21	0x3f2ded37	0.67940086
22	0x3f4fee8a	0.81223357
23	0xbf827c57	-1.0194196
24	0xbf2f857d	-0.6856306
25	0x4015ceb3	2.340741
26	0x3f1ad8a1	0.604868
27	0xbfdedc88	-1.7411051
28	0xbf542c94	-0.8288052
29	0xbf7cac8e	-0.987008
30	0x3e747953	0.23874407
31	0x40103d46	2.2537398
32	0x3f08a8b1	0.533824
33	0xbfb1d0ae	-1.3891809
34	0x3f0d6177	0.55226845
35	0x401ab538	2.4173107
36	0x4031b3b7	2.776594
37	0x3e52a767	0.20571671
38	0x3f76ecb8	0.96454954
39	0x3df52901	0.119707115
40	0x3fe58dd1	1.7933904
41	0x3fb0f494	1.3824639
42	0xbf9ed865	-1.2409788
43	0x3f2a624b	0.66556233
44	0x3ef5028c	0.47853506
45	0xbd6601a5	-0.056153912
46	0xbd06acbf	-0.032879587
47	0xbfb71bb8	-1.4305334
48	0xbfc7953a	-1.5592415
49	0x3f352db0	0.7077284
50	0x3c522b73	0.012827742
51	0x3fa1a1c6	1.2627494
52	0xbe76c8df	-0.24100064
53	0xbd5429ab	-0.05179755
54	0x3f80089b	1.0002626
55	0x3f18fd2c	0.5976131
56	0x3f05ae6a	0.5221926
57	0x3f3175c8	0.69320345
58	0x3fa23b69	1.267438
59	0x3f15015f	0.5820522
60	0xbe3e65d3	-0.1859353
61	0x3fb30b37	1.3987797
62	0xbec58edc	-0.38585556
63	0x3f0ab113	0.54176444
64	0xbd35f415	-0.044422228
65	0xbef331f4	-0.4749905
66	0xbfa416bb	-1.2819437
67	0x3f44ba42	0.76846707
68	0x3d137b62	0.03600634
69	0xbe6c0505	-0.2304879
70	0x3f77db36	0.96818864
71	0x3f4916a6	0.78550184
72	0x40157cbf	2.335739
73	0x3ea072be	0.3133754
74	0xbd299cb6	-0.041409217
75	0xbf0780f0	-0.5293112
76	0xbf243209	-0.6413885
77	0x3ec73d18	0.38913798
78	0xbf395b9b	-0.72405404
79	0x3d58fe3a	0.052976824
80	0xbe81f84d	-0.2538475
81	0x3dea9e1e	0.1145594
82	0x3da28e78	0.0793733
83	0xbf0c098c	-0.5470207
84	0x3ead2d67	0.33823702
85	0x3ff40d7c	1.9066615
86	0x3f868846	1.0510337
87	0x4025107f	2.5791318
88	0x3ef9995b	0.48749813
89	0x3f1baf87	0.6081471
90	0xbdf35fc9	-0.11883504
91	0x3d5cc7f1	0.053901616
92	0x3f8ac05d	1.0839955
93	0x3f4b07ea	0.7930895
94	0x3f05297a	0.52016413
95	0xbeae2d9f	-0.3401918
96	0xbffc8191	-1.972704
97	0x3f34e357	0.70659393
98	0x3f65e31f	0.89799684
99	0x3db681c1	0.08911467
100	0xbe29adac	-0.16570157
101	0x3d48d8cc	0.04903488
102	0xbf1ef97d	-0.6209944
103	0xbac713a8	-0.0015188353
104	0x3f6120a0	0.87940407
105	0xbfddf9ed	-1.7341896
106	0xbf178ebb	-0.59202164
107	0x3f59870c	0.8497169
108	0x3fce6750	1.6125278
109	0xbf0c345e	-0.54767406
110	0x3f48ec16	0.7848524
111	0xbf5d31f1	-0.8640433
112	0x3fe64a39	1.7991401
113	0x3f7f0727	0.9962029
114	0x3eaaf875	0.33392683
115	0x3f2a2837	0.66467613
116	0x4015f504	2.3430796
117	0x3ec942cb	0.39308771
118	0x3f9690fb	1.1762995
119	0xbf0ef156	-0.55837
120	0x3f4ef710	0.8084574
121	0x3e91269e	0.28349775
122	0x3f3a1a5b	0.72696465
123	0xbf45df72	-0.77294075
124	0x3e83f69a	0.2577408
125	0x3e54096d	0.2070672
126	0x40049f0d	2.0722077
127	0x3f036211	0.5132151
128	0x3faf0908	1.3674631
129	0x3f239204	0.6389468
130	0x3f8d07e5	1.1018034
131	0x3ec20991	0.37897924
132	0x3f1bab0c	0.6080787
133	0xbb445453	-0.0029957488
134	0x3e8122b9	0.25221804
135	0xbed3ca8b	-0.41365466
136	0xbf6a0c36	-0.9142488
137	0x3faeae06	1.3646858
138	0xbf56c00f	-0.8388681
139	0x3f09f954	0.5389607
140	0xbec34ac3	-0.38142976
141	0x3da6f695	0.081525005
142	0xbfa42919	-1.2825042
143	0xbe9afa68	-0.3026917
144	0xbe1ae3d2	-0.15125969
145	0xc020207d	-2.501983
146	0x3f5f1bcd	0.87151796
147	0x3f1974bd	0.59943753
148	0xbefd8f3c	-0.49523342
149	0x3f649a99	0.892984
150	0x3e8c54b8	0.27408385
151	0xbf04358e	-0.5164422
152	0x3f018a6b	0.50601834
153	0xbf1165db	-0.56796044
154	0xbd74ff54	-0.059813812
155	0xbfd6af2c	-1.6772208
156	0xbff52327	-1.9151353
157	0xbfca13fd	-1.578735
158	0x3d842c55	0.06453768
159	0x3efc2008	0.49243188
160	0x3fd97b34	1.6990724
161	0x3f8de4d8	1.1085463
162	0xbf79d00a	-0.9758307
163	0x3e968579	0.29398707
164	0xbe79fb06	-0.24412164
165	0xbf6fe049	-0.93701607
166	0x3fa3dde2	1.2802088
167	0xbe7e3046	-0.24823102
168	0x3f8c3215	1.0952784
169	0xbfa7a49c	-1.309711
170	0x3fb5f520	1.4215431
171	0x3f0f859b	0.5606324
172	0x3ed499ab	0.4152349
173	0x3f3b9308	0.73271227
174	0x400d08ab	2.203654
175	0xbf7709bb	-0.9649922
176	0x3f515519	0.81770474
177	0xbfcfffbf	-1.6249923
178	0xbf00bd6e	-0.50289047
179	0xbf77cf8f	-0.96801084
180	0xbf2ba1b6	-0.67043626
181	0xbe62b762	-0.22140267
182	0xbe5fc4a8	-0.21852362
183	0xbfd48721	-1.6603738
184	0xbf2a5563	-0.6653654
185	0xbf030e70	-0.51193905
186	0x3ebc38c8	0.3676207
187	0xbf8b0a8d	-1.0862595
188	0x3c7654bb	0.01503485
189	0xbea0c3e6	-0.3139946
190	0xbee9e109	-0.456795
191	0x3ea31310	0.3185048
192	0xbe9c933e	-0.30581087
193	0xbf99a958	-1.2004805
194	0x3f230526	0.6367973
195	0x3f4a0c16	0.7892469
196	0x3f37d3c1	0.71807486
197	0xbee1033e	-0.43947786
198	0x3f41981c	0.75622725
199	0xc0146d90	-2.3191872
200	0x3f87ae95	1.0600153
201	0xbf0013d0	-0.5003023
202	0xbe861526	-0.2618801
203	0xbfe9322e	-1.8218439
204	0xbf607716	-0.8768171
205	0xbfaf9f81	-1.3720552
206	0xbf85d99d	-1.0457035
207	0x3f72f519	0.9490524
208	0x3ebae934	0.36506045
209	0x3d71fcb9	0.059078906
210	0x3fbafda3	1.4608654
211	0xbf216671	-0.6304694
212	0x3f26e070	0.65186214
213	0x3e33f13d	0.17572494
214	0xbe60608b	-0.21911828
215	0xbeecfc93	-0.4628645
216	0xbfcba5aa	-1.5909932
217	0xbec76045	-0.38940635
218	0x3e7665f0	0.24062324
219	0xbf862bda	-1.0482132
220	0xbf379325	-0.717089
221	0xbfb08f20	-1.3793678
222	0x3f231202	0.6369935
223	0x3e695d48	0.2278949
224	0xbf5a449d	-0.85260946
225	0xbe4d2071	-0.20031907
226	0xbf7dee4f	-0.99191755
227	0xc03d8754	-2.9613848
228	0x3f6aca28	0.91714716
229	0x3f0a4f30	0.5402708
230	0x3fd2c705	1.6466986
231	0x3e1bfae0	0.1523242
232	0x3ee4aaa9	0.44661453
233	0x3f2db0ac	0.67847705
234	0xbf60a3a6	-0.8774971
235	0x3d82389f	0.06358456
236	0xbf731b60	-0.94963646
237	0xbf3a9008	-0.72876024
238	0x3ee741b0	0.45167303
239	0x3fb569d1	1.4172918
240	0x3e3c6383	0.18397336
241	0xbe829705	-0.25505844
242	0x3f95dda7	1.1708268
243	0x3e235f41	0.15954305
244	0x3f49cbac	0.78826404
245	0x3fd431e8	1.657773
246	0xbf59a816	-0.85022104
247	0xbdd1f8d8	-0.10252541
248	0x3fa2245a	1.2667344
249	0x3ecf6bd8	0.40511966
250	0xbf7d460a	-0.98934996
251	0xbfc4cbe5	-1.5374724
252	0x3f8c162f	1.094427
253	0x3f49b54e	0.78792274
254	0x3e4c380e	0.19943258
255	0x3fe9b2fe	1.8257749

tabnet.tabnet.initial_splitter.shared.shared_layers.1.weight f4 [128, 64]
0	0x3ee2ef76	0.4432332
1	0x3c06692e	0.008203788
2	0xbe462389	-0.19349493
3	0xbe40b814	-0.1882022
4	0xbebb216b	-0.36548933
5	0xbeb3796c	-0.35053575
6	0x3dae4510	0.085092664
7	0x3f56ed44	0.8395579
8	0xbec961a2	-0.393323
9	0xbf13a2e3	-0.5767042
10	0xbf4a1584	-0.7893908
11	0x3ed45c97	0.4147689
12	0x3ea29056	0.31750745
13	0xbecf4255	-0.40480295
14	0xbdcb9bbd	-0.09941814
15	0xbeecb076	-0.4622838
16	0x3f5b05d2	0.85555756
17	0xbe066389	-0.13123907
18	0x3db3c422	0.08777644
19	0x3e4c4afb	0.19950478
20	0x3e90a58f	0.2825131
21	0xbed92ac3	-0.42415437
22	0x3de9fa74	0.11424723
23	0xbf02a20d	-0.5102852
24	0x3ea3848e	0.3193707
25	0xbe1f41b7	-0.15552412
26	0x3f1fff09	0.6249853
27	0xbec39d63	-0.38206014
28	0x3ec524ba	0.38504583
29	0xbf0c0569	-0.54695755
30	0x3dfac5f1	0.122447856
31	0xbe8aa9bd	-0.27082625
32	0xbe555dac	-0.20836514
33	0x3e944352	0.2895761
34	0x3dd1b271	0.10239113
35	0x3f1ca255	0.611852
36	0xbd9266f2	-0.071485415
37	0xbf5adb82	-0.8549119
38	0x3e798417	0.24366795
39	0xbf0b4df2	-0.5441581
40	0x3d413bbf	0.04717612
41	0x3ef22a4b	0.47297892
42	0x3e8aba08	0.27095056
43	0xbf4afe56	-0.79294336
44	0x3ebb9b3a	0.36641866
45	0xbf78e7dd	-0.97228795
46	0xbf068ae7	-0.525557
47	0x3e0e345d	0.13887163
48	0x3e9c00ea	0.30469447
49	0xbf0503d9	-0.51958996
50	0xbe6a69ae	-0.22891876
51	0x3f5afbf3	0.85540694
52	0xbf37b667	-0.717627
53	0xbf5dbef2	-0.86619484
54	0xbea00279	-0.31251886
55	0xbe0eb4c6	-0.13936147
56	0x3f0f61e6	0.56008756
57	0xbd6d0fad	-0.057876278
58	0x3f24bc19	0.64349514
59	0x3d815eae	0.06316887
60	0xbdfd45bc	-0.123668164
61	0xbea2a8ca	-0.317694
62	0x3fa032da	1.2515519
63	0x3e9e3b1b	0.3090447
64	0xbe387be6	-0.18016014
65	0x3ee5a240	0.4485035
66	0x3dd53c45	0.10411886
67	0xbed7087f	-0.4199867
68	0xbf0fbfbf	-0.56151956
69	0x3e9c0060	0.30469036
70	0xbe916ad2	-0.2840181
71	0xbdac74df	-0.08420729
72	0xbd772c58	-0.060345024
73	0x3f27d152	0.6555377
74	0xbf375f95	-0.7163022
75	0xbed99abf	-0.42500874
76	0xbe77dec2	-0.24206069
77	0x3dec9bf3	0.115531825
78	0xbf26758d	-0.6502312
79	0xbf7ede63	-0.99558085
80	0xbf23a57d	-0.6392439
81	0x3ed91db8	0.42405486
82	0x3cad94ae	0.02118906
83	0x3f950dff	1.1644896
84	0xbe38acb3	-0.1803463
85	0x3f160a5d	0.58609563
86	0x3f69c82a	0.9132105
87	0xbdc3e266	-0.095646665
88	0x3f048260	0.51761436
89	0xbec93efe	-0.39305872
90	0x3f65c5b3	0.8975479
91	0xbdc60f61	-0.09670902
92	0xbe903d9f	-0.28172013
93	0xbea9aa4d	-0.33137742
94	0x3f88db8d	1.0692002
95	0x3e60bca2	0.21946958
96	0x3eaca8ab	0.33722433
97	0xbdf38e27	-0.11892348
98	0xbf2f335e	-0.68437755
99	0x3f4313e1	0.7620221
100	0x3f1a704a	0.6032759
101	0xbd2b0855	-0.041755993
102	0xbe1f45e3	-0.15554003
103	0xbdcac05d	-0.09899972
104	0x3dd1cbdc	0.10243961
105	0xbf47db16	-0.78068674
106	0x3ee5b78e	0.44866604
107	0xbfa79b70	-1.3094311
108	0x3f180511	0.5938273
109	0x3f3d327f	0.73905176
110	0x3c00aa0e	0.007853044
111	0xbce38420	-0.027772963
112	0xbecb690c	-0.39728582
113	0xbec5763e	-0.38566774
114	0xbe8f3b9a	-0.2797516
115	0xbcb7186f	-0.022350518
116	0x3ddcf225	0.10788373
117	0xbf13d38a	-0.5774466
118	0x3e4c54da	0.19954243
119	0xbf1a7f7d	-0.6035078
120	0x3f162d55	0.5866292
121	0x3f0bd97d	0.54628736
122	0x3e1fd358	0.15607965
123	0x3edc2d0f	0.43003127
124	0xbeef7268	-0.46766973
125	0x3ca679a8	0.020321682
126	0x3dde60ca	0.10858305
127	0xbcfefb39	-0.031125652
128	0x3e852196	0.26002187
129	0x3bde694f	0.006787456
130	0xbf3541ee	-0.70803726
131	0xbecc3a55	-0.39888254
132	0x3f487fdf	0.78320116
133	0xbf10bbfa	-0.5653683
134	0xbef50b9b	-0.47860417
135	0xbf152c87	-0.5827107
136	0x3f11fe1f	0.57028383
137	0x3de20880	0.110367775
138	0x3d45fa6d	0.048334528
139	0x3ea0798a	0.31342727
140	0xbea7d5f0	-0.3278041
141	0x3e775c45	0.24156292
142	0xbea84c4f	-0.3287072
143	0x3f4e62b4	0.8061936
144	0x3e562737	0.20913397
145	0xbe598c1f	-0.21244858
146	0xbe0da736	-0.13833317
147	0xbf1e2f85	-0.6179126
148	0xbd6b98e8	-0.05751887
149	0xbc267033	-0.010158586
150	0x3f06aed2	0.52610505
151	0xbf30245f	-0.688055
152	0x3eae8901	0.340889
153	0xbf02faaf	-0.5116376
154	0x3e797faf	0.24365114
155	0xbe87b679	-0.26506403
156	0xbf333299	-0.6999908
157	0xbe961495	-0.29312578
158	0xbf332c41	-0.699894
159	0x3e57ec8e	0.21086332
160	0x3f87fd34	1.0624146
161	0xbe424562	-0.1897178
162	0xbf8d1615	-1.1022364
163	0xbf0c41af	-0.54787725
164	0xbef15714	-0.47136748
165	0x3e906b41	0.28206828
166	0x3e7b8dd4	0.24565822
167	0x3d41d6c0	0.047323942
168	0xbf8bc6ae	-1.0920007
169	0x3ee155ea	0.4401086
170	0xbcf1bf5f	-0.029510198
171	0x3e28807c	0.16455263
172	0xbee46e17	-0.44615242
173	0x3f44bbe5	0.76849204
174	0x3e7a1ebc	0.24425787
175	0xbe5c2a7a	-0.21500579
176	0xbe976952	-0.2957254
177	0xbf43de62	-0.76511204
178	0xbf0d6bff	-0.55242914
179	0xbed17952	-0.40912873
180	0x3dda67a0	0.10664296
181	0xbe185ddb	-0.14879553
182	0x3f1f34d0	0.6218996
183	0x3e5c564c	0.21517295
184	0xbeb8db7a	-0.36104947
185	0xbf22a1c5	-0.6352809
186	0x3f00b481	0.5027543
187	0xbe843601	-0.25822452
188	0xbe537208	-0.20648968
189	0xbea292be	-0.3175258
190	0xbf228c8a	-0.63495696
191	0xbef8ef4e	-0.48620075
192	0x3dbdb66c	0.0926331
193	0x3ee30ec6	0.4434721
194	0x3dfb229c	0.122624606
195	0xbe8fbebb	-0.28075203
196	0x3e85e426	0.26150626
197	0x3ea3139f	0.31850907
198	0xbd387acf	-0.045038994
199	0xbe28f387	-0.16499148
200	0xbee5b224	-0.44862473
201	0xbedfe3f2	-0.43728596
202	0x3ef06f5f	0.4695997
203	0x3ea02381	0.31277087
204	0xbf081750	-0.5316057
205	0xbe88a706	-0.2668993
206	0x3e9e23a4	0.30886567
207	0x3ec7f3f2	0.39053303
208	0x3f7216a0	0.94565773
209	0x3fc390c8	1.5278559
210	0x3f0cfaf9	0.55070454
211	0xbdce25f9	-0.100658365
212	0xbdc96ae6	-0.098348424
213	0x3e2f824f	0.17139553
214	0x3ea75fc0	0.3269024
215	0x3de5006e	0.111817226
216	0xbddd9c1c	-0.10820791
217	0x3f282744	0.65684915
218	0x3e83ab81	0.25716785
219	0x3f0577ff	0.52136225
220	0xbee6b5a4	-0.45060456
221	0x3ec23b34	0.37935793
222	0x3edda43d	0.43289366
223	0x3d0259f1	0.031824056
224	0x3f23a154	0.6391804
225	0x3f0d9435	0.5530427
226	0xbe87b62d	-0.26506177
227	0xbd3c5648	-0.04598072
228	0xbf3d622d	-0.7397793
229	0xbf4bf8f4	-0.7967675
230	0xbfc18c3b	-1.512092
231	0x3e8a6c8d	0.27035943
232	0xbddc0eb6	-0.107449934
233	0xbe8118a1	-0.25214103
234	0xbf636d33	-0.888385
235	0xbf449d6f	-0.76802725
236	0x3df385fe	0.11890791
237	0x3dcaa87a	0.098954156
238	0xbeb73898	-0.35785365
239	0x3e2e4083	0.17016797
240	0x3ea481a2	0.32130152
241	0x3e93bce6	0.28855056
242	0x3e61da4b	0.22055928
243	0x3f0f43b4	0.5596268
244	0xbee38a83	-0.44441614
245	0xbed55412	-0.41665703
246	0xbcad2ca1	-0.021139445
247	0xbead2686	-0.33818454
248	0xbf6ba27b	-0.920448
249	0x3f08c57f	0.53426355
250	0xbd85c40e	-0.06531535
251	0x3ed8344b	0.42227396
252	0x3f0111ee	0.50417984
253	0x3f2a6187	0.66555065
254	0x3ef2f3d6	0.47451657
255	0xbf0218c9	-0.5081907

tabnet.tabnet.initial_splitter.shared.glu_layers.0.fc.weight f4 [128, 3]
0	0x3f993f4a	1.1972439
1	0x3eadfc5d	0.339816
2	0xbeeddc0f	-0.46456954
3	0x3f7c3f39	0.9853397
4	0x3f7ce5f5	0.98788387
5	0x3fa8d345	1.3189474
6	0x3e8dda91	0.27705815
7	0xbf2f8e40	-0.6857643
8	0xbfe62bfe	-1.7982175
9	0xbfa0480a	-1.2521985
10	0x3e9c348c	0.3050884
11	0x3ea1c415	0.3159491
12	0xbfcf9856	-1.6218364
13	0x3ed764e2	0.42069155
14	0x3f845f9c	1.0341678
15	0xbe640ab6	-0.22269711
16	0xbfc44f04	-1.5336614
17	0x3f7de3af	0.9917554
18	0xbca9fa23	-0.020749157
19	0x3f1edfd0	0.6206026
20	0xbfae1889	-1.3601238
21	0x3f2ded37	0.67940086
22	0x3f4fee8a	0.81223357
23	0xbf827c57	-1.0194196
24	0xbf2f857d	-0.6856306
25	0x4015ceb3	2.340741
26	0x3f1ad8a1	0.604868
27	0xbfdedc88	-1.7411051
28	0xbf542c94	-0.8288052
29	0xbf7cac8e	-0.987008
30	0x3e747953	0.23874407
31	0x40103d46	2.2537398
32	0x3f08a8b1	0.533824
33	0xbfb1d0ae	-1.3891809
34	0x3f0d6177	0.55226845
35	0x401ab538	2.4173107
36	0x4031b3b7	2.776594
37	0x3e52a767	0.20571671
38	0x3f76ecb8	0.96454954
39	0x3df52901	0.119707115
40	0x3fe58dd1	1.7933904
41	0x3fb0f494	1.3824639
42	0xbf9ed865	-1.2409788
43	0x3f2a624b	0.66556233
44	0x3ef5028c	0.47853506
45	0xbd6601a5	-0.056153912
46	0xbd06acbf	-0.032879587
47	0xbfb71bb8	-1.4305334
48	0xbfc7953a	-1.5592415
49	0x3f352db0	0.7077284
50	0x3c522b73	0.012827742
51	0x3fa1a1c6	1.2627494
52	0xbe76c8df	-0.24100064
53	0xbd5429ab	-0.05179755
54	0x3f80089b	1.0002626
55	0x3f18fd2c	0.5976131
56	0x3f05ae6a	0.5221926
57	0x3f3175c8	0.69320345
58	0x3fa23b69	1.267438
59	0x3f15015f	0.5820522
60	0xbe3e65d3	-0.1859353
61	0x3fb30b37	1.3987797
62	0xbec58edc	-0.38585556
63	0x3f0ab113	0.54176444
64	0xbd35f415	-0.044422228
65	0xbef331f4	-0.4749905
66	0xbfa416bb	-1.2819437
67	0x3f44ba42	0.76846707
68	0x3d137b62	0.03600634
69	0xbe6c0505	-0.2304879
70	0x3f77db36	0.96818864
71	0x3f4916a6	0.78550184
72	0x40157cbf	2.335739
73	0x3ea072be	0.3133754
74	0xbd299cb6	-0.041409217
75	0xbf0780f0	-0.5293112
76	0xbf243209	-0.6413885
77	0x3ec73d18	0.38913798
78	0xbf395b9b	-0.72405404
79	0x3d58fe3a	0.052976824
80	0xbe81f84d	-0.2538475
81	0x3dea9e1e	0.1145594
82	0x3da28e78	0.0793733
83	0xbf0c098c	-0.5470207
84	0x3ead2d67	0.33823702
85	0x3ff40d7c	1.9066615
86	0x3f868846	1.0510337
87	0x4025107f	2.5791318
88	0x3ef9995b	0.48749813
89	0x3f1baf87	0.6081471
90	0xbdf35fc9	-0.11883504
91	0x3d5cc7f1	0.053901616
92	0x3f8ac05d	1.0839955
93	0x3f4b07ea	0.7930895
94	0x3f05297a	0.52016413
95	0xbeae2d9f	-0.3401918
96	0xbffc8191	-1.972704
97	0x3f34e357	0.70659393
98	0x3f65e31f	0.89799684
99	0x3db681c1	0.08911467
100	0xbe29adac	-0.16570157
101	0x3d48d8cc	0.04903488
102	0xbf1ef97d	-0.6209944
103	0xbac713a8	-0.0015188353
104	0x3f6120a0	0.87940407
105	0xbfddf9ed	-1.7341896
106	0xbf178ebb	-0.59202164
107	0x3f59870c	0.8497169
108	0x3fce6750	1.6125278
109	0xbf0c345e	-0.54767406
110	0x3f48ec16	0.7848524
111	0xbf5d31f1	-0.8640433
112	0x3fe64a39	1.7991401
113	0x3f7f0727	0.9962029
114	0x3eaaf875	0.33392683
115	0x3f2a2837	0.66467613
116	0x4015f504	2.3430796
117	0x3ec942cb	0.39308771
118	0x3f9690fb	1.1762995
119	0xbf0ef156	-0.55837
120	0x3f4ef710	0.8084574
121	0x3e91269e	0.28349775
122	0x3f3a1a5b	0.72696465
123	0xbf45df72	-0.77294075
124	0x3e83f69a	0.2577408
125	0x3e54096d	0.2070672
126	0x40049f0d	2.0722077
127	0x3f036211	0.5132151
128	0x3faf0908	1.3674631
129	0x3f239204	0.6389468
130	0x3f8d07e5	1.1018034
131	0x3ec20991	0.37897924
132	0x3f1bab0c	0.6080787
133	0xbb445453	-0.0029957488
134	0x3e8122b9	0.25221804
135	0xbed3ca8b	-0.41365466
136	0xbf6a0c36	-0.9142488
137	0x3faeae06	1.3646858
138	0xbf56c00f	-0.8388681
139	0x3f09f954	0.5389607
140	0xbec34ac3	-0.38142976
141	0x3da6f695	0.081525005
142	0xbfa42919	-1.2825042
143	0xbe9afa68	-0.3026917
144	0xbe1ae3d2	-0.15125969
145	0xc020207d	-2.501983
146	0x3f5f1bcd	0.87151796
147	0x3f1974bd	0.59943753
148	0xbefd8f3c	-0.49523342
149	0x3f649a99	0.892984
150	0x3e8c54b8	0.27408385
151	0xbf04358e	-0.5164422
152	0x3f018a6b	0.50601834
153	0xbf1165db	-0.56796044
154	0xbd74ff54	-0.059813812
155	0xbfd6af2c	-1.6772208
156	0xbff52327	-1.9151353
157	0xbfca13fd	-1.578735
158	0x3d842c55	0.06453768
159	0x3efc2008	0.49243188
160	0x3fd97b34	1.6990724
161	0x3f8de4d8	1.1085463
162	0xbf79d00a	-0.9758307
163	0x3e968579	0.29398707
164	0xbe79fb06	-0.24412164
165	0xbf6fe049	-0.93701607
166	0x3fa3dde2	1.2802088
167	0xbe7e3046	-0.24823102
168	0x3f8c3215	1.0952784
169	0xbfa7a49c	-1.309711
170	0x3fb5f520	1.4215431
171	0x3f0f859b	0.5606324
172	0x3ed499ab	0.4152349
173	0x3f3b9308	0.73271227
174	0x400d08ab	2.203654
175	0xbf7709bb	-0.9649922
176	0x3f515519	0.81770474
177	0xbfcfffbf	-1.6249923
178	0xbf00bd6e	-0.50289047
179	0xbf77cf8f	-0.96801084
180	0xbf2ba1b6	-0.67043626
181	0xbe62b762	-0.22140267
182	0xbe5fc4a8	-0.21852362
183	0xbfd48721	-1.6603738
184	0xbf2a5563	-0.6653654
185	0xbf030e70	-0.51193905
186	0x3ebc38c8	0.3676207
187	0xbf8b0a8d	-1.0862595
188	0x3c7654bb	0.01503485
189	0xbea0c3e6	-0.3139946
190	0xbee9e109	-0.456795
191	0x3ea31310	0.3185048
192	0xbe9c933e	-0.30581087
193	0xbf99a958	-1.2004805
194	0x3f230526	0.6367973
195	0x3f4a0c16	0.7892469
196	0x3f37d3c1	0.71807486
197	0xbee1033e	-0.43947786
198	0x3f41981c	0.75622725
199	0xc0146d90	-2.3191872
200	0x3f87ae95	1.0600153
201	0xbf0013d0	-0.5003023
202	0xbe861526	-0.2618801
203	0xbfe9322e	-1.8218439
204	0xbf607716	-0.8768171
205	0xbfaf9f81	-1.3720552
206	0xbf85d99d	-1.0457035
207	0x3f72f519	0.9490524
208	0x3ebae934	0.36506045
209	0x3d71fcb9	0.059078906
210	0x3fbafda3	1.4608654
211	0xbf216671	-0.6304694
212	0x3f26e070	0.65186214
213	0x3e33f13d	0.17572494
214	0xbe60608b	-0.21911828
215	0xbeecfc93	-0.4628645
216	0xbfcba5aa	-1.5909932
217	0xbec76045	-0.38940635
218	0x3e7665f0	0.24062324
219	0xbf862bda	-1.0482132
220	0xbf379325	-0.717089
221	0xbfb08f20	-1.3793678
222	0x3f231202	0.6369935
223	0x3e695d48	0.2278949
224	0xbf5a449d	-0.85260946
225	0xbe4d2071	-0.20031907
226	0xbf7dee4f	-0.99191755
227	0xc03d8754	-2.9613848
228	0x3f6aca28	0.91714716
229	0x3f0a4f30	0.5402708
230	0x3fd2c705	1.6466986
231	0x3e1bfae0	0.1523242
232	0x3ee4aaa9	0.44661453
233	0x3f2db0ac	0.67847705
234	0xbf60a3a6	-0.8774971
235	0x3d82389f	0.06358456
236	0xbf731b60	-0.94963646
237	0xbf3a9008	-0.72876024
238	0x3ee741b0	0.45167303
239	0x3fb569d1	1.4172918
240	0x3e3c6383	0.18397336
241	0xbe829705	-0.25505844
242	0x3f95dda7	1.1708268
243	0x3e235f41	0.15954305
244	0x3f49cbac	0.78826404
245	0x3fd431e8	1.657773
246	0xbf59a816	-0.85022104
247	0xbdd1f8d8	-0.10252541
248	0x3fa2245a	1.2667344
249	0x3ecf6bd8	0.40511966
250	0xbf7d460a	-0.98934996
251	0xbfc4cbe5	-1.5374724
252	0x3f8c162f	1.094427
253	0x3f49b54e	0.78792274
254	0x3e4c380e	0.19943258
255	0x3fe9b2fe	1.8257749

tabnet.tabnet.initial_splitter.shared.glu_layers.0.bn.bn.weight f4 [128]
0	0x3f4c013a	0.7968937
1	0x3f71a1f7	0.94387764
2	0x3f8b15a8	1.0865984
3	0x3f823d0e	1.0174882
4	0x3f58bad2	0.84660065
5	0x3f973c49	1.1815273
6	0x3f716564	0.94295335
7	0x3f8f1af9	1.1180106
8	0x3f93b207	1.1538705
9	0x3f3b76f1	0.73228365
10	0x3f6a7323	0.91581935
11	0x3f843f42	1.0331805
12	0x3f713eca	0.94236434
13	0x3f7f832a	0.99809515
14	0x3f73ac93	0.951852
15	0x3f8c81b8	1.0977087
16	0x3f83f19d	1.030811
17	0x3f90cf8e	1.1313341
18	0x3f85f9de	1.0466878
19	0x3f808333	1.0040039
20	0x3f542e41	0.8288308
21	0x3f2a2cb5	0.6647447
22	0x3f8ca83e	1.0988843
23	0x3f8e2690	1.1105518
24	0x3f83d169	1.0298282
25	0x3f497070	0.7868719
26	0x3f83292f	1.0246943
27	0x3f57ec8c	0.84345317
28	0x3f9659d2	1.1746161
29	0x3f487da6	0.78316724
30	0x3f92f755	1.148173
31	0x3f8b93e0	1.0904503
32	0x3f7d2cba	0.9889637
33	0x3f674f04	0.90354943
34	0x3f87f0eb	1.0620397
35	0x3f51da4c	0.8197372
36	0x3f8ea04a	1.1142666
37	0x3f91a3d3	1.137812
38	0x3f8cf2b6	1.101157
39	0x3f861be4	1.0477262
40	0x3f5ded9f	0.86690706
41	0x3f623d74	0.8837502
42	0x3f53f6f6	0.8279871
43	0x3f8b2ad9	1.0872451
44	0x3f8cf371	1.1011792
45	0x3f9277b3	1.1442779
46	0x3f87d07f	1.0610503
47	0x3f4c0d03	0.79707354
48	0x3f7ab28a	0.9792868
49	0x3f826fe2	1.0190394
50	0x3f8cf7f6	1.1013172
51	0x3f9f35c2	1.243828
52	0x3f5cc492	0.8623744
53	0x3f68973e	0.9085578
54	0x3f74ef84	0.9567797
55	0x3f7cad03	0.98701495
56	0x3f7cdb88	0.9877248
57	0x3f8b5240	1.0884476
58	0x3f8b4084	1.0879064
59	0x3f8435f0	1.032896
60	0x3f5cfada	0.8632027
61	0x3f5c72d4	0.86112714
62	0x3f6897cf	0.9085664
63	0x3f45e5a5	0.77303535
64	0x3f50fd1c	0.81636214
65	0x3f86ab3b	1.0521005
66	0x3f8437e2	1.0329554
67	0x3f8d786d	1.1052376
68	0x3f3663bc	0.7124593
69	0x3f9656c2	1.1745226
70	0x3f6c6f9d	0.9235781
71	0x3f92187b	1.1413721
72	0x3f825dae	1.0184839
73	0x3f4d4647	0.8018536
74	0x3f803b05	1.0018011
75	0x3f9a3704	1.204804
76	0x3f625635	0.8841279
77	0x3f8d28d0	1.102808
78	0x3f5486c5	0.8301814
79	0x3f986f9b	1.1909059
80	0x3f6bf63c	0.921726
81	0x3f97b8f9	1.1853324
82	0x3f86dabc	1.0535502
83	0x3f833750	1.0251255
84	0x3f7698ea	0.9632708
85	0x3f67a3e8	0.90484476
86	0x3f880f01	1.0629579
87	0x3f77d927	0.96815723
88	0x3f906344	1.1280293
89	0x3f56514d	0.83717805
90	0x3f83105d	1.0239369
91	0x3f911c98	1.1336851
92	0x3f8abf4e	1.0839632
93	0x3f4c7cea	0.79878104
94	0x3f91bc83	1.1385654
95	0x3f9610fe	1.1723936
96	0x3f91f947	1.1404198
97	0x3f91929c	1.1372867
98	0x3f8a25d2	1.0792792
99	0x3f64f032	0.8942901
100	0x3f926edd	1.1440083
101	0x3f547649	0.8299299
102	0x3f9ae587	1.2101296
103	0x3f5d49c3	0.86440676
104	0x3f52817a	0.82228816
105	0x3f44864b	0.76767415
106	0x3f78fa52	0.9725696
107	0x3f95beb0	1.1698818
108	0x3f88c3f5	1.0684801
109	0x3f74d437	0.95636314
110	0x3f9abb78	1.2088461
111	0x3f834e18	1.0258207
112	0x3f81eeb2	1.0150969
113	0x3f96519a	1.1743653
114	0x3f67f75d	0.9061182
115	0x3faf3caa	1.3690388
116	0x3f52c0ec	0.82325625
117	0x3f6e2d9e	0.93038356
118	0x3f6dfa23	0.92959803
119	0x3f8238cd	1.0173584
120	0x3f89817a	1.0742638
121	0x3f934f89	1.1508647
122	0x3f809f03	1.0048527
123	0x3f8be045	1.0927817
124	0x3f48abd0	0.78387165
125	0x3f9d0ce6	1.2269561
126	0x3f7e4011	0.9931651
127	0x3f4e370d	0.8055275

tabnet.tabnet.initial_splitter.shared.glu_layers.0.bn.bn.bias f4 [128]
0	0x3ca6b257	0.020348711
1	0xbdb27bf3	-0.08715048
2	0x3db3b388	0.08774477
3	0x3e1635eb	0.14669006
4	0x3db15f4e	0.08660756
5	0xbdb7489b	-0.08949395
6	0xbba6307a	-0.005071697
7	0x3ddbc71a	0.10731335
8	0x3cb458f9	0.022015082
9	0xbe00df93	-0.12585287
10	0x3e072bad	0.13200255
11	0x3d3be6fe	0.04587459
12	0xbc587561	-0.013211579
13	0xbc86028a	-0.016358633
14	0xbe35f683	-0.17769818
15	0xbd936d53	-0.07198586
16	0xbd9818ba	-0.07426591
17	0x3cd2746c	0.02569028
18	0x3e0b909d	0.13629384
19	0x3d972fe9	0.07382185
20	0xbe233d4d	-0.15941353
21	0xbd7ce042	-0.061737306
22	0xbd79196f	-0.06081527
23	0x3b7559c8	0.0037437547
24	0x3cb0120d	0.021492982
25	0xbe14bd90	-0.14525437
26	0x3e24b79d	0.16085668
27	0x3e26b75e	0.16280887
28	0x3d1ecff6	0.038772546
29	0xbc7ca536	-0.015420249
30	0x3e5cc947	0.21561156
31	0xbe174fcd	-0.14776535
32	0xbd8f3c7e	-0.0699396
33	0xbe3e0c8b	-0.18559472
34	0xbe560a7b	-0.20902435
35	0xbbf552ee	-0.0074866926
36	0x3c640445	0.013917034
37	0xbc522d4d	-0.012828183
38	0x3e01c17a	0.12671462
39	0x3d1be4f3	0.03806014
40	0xbd4c0936	-0.04981347
41	0x3ba338ee	0.004981152
42	0xbe090c5d	-0.13383622
43	0x3d9822d6	0.074285194
44	0x3c4f5dec	0.01265667
45	0xbdfdb23a	-0.1238751
46	0x3d934457	0.07190769
47	0x3d22c8a8	0.039742142
48	0xbd1f06c2	-0.038824804
49	0xbe5b9b69	-0.21446003
50	0x3d177eb9	0.036986087
51	0x3e336297	0.17518078
52	0x3d331d20	0.043728948
53	0xbdab0da4	-0.08352211
54	0x3da338b9	0.07969803
55	0x3c17d3a6	0.0092667695
56	0x3cba2b8d	0.022725845
57	0xbda69914	-0.08134666
58	0x3cf74b12	0.030187164
59	0x3de929f4	0.11384955
60	0xbd6dcd74	-0.058057263
61	0xbe413a55	-0.18869908
62	0x3d5b4347	0.053530958
63	0x3e1bea8a	0.15226188
64	0x3db8f565	0.0903118
65	0x3b6a4cb0	0.0035751276
66	0x3e068492	0.13136509
67	0xbdd23ce2	-0.10265519
68	0xbe119a78	-0.14219081
69	0x3e0ee2c4	0.13953692
70	0xbcc90a6f	-0.024541108
71	0x3da53d4b	0.08068331
72	0x3de626cc	0.11237869
73	0xbd8dffdc	-0.06933567
74	0xbd3b3c73	-0.045711946
75	0xbb3f2fd0	-0.0029172786
76	0x3d11dbda	0.035610057
77	0xbd985f10	-0.07440007
78	0x3e247bea	0.16062894
79	0x3d033253	0.032030415
80	0x3d8cde0d	0.0687829
81	0x3d0c225c	0.034212455
82	0x3de0fb2f	0.109854095
83	0x3df3b1aa	0.11899121
84	0xbe18059c	-0.1484589
85	0xbe1a38ae	-0.15060684
86	0x3d6949d0	0.05695516
87	0x3e0ac6c1	0.13552381
88	0xbdf21fa2	-0.1182244
89	0xbdf10e1a	-0.11770268
90	0x3b618734	0.0034412863
91	0xbe3974d4	-0.18110973
92	0x3d65ef39	0.056136344
93	0xbdb2dac6	-0.08733134
94	0x3dd4d964	0.103930265
95	0xbcb0d0df	-0.021583972
96	0xbe1dbf68	-0.15405047
97	0xbe253483	-0.16133313
98	0xbe0b8705	-0.13625725
99	0xbe742184	-0.2384091
100	0x3d2f42f9	0.04278848
101	0x3e41e574	0.18935186
102	0x3bdb521a	0.006693137
103	0x3d9d7fb7	0.07690375
104	0xbd4f19bc	-0.05056165
105	0xbe2bd3b5	-0.16779979
106	0xbe4c5212	-0.19953182
107	0x3d7ca853	0.061683964
108	0x3dd4746e	0.1037377
109	0x3e37973f	0.1792879
110	0xbb4fca0f	-0.003170613
111	0xbe7b4d05	-0.245411
112	0x3c90fbb1	0.01769814
113	0xbd172dec	-0.03690903
114	0x3ddd1332	0.10794677
115	0x3e34bdf6	0.1765059
116	0x3df5ae21	0.11996103
117	0xbd5d315b	-0.054002147
118	0xbcdf0305	-0.02722312
119	0xbd56ed8c	-0.052472636
120	0xbcd97aab	-0.02654775
121	0x3c5a5829	0.013326683
122	0x3d82fc23	0.063957475
123	0xbc8b12d7	-0.016976757
124	0xbd88a288	-0.066716254
125	0xbe28ec5e	-0.16496417
126	0xbda4f88e	-0.080552205
127	0xbe501b29	-0.20322861

tabnet.tabnet.initial_splitter.shared.glu_layers.0.bn.bn.running_mean f4 [128]
0	0x3cd32564	0.025774665
1	0xbe0afe99	-0.13573684
2	0x3e1ed4dc	0.15510887
3	0x3d88f51c	0.06687376
4	0x3b98628a	0.0046504186
5	0xbe91a235	-0.28444067
6	0x3e810af6	0.25203675
7	0x3e3b63d6	0.18299803
8	0x3e56f425	0.20991571
9	0x3e1dfd99	0.15428771
10	0x3e1be53f	0.15224169
11	0xbe3c40ba	-0.18384066
12	0xbe902762	-0.28155047
13	0xbbae5174	-0.0053197686
14	0x3daa0028	0.08300811
15	0x3e47720c	0.19477099
16	0x3e2e13ed	0.16999789
17	0xbdc5d99b	-0.096606456
18	0xbd8f7cfa	-0.07006259
19	0x3c514046	0.012771672
20	0x3e59e474	0.21278554
21	0x3cd5083a	0.0260049
22	0x3e2076bc	0.15670294
23	0x3c2b12d7	0.0104415035
24	0xbdd8af14	-0.105802685
25	0xbdb4967c	-0.08817765
26	0x3daf2cd3	0.085534714
27	0x3d9b666a	0.07587893
28	0x3d262772	0.04056496
29	0xbe438399	-0.1909317
30	0xbe0aab68	-0.13541949
31	0x3d580a39	0.052744124
32	0x3d97a19b	0.07403871
33	0xbcf6ba91	-0.030118259
34	0xbda7d42e	-0.08194767
35	0xbd90bf05	-0.07067684
36	0xbe87bd77	-0.26511738
37	0x3dddc556	0.108286545
38	0xbe896162	-0.2683211
39	0x3e342bf3	0.1759489
40	0xbdf34c91	-0.11879838
41	0x3d42652a	0.04745976
42	0xbe851986	-0.25996035
43	0x3cd23828	0.025661543
44	0xbd946298	-0.07245368
45	0xbe83a71d	-0.25713435
46	0x3e258c24	0.1616674
47	0xbdcc0a9c	-0.09962961
48	0xbec005e3	-0.3750449
49	0xbe58df22	-0.21178868
50	0xbe0f251f	-0.13979004
51	0x3e836d71	0.25669435
52	0xbd6cdbf0	-0.057826936
53	0xb8a1d680	-7.717032e-05
54	0x3e003bfd	0.12522884
55	0x3e699776	0.22811684
56	0xbecd153e	-0.4005527
57	0xbdba75b7	-0.091044836
58	0xbeb393fe	-0.35073847
59	0x3e373134	0.17889863
60	0x3d42a085	0.047516365
61	0x3dcfe8d1	0.10151828
62	0xbe0f7f92	-0.14013508
63	0xbd9386cc	-0.07203445
64	0xbe481f76	-0.19543251
65	0x3db2f44f	0.087380044
66	0xbee00ee1	-0.43761352
67	0x3e8087fc	0.25103748
68	0x3d545847	0.051842
69	0xbce8b585	-0.028406868
70	0xbe7c63c7	-0.24647437
71	0x3cee6d8a	0.029104967
72	0x3cce2424	0.025163718
73	0x3e352621	0.17690326
74	0x3dcd8f5e	0.10037111
75	0x3e9f4e57	0.31114456
76	0xbe6485a1	-0.223166
77	0xbd58c057	-0.052917805
78	0x3e430b95	0.19047387
79	0xbdcb78c5	-0.09935144
80	0xbe4a78d2	-0.19772652
81	0xbe1a5bb7	-0.15074049
82	0xbe057481	-0.13032724
83	0x3da2617e	0.079287514
84	0xbc384d53	-0.011248904
85	0xbe860609	-0.2617648
86	0xbdc068bd	-0.09394977
87	0xbd9d5754	-0.07682672
88	0x3ebf9ee5	0.37425914
89	0xbe15b311	-0.1461909
90	0x3e64814c	0.22314948
91	0xbe04acd4	-0.12956554
92	0x3d98a2a0	0.07452893
93	0x3ef184ef	0.47171733
94	0xbe92132b	-0.2853025
95	0x3df91526	0.12162237
96	0x3e96b65f	0.29436013
97	0x3dfbcd74	0.122950464
98	0x3dea1912	0.11430563
99	0xbe447cad	-0.19188185
100	0xbde6db49	-0.11272294
101	0xbe1d5aef	-0.1536672
102	0x3cefb247	0.029259814
103	0xbe589f16	-0.21154436
104	0xbda3fec4	-0.08007577
105	0x3d1c167b	0.038107377
106	0x3e6e33aa	0.23261896
107	0xbedb4bd2	-0.42831284
108	0x3dfc1621	0.12308908
109	0x3eadb5e4	0.33927834
110	0xbe7fe4ef	-0.24989675
111	0xbe9d0737	-0.30669567
112	0x3e2f6b2a	0.17130724
113	0xbe1d0106	-0.15332422
114	0xbea5b1f2	-0.32362324
115	0x3e5d77c8	0.21627724
116	0xbe8bf2ac	-0.2733358
117	0x3e4b6c79	0.19865598
118	0xbe760cdd	-0.24028344
119	0xbcca7695	-0.024714747
120	0x3e94c975	0.2905995
121	0xbe28be8b	-0.16478936
122	0x3d58d307	0.052935626
123	0xbde0e078	-0.10980314
124	0x3e4e5eac	0.20153302
125	0xbde82f5f	-0.1133716
126	0x3e108e16	0.14116701
127	0xbd0e50c0	-0.034744978

tabnet.tabnet.initial_splitter.shared.glu_layers.0.bn.bn.running_var f4 [128]
0	0x3fc8afde	1.567867
1	0x405b61a9	3.4278357
2	0x405f0f18	3.4852962
3	0x3fa284a0	1.2696724
4	0x403ed3d0	2.981678
5	0x4088edc8	4.279026
6	0x4025a9d7	2.5884912
7	0x402306f1	2.5472987
8	0x40c5cf2e	6.1815405
9	0x4083a0b6	4.113368
10	0x40bba91f	5.8643947
11	0x40e65e5b	7.199018
12	0x40db19b4	6.8468876
13	0x409cc5f0	4.8991623
14	0x3fce0b77	1.6097249
15	0x4005a82c	2.0883894
16	0x40089777	2.1342447
17	0x3f975c30	1.1825008
18	0x3fbc2469	1.4698611
19	0x401ffe46	2.4998946
20	0x402098de	2.5093303
21	0x3ee27214	0.4422766
22	0x3fd6be31	1.6776792
23	0x3fba47c8	1.4553156
24	0x408bb9e6	4.3664427
25	0x3f7cf26e	0.9880742
26	0x3ee9a40f	0.4563298
27	0x3eae2b15	0.34017244
28	0x409cc22d	4.898703
29	0x40b9f023	5.8105636
30	0x3f9ac0cd	1.2090088
31	0x3f85ac18	1.0443144
32	0x40736903	3.8032844
33	0x3d20534d	0.03914194
34	0x3f8b1eea	1.0868809
35	0x4071f372	3.7804837
36	0x40370f09	2.8602927
37	0x408b4e13	4.3532805
38	0x40b854f4	5.7603703
39	0x4014b6c7	2.3236558
40	0x3f8de044	1.1084065
41	0x3f01f1da	0.5075966
42	0x40ae48c0	5.4463806
43	0x3fedb76f	1.8571604
44	0x3eaf0bc3	0.3418866
45	0x405df54c	3.4680967
46	0x3f794a82	0.97379315
47	0x3fea1c5f	1.8289908
48	0x410b1798	8.69326
49	0x3fb8df80	1.4443207
50	0x3f2b6be6	0.66961515
51	0x40464ff0	3.098629
52	0x40c96ed3	6.2947783
53	0x408a4929	4.3214307
54	0x3f5501cc	0.83205867
55	0x401b5abb	2.4274127
56	0x40a60d8b	5.189153
57	0x3f701b76	0.937919
58	0x40a51a48	5.159458
59	0x40504172	3.2539945
60	0x3eec1e66	0.46116942
61	0x403eb375	2.9797032
62	0x3fae4c9a	1.3617127
63	0x3efd4d38	0.49472976
64	0x401ca53f	2.4475858
65	0x3fbcfbff	1.4764403
66	0x41016f7a	8.089716
67	0x406312ee	3.5480304
68	0x40695a76	3.6461463
69	0x3f667e83	0.9003679
70	0x401a6676	2.4125037
71	0x3e839f9e	0.25707716
72	0x40135eda	2.3026643
73	0x404e181d	3.2202218
74	0x3f999120	1.1997414
75	0x41148f42	9.284975
76	0x4063a1a9	3.556742
77	0x3f22cab0	0.63590527
78	0x3fc175dc	1.5114093
79	0x401aaf13	2.4169357
80	0x3fcabe4b	1.5839323
81	0x404a36ab	3.1595867
82	0x4010b3d8	2.2609768
83	0x40464354	3.0978594
84	0x3fe4be69	1.7870609
85	0x4066c025	3.6054776
86	0x3fe848b3	1.8147186
87	0x3f8f315d	1.118694
88	0x409e91a4	4.9552784
89	0x3fda3f6e	1.7050607
90	0x408185e7	4.0475955
91	0x400aefe2	2.1708913
92	0x3fba52c4	1.4556508
93	0x41387a19	11.529809
94	0x404f176c	3.2358046
95	0x3fe03007	1.7514657
96	0x410c456f	8.766952
97	0x3effb6d4	0.49944174
98	0x40a92b18	5.2865105
99	0x407b4838	3.926283
100	0x3faff8ca	1.3747799
101	0x40a40c25	5.1264825
102	0x3ee3151c	0.44352043
103	0x3fc9a34d	1.575296
104	0x3f71ead1	0.94498926
105	0x3fd32ab1	1.6497403
106	0x40027e68	2.0389652
107	0x40dc2350	6.8793106
108	0x3efaaeba	0.4896143
109	0x40859918	4.174938
110	0x40120708	2.2816792
111	0x4060742d	3.5070908
112	0x41166a22	9.400911
113	0x3fc0d284	1.5064244
114	0x40c9b390	6.3031693
115	0x4041266d	3.0179703
116	0x40852017	4.160167
117	0x40485456	3.1301475
118	0x40076982	2.1158147
119	0x40cd7b89	6.42133
120	0x403fe064	2.9980707
121	0x40074078	2.1133099
122	0x403fcaf3	2.996762
123	0x40fede96	7.964671
124	0x3fd13077	1.6342915
125	0x3ef1d4a2	0.47232538
126	0x3f91c2cc	1.1387572
127	0x3fd4337f	1.6578215

tabnet.tabnet.initial_splitter.shared.glu_layers.1.fc.weight f4 [128, 64]
0	0x3ee2ef76	0.4432332
1	0x3c06692e	0.008203788
2	0xbe462389	-0.19349493
3	0xbe40b814	-0.1882022
4	0xbebb216b	-0.36548933
5	0xbeb3796c	-0.35053575
6	0x3dae4510	0.085092664
7	0x3f56ed44	0.8395579
8	0xbec961a2	-0.393323
9	0xbf13a2e3	-0.5767042
10	0xbf4a1584	-0.7893908
11	0x3ed45c97	0.4147689
12	0x3ea29056	0.31750745
13	0xbecf4255	-0.40480295
14	0xbdcb9bbd	-0.09941814
15	0xbeecb076	-0.4622838
16	0x3f5b05d2	0.85555756
17	0xbe066389	-0.13123907
18	0x3db3c422	0.08777644
19	0x3e4c4afb	0.19950478
20	0x3e90a58f	0.2825131
21	0xbed92ac3	-0.42415437
22	0x3de9fa74	0.11424723
23	0xbf02a20d	-0.5102852
24	0x3ea3848e	0.3193707
25	0xbe1f41b7	-0.15552412
26	0x3f1fff09	0.6249853
27	0xbec39d63	-0.38206014
28	0x3ec524ba	0.38504583
29	0xbf0c0569	-0.54695755
30	0x3dfac5f1	0.122447856
31	0xbe8aa9bd	-0.27082625
32	0xbe555dac	-0.20836514
33	0x3e944352	0.2895761
34	0x3dd1b271	0.10239113
35	0x3f1ca255	0.611852
36	0xbd9266f2	-0.071485415
37	0xbf5adb82	-0.8549119
38	0x3e798417	0.24366795
39	0xbf0b4df2	-0.5441581
40	0x3d413bbf	0.04717612
41	0x3ef22a4b	0.47297892
42	0x3e8aba08	0.27095056
43	0xbf4afe56	-0.79294336
44	0x3ebb9b3a	0.36641866
45	0xbf78e7dd	-0.97228795
46	0xbf068ae7	-0.525557
47	0x3e0e345d	0.13887163
48	0x3e9c00ea	0.30469447
49	0xbf0503d9	-0.51958996
50	0xbe6a69ae	-0.22891876
51	0x3f5afbf3	0.85540694
52	0xbf37b667	-0.717627
53	0xbf5dbef2	-0.86619484
54	0xbea00279	-0.31251886
55	0xbe0eb4c6	-0.13936147
56	0x3f0f61e6	0.56008756
57	0xbd6d0fad	-0.057876278
58	0x3f24bc19	0.64349514
59	0x3d815eae	0.06316887
60	0xbdfd45bc	-0.123668164
61	0xbea2a8ca	-0.317694
62	0x3fa032da	1.2515519
63	0x3e9e3b1b	0.3090447
64	0xbe387be6	-0.18016014
65	0x3ee5a240	0.4485035
66	0x3dd53c45	0.10411886
67	0xbed7087f	-0.4199867
68	0xbf0fbfbf	-0.56151956
69	0x3e9c0060	0.30469036
70	0xbe916ad2	-0.2840181
71	0xbdac74df	-0.08420729
72	0xbd772c58	-0.060345024
73	0x3f27d152	0.6555377
74	0xbf375f95	-0.7163022
75	0xbed99abf	-0.42500874
76	0xbe77dec2	-0.24206069
77	0x3dec9bf3	0.115531825
78	0xbf26758d	-0.6502312
79	0xbf7ede63	-0.99558085
80	0xbf23a57d	-0.6392439
81	0x3ed91db8	0.42405486
82	0x3cad94ae	0.02118906
83	0x3f950dff	1.1644896
84	0xbe38acb3	-0.1803463
85	0x3f160a5d	0.58609563
86	0x3f69c82a	0.9132105
87	0xbdc3e266	-0.095646665
88	0x3f048260	0.51761436
89	0xbec93efe	-0.39305872
90	0x3f65c5b3	0.8975479
91	0xbdc60f61	-0.09670902
92	0xbe903d9f	-0.28172013
93	0xbea9aa4d	-0.33137742
94	0x3f88db8d	1.0692002
95	0x3e60bca2	0.21946958
96	0x3eaca8ab	0.33722433
97	0xbdf38e27	-0.11892348
98	0xbf2f335e	-0.68437755
99	0x3f4313e1	0.7620221
100	0x3f1a704a	0.6032759
101	0xbd2b0855	-0.041755993
102	0xbe1f45e3	-0.15554003
103	0xbdcac05d	-0.09899972
104	0x3dd1cbdc	0.10243961
105	0xbf47db16	-0.78068674
106	0x3ee5b78e	0.44866604
107	0xbfa79b70	-1.3094311
108	0x3f180511	0.5938273
109	0x3f3d327f	0.73905176
110	0x3c00aa0e	0.007853044
111	0xbce38420	-0.027772963
112	0xbecb690c	-0.39728582
113	0xbec5763e	-0.38566774
114	0xbe8f3b9a	-0.2797516
115	0xbcb7186f	-0.022350518
116	0x3ddcf225	0.10788373
117	0xbf13d38a	-0.5774466
118	0x3e4c54da	0.19954243
119	0xbf1a7f7d	-0.6035078
120	0x3f162d55	0.5866292
121	0x3f0bd97d	0.54628736
122	0x3e1fd358	0.15607965
123	0x3edc2d0f	0.43003127
124	0xbeef7268	-0.46766973
125	0x3ca679a8	0.020321682
126	0x3dde60ca	0.10858305
127	0xbcfefb39	-0.031125652
128	0x3e852196	0.26002187
129	0x3bde694f	0.006787456
130	0xbf3541ee	-0.70803726
131	0xbecc3a55	-0.39888254
132	0x3f487fdf	0.78320116
133	0xbf10bbfa	-0.5653683
134	0xbef50b9b	-0.47860417
135	0xbf152c87	-0.5827107
136	0x3f11fe1f	0.57028383
137	0x3de20880	0.110367775
138	0x3d45fa6d	0.048334528
139	0x3ea0798a	0.31342727
140	0xbea7d5f0	-0.3278041
141	0x3e775c45	0.24156292
142	0xbea84c4f	-0.3287072
143	0x3f4e62b4	0.8061936
144	0x3e562737	0.20913397
145	0xbe598c1f	-0.21244858
146	0xbe0da736	-0.13833317
147	0xbf1e2f85	-0.6179126
148	0xbd6b98e8	-0.05751887
149	0xbc267033	-0.010158586
150	0x3f06aed2	0.52610505
151	0xbf30245f	-0.688055
152	0x3eae8901	0.340889
153	0xbf02faaf	-0.5116376
154	0x3e797faf	0.24365114
155	0xbe87b679	-0.26506403
156	0xbf333299	-0.6999908
157	0xbe961495	-0.29312578
158	0xbf332c41	-0.699894
159	0x3e57ec8e	0.21086332
160	0x3f87fd34	1.0624146
161	0xbe424562	-0.1897178
162	0xbf8d1615	-1.1022364
163	0xbf0c41af	-0.54787725
164	0xbef15714	-0.47136748
165	0x3e906b41	0.28206828
166	0x3e7b8dd4	0.24565822
167	0x3d41d6c0	0.047323942
168	0xbf8bc6ae	-1.0920007
169	0x3ee155ea	0.4401086
170	0xbcf1bf5f	-0.029510198
171	0x3e28807c	0.16455263
172	0xbee46e17	-0.44615242
173	0x3f44bbe5	0.76849204
174	0x3e7a1ebc	0.24425787
175	0xbe5c2a7a	-0.21500579
176	0xbe976952	-0.2957254
177	0xbf43de62	-0.76511204
178	0xbf0d6bff	-0.55242914
179	0xbed17952	-0.40912873
180	0x3dda67a0	0.10664296
181	0xbe185ddb	-0.14879553
182	0x3f1f34d0	0.6218996
183	0x3e5c564c	0.21517295
184	0xbeb8db7a	-0.36104947
185	0xbf22a1c5	-0.6352809
186	0x3f00b481	0.5027543
187	0xbe843601	-0.25822452
188	0xbe537208	-0.20648968
189	0xbea292be	-0.3175258
190	0xbf228c8a	-0.63495696
191	0xbef8ef4e	-0.48620075
192	0x3dbdb66c	0.0926331
193	0x3ee30ec6	0.4434721
194	0x3dfb229c	0.122624606
195	0xbe8fbebb	-0.28075203
196	0x3e85e426	0.26150626
197	0x3ea3139f	0.31850907
198	0xbd387acf	-0.045038994
199	0xbe28f387	-0.16499148
200	0xbee5b224	-0.44862473
201	0xbedfe3f2	-0.43728596
202	0x3ef06f5f	0.4695997
203	0x3ea02381	0.31277087
204	0xbf081750	-0.5316057
205	0xbe88a706	-0.2668993
206	0x3e9e23a4	0.30886567
207	0x3ec7f3f2	0.39053303
208	0x3f7216a0	0.94565773
209	0x3fc390c8	1.5278559
210	0x3f0cfaf9	0.55070454
211	0xbdce25f9	-0.100658365
212	0xbdc96ae6	-0.098348424
213	0x3e2f824f	0.17139553
214	0x3ea75fc0	0.3269024
215	0x3de5006e	0.111817226
216	0xbddd9c1c	-0.10820791
217	0x3f282744	0.65684915
218	0x3e83ab81	0.25716785
219	0x3f0577ff	0.52136225
220	0xbee6b5a4	-0.45060456
221	0x3ec23b34	0.37935793
222	0x3edda43d	0.43289366
223	0x3d0259f1	0.031824056
224	0x3f23a154	0.6391804
225	0x3f0d9435	0.5530427
226	0xbe87b62d	-0.26506177
227	0xbd3c5648	-0.04598072
228	0xbf3d622d	-0.7397793
229	0xbf4bf8f4	-0.7967675
230	0xbfc18c3b	-1.512092
231	0x3e8a6c8d	0.27035943
232	0xbddc0eb6	-0.107449934
233	0xbe8118a1	-0.25214103
234	0xbf636d33	-0.888385
235	0xbf449d6f	-0.76802725
236	0x3df385fe	0.11890791
237	0x3dcaa87a	0.098954156
238	0xbeb73898	-0.35785365
239	0x3e2e4083	0.17016797
240	0x3ea481a2	0.32130152
241	0x3e93bce6	0.28855056
242	0x3e61da4b	0.22055928
243	0x3f0f43b4	0.5596268
244	0xbee38a83	-0.44441614
245	0xbed55412	-0.41665703
246	0xbcad2ca1	-0.021139445
247	0xbead2686	-0.33818454
248	0xbf6ba27b	-0.920448
249	0x3f08c57f	0.53426355
250	0xbd85c40e	-0.06531535
251	0x3ed8344b	0.42227396
252	0x3f0111ee	0.50417984
253	0x3f2a6187	0.66555065
254	0x3ef2f3d6	0.47451657
255	0xbf0218c9	-0.5081907

tabnet.tabnet.initial_splitter.shared.glu_layers.1.bn.bn.weight f4 [128]
0	0x3f89c904	1.076447
1	0x3f913d44	1.1346822
2	0x3f6d457b	0.92684144
3	0x3f5c7b87	0.8612599
4	0x3f812a1e	1.0090978
5	0x3f7cd19b	0.9875733
6	0x3f945bc2	1.1590502
7	0x3f893dcf	1.0721987
8	0x3f6782f8	0.9043422
9	0x3f8444b1	1.0333463
10	0x3f74ef7b	0.9567792
11	0x3f9361f3	1.1514267
12	0x3f7c6e05	0.98605376
13	0x3f8bbfdd	1.0917927
14	0x3f52a60e	0.8228463
15	0x3f6aed0a	0.9176794
16	0x3fa25254	1.2681375
17	0x3f86b020	1.0522499
18	0x3f705a3d	0.9388769
19	0x3f8330f1	1.0249311
20	0x3f63ed00	0.8903351
21	0x3f7e5a78	0.99356794
22	0x3f8f1ed3	1.1181282
23	0x3f903a5d	1.1267811
24	0x3f84155b	1.0319017
25	0x3f8c5510	1.0963459
26	0x3f977014	1.1831079
27	0x3f8fc80c	1.1232924
28	0x3f95b8db	1.1697038
29	0x3f865505	1.0494696
30	0x3f5c90c9	0.86158425
31	0x3f65d9bb	0.89785355
32	0x3f516f88	0.8181081
33	0x3fa8b466	1.3180053
34	0x3f832ba5	1.0247694
35	0x3f6cb933	0.9247009
36	0x3f829957	1.0203046
37	0x3f56eadb	0.8395211
38	0x3f8d7e34	1.1054139
39	0x3f97123d	1.1802441
40	0x3f904a95	1.1272761
41	0x3f8c9855	1.0983988
42	0x3f606170	0.8764868
43	0x3f5454fc	0.82942176
44	0x3f937f14	1.1523156
45	0x3f6d48fe	0.926895
46	0x3f848e32	1.0355895
47	0x3f6585c0	0.8965721
48	0x3f7eb876	0.99500215
49	0x3f80f6b3	1.0075287
50	0x3f82e1ad	1.0225121
51	0x3f929018	1.1450224
52	0x3f88fa66	1.0701416
53	0x3f523c16	0.82122934
54	0x3f5d8b52	0.8654071
55	0x3f6d3a3a	0.9266697
56	0x3f9a3f74	1.2050614
57	0x3f8f2e1b	1.1185945
58	0x3f8d49ac	1.1038108
59	0x3f70281e	0.93811214
60	0x3f87b432	1.0601866
61	0x3f869957	1.0515546
62	0x3f92cc89	1.1468669
63	0x3f85f059	1.0463973
64	0x3f47d1a5	0.7805427
65	0x3f69883d	0.9122351
66	0x3f57553b	0.84114426
67	0x3f58bbe8	0.8466172
68	0x3f845f23	1.0341533
69	0x3f8ea9d3	1.1145576
70	0x3f86b096	1.052264
71	0x3f7a6db5	0.9782365
72	0x3f888a78	1.0667257
73	0x3f8905ca	1.0704892
74	0x3fa508cc	1.289331
75	0x3f6c6d62	0.92354405
76	0x3f821cfd	1.0165097
77	0x3f92ffd0	1.1484318
78	0x3f7d1140	0.98854446
79	0x3f68c87d	0.9093092
80	0x3f8bba15	1.0916163
81	0x3f9c78b6	1.2224338
82	0x3f639b5c	0.88908935
83	0x3f6e7e8b	0.9316184
84	0x3f8399ca	1.0281308
85	0x3f87bbc5	1.0604178
86	0x3f850473	1.0391983
87	0x3fa5e787	1.2961282
88	0x3f980cb8	1.1878881
89	0x3f982301	1.1885682
90	0x3f9d839d	1.230579
91	0x3f79838a	0.9746634
92	0x3f2b11a6	0.66823804
93	0x3f8244a6	1.01772
94	0x3f4db127	0.8034844
95	0x3f7e91dd	0.9944132
96	0x3f50fbfc	0.816345
97	0x3f84f38f	1.0386828
98	0x3f68cbde	0.90936077
99	0x3f9b9d21	1.2157327
100	0x3f9310a1	1.148945
101	0x3f709758	0.9398093
102	0x3f8485c4	1.0353322
103	0x3f60ae8b	0.8776633
104	0x3f54601a	0.8295914
105	0x3f70fdfe	0.9413756
106	0x3f58055f	0.84383196
107	0x3f6746aa	0.903422
108	0x3f89cf9b	1.0766481
109	0x3f5ebdb6	0.87008226
110	0x3f5ac2a1	0.8545323
111	0x3f57a9c7	0.84243435
112	0x3f930003	1.1484379
113	0x3f8940e2	1.0722926
114	0x3f6fb6c9	0.93638283
115	0x3f9b01d4	1.2109933
116	0x3f57ba91	0.8426905
117	0x3f8b78d2	1.0896246
118	0x3f8ef05f	1.1167105
119	0x3f6666e3	0.9000074
120	0x3f6a1035	0.9143098
121	0x3f8d9111	1.1059896
122	0x3fa3f35d	1.2808644
123	0x3f5b5330	0.8567381
124	0x3f7c04c7	0.9844479
125	0x3f84cb84	1.0374608
126	0x3f8d7c00	1.1053467
127	0x3f648e01	0.8927918

tabnet.tabnet.initial_splitter.shared.glu_layers.1.bn.bn.bias f4 [128]
0	0xbdc9483e	-0.09828232
1	0xbd00a7fd	-0.031410206
2	0x3d081bb7	0.033229556
3	0xbe3d7f71	-0.18505646
4	0x3e602ff6	0.21893296
5	0x3df82f21	0.12118364
6	0xbd274356	-0.0408357
7	0xbdaf8347	-0.08569961
8	0x3e4ece33	0.20195846
9	0x3cc35935	0.023846248
10	0x3de1108e	0.10989486
11	0xbe1f2c0a	-0.15544143
12	0xbde10ecb	-0.1098915
13	0x3d8dcab3	0.069234274
14	0xbd2689a1	-0.040658597
15	0xbd4f5281	-0.05061579
16	0xbdb08c5c	-0.086205214
17	0x3ddc06ae	0.107434615
18	0xbe2df4e5	-0.16987951
19	0x3aae1c6a	0.0013283615
20	0xbdb83e6c	-0.08996281
21	0xbc3c145c	-0.011479463
22	0xbd2adbd8	-0.041713566
23	0x3ea49a19	0.32148817
24	0x3cd0e4cc	0.025499724
25	0x3e7ebf88	0.24877751
26	0xbdce2d7b	-0.100672685
27	0xbdddff21	-0.108396776
28	0x3d01e02a	0.03170792
29	0x3df4de2b	0.11956438
30	0xbc28a757	-0.010293803
31	0xbe26efe3	-0.16302447
32	0xbde02337	-0.10944217
33	0xbe1a7d19	-0.15086783
34	0x3e4e1c94	0.20128089
35	0x3e22a1ba	0.15882006
36	0x3dbd9b97	0.09258192
37	0xbdf169d8	-0.11787766
38	0xbdab7555	-0.08371989
39	0xbe551cc1	-0.2081175
40	0xbe4a17a5	-0.19735582
41	0x3e0b80ff	0.13623427
42	0x3e3e6cbe	0.1859617
43	0x3e39a01c	0.18127483
44	0xbe07bd79	-0.13255872
45	0xbe294cf3	-0.1653326
46	0x3e0a8b98	0.13529813
47	0x3b3a7523	0.0028451167
48	0x3dfc147d	0.12308595
49	0xbd3b2bff	-0.045696255
50	0x3e1dd6c4	0.15413958
51	0x3dbb8081	0.091553695
52	0x3da2f907	0.079576544
53	0x3e1edfdf	0.15515088
54	0x3dc4fd61	0.09618641
55	0x3d8ab08b	0.06771954
56	0x3e21a6fb	0.15786354
57	0xbd9ad332	-0.075598136
58	0x3dc6487d	0.09681795
59	0x3da52de4	0.080653936
60	0x399bd641	0.00029723535
61	0x3d56dbcb	0.052455705
62	0x3e1b9cc3	0.15196519
63	0xbe273de0	-0.16332197
64	0x3de1726e	0.11008154
65	0x3e0b07e6	0.13577232
66	0xbc886ef7	-0.016654475
67	0xbe0cc669	-0.13747562
68	0x3d9facdd	0.07796643
69	0xbe0f68d6	-0.14004835
70	0x3e4f53ea	0.20246854
71	0x3dfd062a	0.12354691
72	0xbd8e73e5	-0.06955699
73	0x3c08565d	0.008321372
74	0xbe970b14	-0.2950064
75	0x3dfddba4	0.12395409
76	0xbc267559	-0.010159814
77	0x3c3298d3	0.010900694
78	0xbe060d3f	-0.1309099
79	0xbd71166d	-0.058859278
80	0x3e734031	0.23754956
81	0xbd3524ea	-0.044224657
82	0x3e1caef3	0.15301113
83	0x3d1cc8f8	0.038277596
84	0xbd9dc74e	-0.0770403
85	0xbc5da213	-0.013527411
86	0x3d37c9cc	0.044870183
87	0x3e17e39b	0.14832918
88	0xbd89024f	-0.066898935
89	0xbc038be3	-0.008028957
90	0x3dfa9f9b	0.122374736
91	0x3dd10dc3	0.10207703
92	0x3e7e115f	0.24811314
93	0x3dc8aff7	0.09799188
94	0x3c94451b	0.018099358
95	0xbe2a5373	-0.16633396
96	0x3dd43a10	0.10362637
97	0x3e734638	0.23757255
98	0x3d5d6672	0.054052778
99	0xbe1d97d4	-0.15389949
100	0xbd85e524	-0.06537846
101	0xbe1147a4	-0.14187485
102	0x3df11a31	0.11772574
103	0x3e4ebb1d	0.20188566
104	0x3e0bc862	0.13650659
105	0x3dfbda3d	0.12297485
106	0xbcc1f112	-0.023674522
107	0xbe46621a	-0.1937336
108	0x3dd3da08	0.103443205
109	0xbcb70b1a	-0.02234416
110	0x3d8e8118	0.069582164
111	0xbccb6cd8	-0.024832174
112	0xbce347fd	-0.027744288
113	0xbd5235d6	-0.051320873
114	0x3dc1b195	0.09457699
115	0x3dde6141	0.108583935
116	0x3dcbe62e	0.09956013
117	0xbe115e91	-0.1419623
118	0xbe222605	-0.15834816
119	0xbd7a3fd8	-0.061096042
120	0x3e471ea6	0.19445285
121	0x3e2291f5	0.1587599
122	0x3d4bca07	0.049753215
123	0x3bd944d0	0.0066305175
124	0x3d8a286e	0.067459926
125	0x3de1f6d9	0.110334106
126	0x3d630797	0.05542716
127	0x3db1cb45	0.08681349

tabnet.tabnet.initial_splitter.shared.glu_layers.1.bn.bn.running_mean f4 [128]
0	0x3ec7b5b6	0.39005822
1	0x3d7fa07e	0.062408917
2	0xbf2886e2	-0.65830815
3	0x3dec7cca	0.11547239
4	0xbf7e51fc	-0.9934385
5	0xbf459493	-0.7717983
6	0xbf303c5d	-0.6884211
7	0xbe0d8e2f	-0.1382377
8	0xbf081306	-0.5315403
9	0xbe32edeb	-0.17473571
10	0x3f87a51c	1.0597262
11	0xbf45f6ae	-0.7732953
12	0x3eb4b3a2	0.352933
13	0xbd933522	-0.07187869
14	0x3eabe2d2	0.33571488
15	0x3de30470	0.11084831
16	0xbf406fb2	-0.75170434
17	0xbdab1af2	-0.08354749
18	0x3ebc9ece	0.36839908
19	0x3f5377d7	0.82604736
20	0x3edc3a78	0.43013358
21	0xbf80a8ce	-1.0051515
22	0x3f442759	0.7662254
23	0x3f094198	0.53615713
24	0xbfa97359	-1.3238326
25	0xbec072cd	-0.37587586
26	0xbf66106c	-0.8986881
27	0xbe99254d	-0.2991127
28	0x3ee2c5c6	0.44291514
29	0xbf8a3cd7	-1.0799817
30	0xbf344759	-0.7042137
31	0xbed8f368	-0.42373204
32	0xbca16bc0	-0.0197047
33	0x3efd3071	0.4945102
34	0xbeebafe5	-0.46032634
35	0x3f321849	0.69568306
36	0xbe7ed389	-0.24885382
37	0xbdf68c6a	-0.120385006
38	0xbe36dfd0	-0.17858815
39	0xbf33f91b	-0.7030198
40	0x3f17506a	0.5910708
41	0xbe62bf7b	-0.22143357
42	0xbf4ecada	-0.80778277
43	0x3e81b57f	0.25333783
44	0x3ebcb4e8	0.3685677
45	0xbf6f88ec	-0.935683
46	0xbfb497cc	-1.4108825
47	0xbea9981e	-0.3312387
48	0xbf4482de	-0.7676219
49	0x3fe1d6c7	1.764367
50	0xbd154401	-0.036441807
51	0x3faaa5cd	1.3331848
52	0x3ee3bfd4	0.4448229
53	0x3f11ce43	0.56955355
54	0x3db7af16	0.08968942
55	0x3f123006	0.5710453
56	0xbf463fcb	-0.7744109
57	0xbf987d98	-1.1913328
58	0xbe87df62	-0.26537615
59	0xbebf249b	-0.37332615
60	0xbdc44571	-0.095835574
61	0x3e3651bd	0.17804618
62	0x3db8f74a	0.09031542
63	0xbede6403	-0.43435678
64	0x3f45f47e	0.7732619
65	0xbecf2226	-0.4045574
66	0xbe8799da	-0.26484567
67	0xbdf15fd7	-0.11785858
68	0x3dbcdbd4	0.092216164
69	0xbeab397d	-0.33442298
70	0xbef1a555	-0.4719645
71	0x3ecfa328	0.40554166
72	0x3e128792	0.14309528
73	0x3f430b9f	0.7618961
74	0x3e14a5af	0.14516328
75	0x3f33936c	0.7014682
76	0x3f601d8b	0.8754508
77	0xbe8406e4	-0.25786507
78	0x3de9aede	0.114103064
79	0xbea52b21	-0.32259467
80	0xbec7cd96	-0.39024037
81	0xbcc0ffda	-0.0235595
82	0x3e38b00f	0.18035911
83	0xbf32e32a	-0.69877875
84	0x3efda9a2	0.49543482
85	0xbf16f5a2	-0.58968556
86	0xbe97ffd4	-0.2968737
87	0xbebc1af8	-0.36739326
88	0x3e2c762e	0.16841957
89	0xbc0d834c	-0.008637261
90	0x3f02d915	0.5111249
91	0xbed0c51e	-0.40775388
92	0xbd8a0ae4	-0.067403585
93	0xbf68b416	-0.9089979
94	0xbf44ba2f	-0.76846594
95	0xbe700368	-0.234388
96	0xbda1707d	-0.078827836
97	0xbe8461f2	-0.25855976
98	0xbe5fc615	-0.21852906
99	0xbdd1ad2a	-0.102381065
100	0xbdb62ddd	-0.088954665
101	0xbe4e5122	-0.20148137
102	0x3f532460	0.8247738
103	0x3e298336	0.16553959
104	0x3e06deca	0.13170925
105	0xbddb3743	-0.107039
106	0xbe2d2ba3	-0.16911177
107	0x3cfce2f2	0.030869935
108	0xbeae03f1	-0.33987382
109	0x3e90fb68	0.28316808
110	0x3e57414e	0.21021006
111	0xbdf8bfbe	-0.12145947
112	0x3f292e11	0.66085917
113	0x3f20d6fd	0.62828046
114	0x3f10524e	0.56375587
115	0xbdd4004d	-0.1035162
116	0xbd75473d	-0.05988239
117	0xbfa5c313	-1.2950157
118	0xbd6d0ec1	-0.0578754
119	0xbea86f9e	-0.32897657
120	0x3fc20ca1	1.5160104
121	0x3f15db12	0.585374
122	0x3cc5c6a6	0.024142575
123	0x3e426d7d	0.18987079
124	0xbe9eb61c	-0.30998313
125	0xbe8055be	-0.25065416
126	0xbe033f9b	-0.12817232
127	0xbdd16eae	-0.102261886
