pl/model_2.pth (torch, 470013 bytes, 135 tensors)

tabnet.tabnet.initial_bn.weight f4 [3]
000000 ca f7 63 3f bf ce 88 3f d2 53 8f 3f
       0.8904997 1.0688094 1.1197455

tabnet.tabnet.initial_bn.bias f4 [3]
000000 31 36 60 3c ab 45 3a bc 3c d9 ac 3a
       0.013684795 -0.011369149 0.00131873

tabnet.tabnet.initial_bn.running_mean f4 [3]
000000 5d 34 30 3d 47 d5 88 40 03 96 a8 3e
       0.043018688 4.276035 0.3292695

tabnet.tabnet.initial_bn.running_var f4 [3]
000000 75 87 71 3f 77 e8 b1 41 25 94 df 3f
       0.94347316 22.238508 1.7467085

tabnet.tabnet.initial_splitter.shared.shared_layers.0.weight f4 [128, 3]
000000 e5 6c 33 3f e3 de e6 be e5 7a 50 3f 87 60 40 40
       0.70088035 -0.45091924 0.8143752 3.0058916
000010 e8 09 f1 3f 3a bb d3 3f 13 e4 32 be 94 bd 5f 3f
       1.8831148 1.6541512 -0.17469816 0.8739865
000020 23 87 23 c0 f7 b6 a0 ba 1f 6b fc bc c2 5c 44 3e
       -2.555123 -0.0012261559 -0.030812798 0.1917601
000030 b8 15 1d 3f df c6 ee 3c ae 2c df bd 64 ea 89 3e
       0.61361265 0.029147564 -0.10897194 0.26936638
000040 f0 ca c5 be 23 0f 74 bf 5c 05 8e 3e 2d ee 1d be
       -0.38631392 -0.95335597 0.27738464 -0.15422888
000050 e0 db 62 3f d9 f8 9a be 5e 59 0f 3d 4b 7b d2 be
       0.8861675 -0.3026798 0.034997337 -0.4110969
000060 34 fe 19 3f a9 fb 09 c0 e6 36 2f 3f d6 57 7a bf
       0.6015351 -2.155985 0.68443143 -0.97790277
000070 c2 e9 ef be 86 87 77 3e c9 25 8d 3f 9a ac 6d be
       -0.4685803 0.24172792 1.1027156 -0.23210374
000080 f4 68 26 bf 5c 9d 30 bc 18 da c2 3f fd c2 5c bf
       -0.65003896 -0.010779705 1.5222807 -0.8623503
000090 c6 6e 93 bf 9d 05 32 be 3b e2 02 c0 a1 fd 00 3f
       -1.151818 -0.17384954 -2.045058 0.50387007
0000a0 a2 ef 84 be 0a 38 ca bd c2 a1 9c be 7f a8 15 be
       -0.25964075 -0.0987397 -0.3059216 -0.14615057
0000b0 4c e5 7e be 0a 93 ff 3e 15 94 c1 bf 6e f7 ca 3e
       -0.24892157 0.4991687 -1.5123316 0.396419
0000c0 87 c2 c1 be 18 c4 20 bf 1e 34 28 3f 53 0c 2f 3f
       -0.37843725 -0.62799215 0.65704525 0.6837818
0000d0 d5 2f 98 3e c7 e3 f8 be 81 f8 58 be 54 a4 8c 3e
       0.29723993 -0.4861128 -0.21188547 0.27469122
0000e0 07 36 d6 3f 02 b3 a4 be 96 b7 ec 3c ed 7c cd be
       1.6735238 -0.32167822 0.028896134 -0.40134373
0000f0 0a 5c 8e bf 01 3d 6c 3f aa 81 c2 bf 2c df d6 3f
       -1.1121838 0.92280585 -1.519582 1.6786857
000100 15 46 67 3f 86 9c 00 bf 9c 03 21 3f ec 98 96 3e
       0.9034131 -0.50238836 0.6289613 0.29413545
000110 63 ba 26 c0 4c 6a a4 3d 58 19 44 bf a8 47 94 bf
       -2.6051261 0.08028087 -0.7660117 -1.1584368
000120 01 d1 2a 3f dd 25 c9 3e 0b 3f a8 bf cf 83 b3 3f
       0.66725165 0.392867 -1.3144239 1.40246
000130 77 1c fc 3d 57 07 97 3e 27 46 23 3f df f2 4e 3f
       0.12310117 0.29497787 0.6377892 0.8083934
000140 7d d8 47 3d fb 71 00 bf 7b c4 6d bf 76 66 3a bf
       0.048790444 -0.5017392 -0.9287793 -0.72812593
000150 c8 a8 09 3f f8 03 e8 3e ed bf 55 bf 1f 47 5b bd
       0.53773165 0.45315528 -0.8349598 -0.053534623
000160 45 a2 20 3f f5 b7 cb bf 64 62 82 be 95 3f 02 bf
       0.62747604 -1.5915514 -0.2546569 -0.5087827
000170 49 5f e5 be 05 67 57 bf 0e 13 9a bf 15 f4 87 bf
       -0.4479926 -0.8414157 -1.2037065 -1.0621363
000180 0a b6 40 3d e2 57 85 3f 0c d0 84 bf 4b 62 f3 3f
       0.047048606 1.0417445 -1.0375991 1.9014372
000190 58 06 6a bc c7 94 36 bf 9a 40 2e bf 71 03 6e be
       -0.014283739 -0.71320766 -0.68067324 -0.232435
0001a0 e4 db 1a 40 5a 1f bd bf da 3e c8 bf 12 73 82 bf
       2.419671 -1.4775193 -1.5644181 -1.0191367
0001b0 bb 9f d4 be cc 81 05 40 14 8f be 3f ad 13 67 be
       -0.41528115 2.0860472 1.4887414 -0.225661
0001c0 50 f2 a0 bf a1 f8 a9 bd 5f 66 2a 3f 47 4f 9d bf
       -1.2573948 -0.08299375 0.66562456 -1.2289819
0001d0 d0 cc 90 3f b0 f3 c2 3f 1c 9b 8c 3e ef 4c 72 40
       1.1312504 1.5230618 0.2746209 3.7859457
0001e0 4d 14 93 3f 9c ee 1b bd b4 07 1c bf aa d9 fa 3e
       1.149057 -0.038069353 -0.60949254 0.4899419
0001f0 c7 3f 05 be a4 e7 c7 3f d4 9a 10 bf 34 43 f6 bf
       -0.1301261 1.5617566 -0.5648625 -1.9239259
000200 ac 98 e5 bf 33 3a e1 bf f6 33 93 be 2b 3a e1 be
       -1.7937217 -1.7595886 -0.2875058 -0.4398969
000210 ec 43 82 be b1 20 da bf ce 50 0a 40 c2 74 25 3f
       -0.25442445 -1.7041227 2.161182 0.64631283
000220 83 5b cb be 7e 6e 8a be 1e b8 47 bf 9a 28 33 c0
       -0.39718255 -0.27037424 -0.78015316 -2.7993531
000230 ae 1d 8a bf e8 79 cd be ff 04 d0 bf a8 ab 47 3f
       -1.0790308 -0.4013207 -1.6251525 0.779963
000240 bd c1 30 3f ee ff d1 bd 99 69 af be 97 f5 d8 be
       0.6904562 -0.10253893 -0.34260252 -0.4237487
000250 a3 73 15 3f 94 af be bf 4d 4a 0f c0 9d a1 0a c0
       0.5837957 -1.4897332 -2.23891 -2.166114
000260 e7 a3 4d be d4 19 24 be e0 3d ce 3f ad 91 41 bf
       -0.20082055 -0.16025478 1.6112633 -0.7561291
000270 96 69 bd bd e9 87 21 c0 28 ae a8 3f 9c 2d 65 3f
       -0.092486545 -2.5239203 1.3178148 0.8952272
000280 15 29 9e 3f 91 8c 16 3e a4 1f 71 be 74 b3 ec 3e
       1.2356287 0.1470206 -0.23547226 0.46230662
000290 25 19 78 3f 6f cb 5b bf a5 0f b0 3f 9d dd 90 bf
       0.9691337 -0.8585729 1.3754774 -1.1317631
0002a0 06 36 92 bf f7 d2 8b bf 91 60 16 c0 63 5e de bf
       -1.1422737 -1.0923756 -2.349644 -1.7372555
0002b0 29 60 da bf 62 af 32 3f 58 41 68 3f e6 14 97 3f
       -1.7060596 0.6979886 0.90724707 1.1803253
0002c0 fe de 3a 3e c7 d3 bc be 90 be a8 3f 9c 72 bb be
       0.18249127 -0.36880323 1.3183155 -0.36610878
0002d0 04 1c d3 3f 5b 21 6d bf 3e 2d c1 3f 05 26 f4 3f
       1.6492925 -0.9262902 1.5091932 1.9074103
0002e0 1d 9e ed bf 61 97 84 bf 9e f2 ff bc b3 9b ac 3e
       -1.8563877 -1.0358697 -0.031243619 0.3371254
0002f0 0a 75 94 bd 41 21 ff 3e 49 ca 6c 3f b5 24 3b 3f
       -0.07248886 0.49830058 0.9249616 0.73102885
000300 b0 cd 50 bf af 40 91 bf 96 1e 6c 3f 67 bb b0 be
       -0.81563854 -1.1347865 0.9223417 -0.34517977
000310 5a 9f 84 3f 30 7d 6d 3f 84 0b be 3f e5 13 d9 bf
       1.036113 0.92769146 1.4847264 -1.6959196
000320 28 71 10 c0 db 84 4d 3e 52 20 8a 3f f8 f6 17 40
       -2.2569065 0.20070212 1.0791113 2.3744488
000330 87 d2 b2 3e db 04 2e 3f a4 09 de 3f dd db 54 3f
       0.34926245 0.6797616 1.7346692 0.83147985
000340 00 3c 0d 3f e7 69 20 be 9d 89 1a 3f e3 57 99 3c
       0.5516968 -0.15665399 0.6036623 0.018718665
000350 c8 6b 8c 3f 02 fa 90 3f f2 1d c7 be d9 2c 53 3f
       1.0970392 1.1326296 -0.38890034 0.8249031
000360 8d 8f 89 3f 74 e9 c7 bf f1 13 76 bf 31 af 03 bf
       1.0746933 -1.5618119 -0.9612418 -0.51439196
000370 d2 8c 88 bf 15 29 b1 bf 60 93 ca 3f 57 e0 93 3e
       -1.0667975 -1.3840662 1.5826225 0.28882095
000380 5a f1 86 3f b7 79 9c bf 62 71 eb be cd 7c 85 bf
       1.0542405 -1.2224644 -0.45984942 -1.0428711
000390 d4 09 71 bf 37 91 3e bf 8b 08 37 3f 20 d7 a0 3e
       -0.9415562 -0.7444033 0.7149741 0.31414127
0003a0 e2 2a 54 3f cb 69 9b bf 05 e6 f8 3d 60 f4 8a bf
       0.82877934 -1.214166 0.12153248 -1.0855827
0003b0 01 bd c0 be a2 ad d9 be 6c e8 f4 be 3f 36 88 bf
       -0.376442 -0.42515284 -0.47833574 -1.0641555
0003c0 53 59 20 bf 09 0a 11 bf a2 10 4c bf 4f 7e 6a bf
       -0.626363 -0.5665594 -0.7971288 -0.9159898
0003d0 27 17 d0 3e 22 86 34 3f 94 ad c6 be 96 d5 6d 3f
       0.40642664 0.7051717 -0.38804305 0.9290403
0003e0 35 87 74 3d 89 b7 68 bf 1e 15 de bd a6 1a 36 bf
       0.059699256 -0.9090505 -0.108438715 -0.7113441
0003f0 d4 f7 4a bf 9f 46 ff 3d 29 6f 4a 3f 20 6e 7d ba
       -0.79284406 0.12464642 0.79075867 -0.0009667594

tabnet.tabnet.initial_splitter.shared.shared_layers.1.weight f4 [128, 64]
000000 ac 56 34 3f c2 d2 c5 3e 8d 11 27 3f 67 49 ae 3e
       0.7044475 0.38637358 0.65261155 0.34040377
000010 97 4f 92 3e df 67 09 bf 87 e8 e6 be aa 2e 23 bf
       0.28576347 -0.5367412 -0.4509928 -0.6374308
000020 88 73 ae be 32 be d7 3e a7 4f 5c 3e f7 d6 52 be
       -0.34072518 0.42137295 0.2151476 -0.20589815
000030 82 b6 0f 3f df 0d b2 bd 8b 8f 54 3f 9f 51 a2 3e
       0.5613786 -0.08694052 0.8303153 0.31702897
000040 a3 5d b8 3e 42 a9 8b bf de da e7 be 75 e7 dd be
       0.3600894 -1.0911028 -0.4528417 -0.4334065
000050 6c 05 f5 bc ae 7b 4f be ef 4e 99 be 90 ea 31 be
       -0.029909812 -0.20262024 -0.29943034 -0.17374635
000060 43 7b 74 3e 21 f6 26 3f d9 46 ae 3e 97 cf d8 be
       0.23875146 0.6521931 0.34038427 -0.42345878
000070 13 44 53 bf ee 7f 06 3f cc bf 81 3e be 6f bb 3e
       -0.8252575 0.52538955 0.25341642 0.3660869
000080 e8 05 8b 3d 94 10 41 be d7 d4 dd bd d7 27 89 bf
       0.06788236 -0.1885398 -0.108316116 -1.0715283
000090 b8 ac e6 3e 50 7a 49 3f e0 6c 51 be 57 c1 9c 3e
       0.4505365 0.7870226 -0.20451689 0.30616257
0000a0 5b fa 4a bf 6e a0 63 3d 91 ca 18 3f bb 0c f4 be
       -0.7928826 0.05557292 0.5968409 -0.47665963
0000b0 98 47 b3 3e 27 04 44 bf 50 81 d4 be 0f ce 44 3f
       0.3501556 -0.76568836 -0.41504908 0.7687692
0000c0 e1 55 b4 3e bb c4 53 3d 63 bf a7 be 2d 20 a9 be
       0.3522177 0.05170129 -0.32763204 -0.3303236
0000d0 47 0d 83 3f 3e fc 4d 3e 1b 09 45 bf f7 e5 ff 3d
       1.0238427 0.20115754 -0.7696702 0.12495034
0000e0 a2 da 65 be 2d 06 ea be 2e 55 d3 bf 1b 44 24 3e
       -0.22446683 -0.45707837 -1.651037 0.16041605
0000f0 ea 80 c7 bd b2 22 62 3f 0d 30 94 be 71 0d 37 bf
       -0.09741385 0.8833419 -0.2894291 -0.71504885
000100 bc 3b 7d 3f 1e 6f 4f bf 2b 77 db be 51 f2 81 be
       0.9891927 -0.81028926 -0.42864355 -0.25380185
000110 e6 2d f0 be 34 ff 8b bd 29 d9 88 3f 8c af 59 be
       -0.46910018 -0.068357855 1.0691272 -0.21258372
000120 d2 ea 3f bf d4 d8 04 3f 1d f3 d0 3d 33 e1 ac 3e
       -0.7496768 0.51893353 0.1020262 0.33765563
000130 91 9a 0d 3f ba a2 e1 be 2d 80 7e be e1 42 8a be
       0.55313975 -0.44069463 -0.24853583 -0.2700415
000140 94 e9 5e bd 89 8a dc 3d 62 04 16 3e 97 df 02 bf
       -0.054421976 0.10768611 0.1465011 -0.5112242
000150 3c 9f d6 be d3 9f 51 bf 57 6c 48 bf 6e 6c 0f 3f
       -0.4191836 -0.818845 -0.78290313 0.56024826
000160 f4 73 67 3f a4 2b 48 3e 46 0d fa 3d 28 25 89 be
       0.90411305 0.19547898 0.12209563 -0.2678616
000170 dd 8c ab 3e a0 92 14 bf 57 64 39 3f b0 cb d2 be
       0.33505908 -0.5803623 0.7241873 -0.41171026
000180 40 85 1c 3e 98 19 9b bd 71 e2 9d 3e cd 31 0a 3f
       0.15285206 -0.07573241 0.30836824 0.5398224
000190 72 bf 34 3e 0e 37 9e 3e f5 2e 6b bd e8 d1 88 3d
       0.17651156 0.30901378 -0.05741783 0.066806614
0001a0 50 48 5c 3b 43 97 9e be 90 a9 3c bf ad 79 0e 3f
       0.0033612438 -0.3097478 -0.7369623 0.5565441
0001b0 22 ba 22 3f 33 cc ef be c5 89 16 3f fa d1 14 3f
       0.63565266 -0.4683548 0.5880397 0.581329
0001c0 6d a1 a3 bf a2 23 20 3f 70 76 3b 3f 59 ed c9 3e
       -1.2783638 0.6255437 0.73227596 0.39438894
0001d0 73 d1 89 3c 8b b2 cd be 73 42 7b be 16 0c aa bd
       0.016823506 -0.4017528 -0.24537067 -0.083030865
0001e0 4a 25 27 3f 61 12 72 3f 3c 24 17 3e 86 9d b4 3e
       0.65291274 0.94559294 0.14759916 0.3527643
0001f0 4d 90 e3 bd eb 50 88 be 3e 70 d6 be f0 6c cf be
       -0.111115076 -0.26624236 -0.4188251 -0.405128
000200 cf 90 09 be 0f 91 0f 3f e4 3e 9e 3f 18 28 b1 3d
       -0.13434146 0.56080717 1.2362943 0.086502254
000210 56 af 16 bf a1 e0 6c be 38 00 86 3e b9 e7 6a 3e
       -0.5886129 -0.23132564 0.26172042 0.22939958
000220 8f fc 07 bd 3d ac e8 3e f4 85 41 bf 34 6a 90 be
       -0.033199843 0.45443907 -0.7559502 -0.28206027
000230 e7 d5 4f bf 64 88 89 3e e6 8e ae be 07 e1 4a bf
       -0.81185764 0.2686187 -0.34093398 -0.79249614
000240 71 b7 f0 be 46 8c 68 bc c2 62 89 bd 17 bc df bc
       -0.47014955 -0.0141936 -0.0670829 -0.027311368
000250 ab 30 39 3e 8f ec 7f 3e 08 14 66 3f 36 8e d1 bc
       0.18084972 0.24992584 0.89874315 -0.025580507
000260 5d 86 0b 3f 87 b9 25 bf 2e c6 8f bd d1 f9 a7 be
       0.545019 -0.6473622 -0.07020222 -0.32807782
000270 79 6d 63 be 32 5e 9c 3f a6 ce 60 bf 05 7f 0e bf
       -0.22209729 1.2216246 -0.8781532 -0.55662566
000280 3e 1b 25 3f db 48 1a be 70 16 a0 3c bd dd cc bd
       0.64494693 -0.15066855 0.019541949 -0.10003231
000290 fe 75 1b 3d b0 2b 8f 3d 30 78 d6 3d 1a e7 e3 bc
       0.037954323 0.069907546 0.10472143 -0.027820159
0002a0 64 0d 4b 3e 5b 42 0d bf f9 d2 d1 3e 81 6b f5 3e
       0.19829327 -0.55179375 0.40981272 0.4793358
0002b0 d4 87 2b bd ce ba f5 bc de c7 72 3e fa 90 88 3f
       -0.041877583 -0.029996302 0.23709056 1.0669243
0002c0 83 f3 e8 3e ed 4a 44 3f 4d 8d d8 3e ec 60 15 3e
       0.45498285 0.7667683 0.42295304 0.14587754
0002d0 f1 75 c1 be b0 44 21 3e 14 3c 21 bf 2c 52 a0 3e
       -0.37785295 0.15748858 -0.62982297 0.31312692
0002e0 00 9c 58 3f 4f f6 0c bf bd f4 61 bf db 9f 99 3c
       0.8461304 -0.5506334 -0.88264066 0.018752983
0002f0 95 ea 11 be 34 c8 1c be c3 f6 97 be 88 d0 31 be
       -0.14249642 -0.15310746 -0.29680452 -0.17364705
000300 7a 8b b3 3e f8 6e 67 be 32 4f 81 3f fa 3b f0 3c
       0.3506735 -0.22600925 1.0102293 0.029325474
000310 e1 0c 69 3e 81 88 b9 be c4 e1 3c be 02 9a f3 bd
       0.22758819 -0.36236957 -0.18445498 -0.11894609
000320 e4 56 28 3f 07 41 41 bc 89 08 24 3f 58 09 cc 3d
       0.65757585 -0.011795289 0.64075524 0.0996272
000330 79 dc 68 3d f2 1b 2c 3f 47 a5 a0 be f8 9e 1e 3e
       0.056850884 0.6723014 -0.31376097 0.1549033
000340 ab 0e 97 3f 1e cb e7 3c 4b c7 c1 bd 26 18 6d 3f
       1.1801351 0.028295096 -0.0946184 0.9261497
000350 ba 08 9f 3e 81 ff e7 be 7a 08 6f be 14 41 22 be
       0.31061345 -0.45312122 -0.23343077 -0.15845138
000360 fa d1 af 3d 8f 77 83 bc d2 80 9e 3e 55 f9 dd be
       0.08584972 -0.01604822 0.30957657 -0.43354288
000370 e8 6e 5c bf df 16 03 be bc 00 e8 3e dc fc 76 3e
       -0.8610673 -0.12801693 0.4531306 0.24119896
000380 3e 39 19 bf 1a 15 88 be ab 07 7d 3e 1f 41 6e be
       -0.5985297 -0.265786 0.24709956 -0.23267029
000390 73 95 cd 3e e4 7c a0 3e 0c 6d 17 3f 8c f9 c9 3c
       0.40153083 0.31345284 0.5915077 0.024655126
0003a0 82 1d 7a bf 78 ee 82 3e be 4b 32 3f 36 61 94 3d
       -0.97701275 0.25572562 0.69646823 0.07245104
0003b0 e6 d1 3e bf 9c 6c 60 be 65 0f 1a bf 90 27 c5 be
       -0.7453903 -0.21916431 -0.6017974 -0.38506746
0003c0 a7 02 f0 be da fe ee bd 13 6a 33 3f 2a 41 ee bd
       -0.46877024 -0.11669703 0.7008373 -0.11633523
0003d0 ca 92 9a 3f e1 8e c1 be 77 ce a6 3e 2e f9 1a 3d
       1.2076046 -0.3780432 0.32579395 0.037835293
0003e0 2e 5a 0d bf 25 b3 81 3c 03 ed d6 bd 96 cc 59 be
       -0.5521573 0.015832493 -0.10494425 -0.2126945
0003f0 01 e4 a1 3e a0 fe 36 bd 06 a0 7b 3e 9e f6 66 be
       0.31619266 -0.044676423 0.24572763 -0.22555014

tabnet.tabnet.initial_splitter.shared.glu_layers.0.fc.weight f4 [128, 3]
000000 e5 6c 33 3f e3 de e6 be e5 7a 50 3f 87 60 40 40
       0.70088035 -0.45091924 0.8143752 3.0058916
000010 e8 09 f1 3f 3a bb d3 3f 13 e4 32 be 94 bd 5f 3f
       1.8831148 1.6541512 -0.17469816 0.8739865
000020 23 87 23 c0 f7 b6 a0 ba 1f 6b fc bc c2 5c 44 3e
       -2.555123 -0.0012261559 -0.030812798 0.1917601
000030 b8 15 1d 3f df c6 ee 3c ae 2c df bd 64 ea 89 3e
       0.61361265 0.029147564 -0.10897194 0.26936638
000040 f0 ca c5 be 23 0f 74 bf 5c 05 8e 3e 2d ee 1d be
       -0.38631392 -0.95335597 0.27738464 -0.15422888
000050 e0 db 62 3f d9 f8 9a be 5e 59 0f 3d 4b 7b d2 be
       0.8861675 -0.3026798 0.034997337 -0.4110969
000060 34 fe 19 3f a9 fb 09 c0 e6 36 2f 3f d6 57 7a bf
       0.6015351 -2.155985 0.68443143 -0.97790277
000070 c2 e9 ef be 86 87 77 3e c9 25 8d 3f 9a ac 6d be
       -0.4685803 0.24172792 1.1027156 -0.23210374
000080 f4 68 26 bf 5c 9d 30 bc 18 da c2 3f fd c2 5c bf
       -0.65003896 -0.010779705 1.5222807 -0.8623503
000090 c6 6e 93 bf 9d 05 32 be 3b e2 02 c0 a1 fd 00 3f
       -1.151818 -0.17384954 -2.045058 0.50387007
0000a0 a2 ef 84 be 0a 38 ca bd c2 a1 9c be 7f a8 15 be
       -0.25964075 -0.0987397 -0.3059216 -0.14615057
0000b0 4c e5 7e be 0a 93 ff 3e 15 94 c1 bf 6e f7 ca 3e
       -0.24892157 0.4991687 -1.5123316 0.396419
0000c0 87 c2 c1 be 18 c4 20 bf 1e 34 28 3f 53 0c 2f 3f
       -0.37843725 -0.62799215 0.65704525 0.6837818
0000d0 d5 2f 98 3e c7 e3 f8 be 81 f8 58 be 54 a4 8c 3e
       0.29723993 -0.4861128 -0.21188547 0.27469122
0000e0 07 36 d6 3f 02 b3 a4 be 96 b7 ec 3c ed 7c cd be
       1.6735238 -0.32167822 0.028896134 -0.40134373
0000f0 0a 5c 8e bf 01 3d 6c 3f aa 81 c2 bf 2c df d6 3f
       -1.1121838 0.92280585 -1.519582 1.6786857
000100 15 46 67 3f 86 9c 00 bf 9c 03 21 3f ec 98 96 3e
       0.9034131 -0.50238836 0.6289613 0.29413545
000110 63 ba 26 c0 4c 6a a4 3d 58 19 44 bf a8 47 94 bf
       -2.6051261 0.08028087 -0.7660117 -1.1584368
000120 01 d1 2a 3f dd 25 c9 3e 0b 3f a8 bf cf 83 b3 3f
       0.66725165 0.392867 -1.3144239 1.40246
000130 77 1c fc 3d 57 07 97 3e 27 46 23 3f df f2 4e 3f
       0.12310117 0.29497787 0.6377892 0.8083934
000140 7d d8 47 3d fb 71 00 bf 7b c4 6d bf 76 66 3a bf
       0.048790444 -0.5017392 -0.9287793 -0.72812593
000150 c8 a8 09 3f f8 03 e8 3e ed bf 55 bf 1f 47 5b bd
       0.53773165 0.45315528 -0.8349598 -0.053534623
000160 45 a2 20 3f f5 b7 cb bf 64 62 82 be 95 3f 02 bf
       0.62747604 -1.5915514 -0.2546569 -0.5087827
000170 49 5f e5 be 05 67 57 bf 0e 13 9a bf 15 f4 87 bf
       -0.4479926 -0.8414157 -1.2037065 -1.0621363
000180 0a b6 40 3d e2 57 85 3f 0c d0 84 bf 4b 62 f3 3f
       0.047048606 1.0417445 -1.0375991 1.9014372
000190 58 06 6a bc c7 94 36 bf 9a 40 2e bf 71 03 6e be
       -0.014283739 -0.71320766 -0.68067324 -0.232435
0001a0 e4 db 1a 40 5a 1f bd bf da 3e c8 bf 12 73 82 bf
       2.419671 -1.4775193 -1.5644181 -1.0191367
0001b0 bb 9f d4 be cc 81 05 40 14 8f be 3f ad 13 67 be
       -0.41528115 2.0860472 1.4887414 -0.225661
0001c0 50 f2 a0 bf a1 f8 a9 bd 5f 66 2a 3f 47 4f 9d bf
       -1.2573948 -0.08299375 0.66562456 -1.2289819
0001d0 d0 cc 90 3f b0 f3 c2 3f 1c 9b 8c 3e ef 4c 72 40
       1.1312504 1.5230618 0.2746209 3.7859457
0001e0 4d 14 93 3f 9c ee 1b bd b4 07 1c bf aa d9 fa 3e
       1.149057 -0.038069353 -0.60949254 0.4899419
0001f0 c7 3f 05 be a4 e7 c7 3f d4 9a 10 bf 34 43 f6 bf
       -0.1301261 1.5617566 -0.5648625 -1.9239259
000200 ac 98 e5 bf 33 3a e1 bf f6 33 93 be 2b 3a e1 be
       -1.7937217 -1.7595886 -0.2875058 -0.4398969
000210 ec 43 82 be b1 20 da bf ce 50 0a 40 c2 74 25 3f
       -0.25442445 -1.7041227 2.161182 0.64631283
000220 83 5b cb be 7e 6e 8a be 1e b8 47 bf 9a 28 33 c0
       -0.39718255 -0.27037424 -0.78015316 -2.7993531
000230 ae 1d 8a bf e8 79 cd be ff 04 d0 bf a8 ab 47 3f
       -1.0790308 -0.4013207 -1.6251525 0.779963
000240 bd c1 30 3f ee ff d1 bd 99 69 af be 97 f5 d8 be
       0.6904562 -0.10253893 -0.34260252 -0.4237487
000250 a3 73 15 3f 94 af be bf 4d 4a 0f c0 9d a1 0a c0
       0.5837957 -1.4897332 -2.23891 -2.166114
000260 e7 a3 4d be d4 19 24 be e0 3d ce 3f ad 91 41 bf
       -0.20082055 -0.16025478 1.6112633 -0.7561291
000270 96 69 bd bd e9 87 21 c0 28 ae a8 3f 9c 2d 65 3f
       -0.092486545 -2.5239203 1.3178148 0.8952272
000280 15 29 9e 3f 91 8c 16 3e a4 1f 71 be 74 b3 ec 3e
       1.2356287 0.1470206 -0.23547226 0.46230662
000290 25 19 78 3f 6f cb 5b bf a5 0f b0 3f 9d dd 90 bf
       0.9691337 -0.8585729 1.3754774 -1.1317631
0002a0 06 36 92 bf f7 d2 8b bf 91 60 16 c0 63 5e de bf
       -1.1422737 -1.0923756 -2.349644 -1.7372555
0002b0 29 60 da bf 62 af 32 3f 58 41 68 3f e6 14 97 3f
       -1.7060596 0.6979886 0.90724707 1.1803253
0002c0 fe de 3a 3e c7 d3 bc be 90 be a8 3f 9c 72 bb be
       0.18249127 -0.36880323 1.3183155 -0.36610878
0002d0 04 1c d3 3f 5b 21 6d bf 3e 2d c1 3f 05 26 f4 3f
       1.6492925 -0.9262902 1.5091932 1.9074103
0002e0 1d 9e ed bf 61 97 84 bf 9e f2 ff bc b3 9b ac 3e
       -1.8563877 -1.0358697 -0.031243619 0.3371254
0002f0 0a 75 94 bd 41 21 ff 3e 49 ca 6c 3f b5 24 3b 3f
       -0.07248886 0.49830058 0.9249616 0.73102885
000300 b0 cd 50 bf af 40 91 bf 96 1e 6c 3f 67 bb b0 be
       -0.81563854 -1.1347865 0.9223417 -0.34517977
000310 5a 9f 84 3f 30 7d 6d 3f 84 0b be 3f e5 13 d9 bf
       1.036113 0.92769146 1.4847264 -1.6959196
000320 28 71 10 c0 db 84 4d 3e 52 20 8a 3f f8 f6 17 40
       -2.2569065 0.20070212 1.0791113 2.3744488
000330 87 d2 b2 3e db 04 2e 3f a4 09 de 3f dd db 54 3f
       0.34926245 0.6797616 1.7346692 0.83147985
000340 00 3c 0d 3f e7 69 20 be 9d 89 1a 3f e3 57 99 3c
       0.5516968 -0.15665399 0.6036623 0.018718665
000350 c8 6b 8c 3f 02 fa 90 3f f2 1d c7 be d9 2c 53 3f
       1.0970392 1.1326296 -0.38890034 0.8249031
000360 8d 8f 89 3f 74 e9 c7 bf f1 13 76 bf 31 af 03 bf
       1.0746933 -1.5618119 -0.9612418 -0.51439196
000370 d2 8c 88 bf 15 29 b1 bf 60 93 ca 3f 57 e0 93 3e
       -1.0667975 -1.3840662 1.5826225 0.28882095
000380 5a f1 86 3f b7 79 9c bf 62 71 eb be cd 7c 85 bf
       1.0542405 -1.2224644 -0.45984942 -1.0428711
000390 d4 09 71 bf 37 91 3e bf 8b 08 37 3f 20 d7 a0 3e
       -0.9415562 -0.7444033 0.7149741 0.31414127
0003a0 e2 2a 54 3f cb 69 9b bf 05 e6 f8 3d 60 f4 8a bf
       0.82877934 -1.214166 0.12153248 -1.0855827
0003b0 01 bd c0 be a2 ad d9 be 6c e8 f4 be 3f 36 88 bf
       -0.376442 -0.42515284 -0.47833574 -1.0641555
0003c0 53 59 20 bf 09 0a 11 bf a2 10 4c bf 4f 7e 6a bf
       -0.626363 -0.5665594 -0.7971288 -0.9159898
0003d0 27 17 d0 3e 22 86 34 3f 94 ad c6 be 96 d5 6d 3f
       0.40642664 0.7051717 -0.38804305 0.9290403
0003e0 35 87 74 3d 89 b7 68 bf 1e 15 de bd a6 1a 36 bf
       0.059699256 -0.9090505 -0.108438715 -0.7113441
0003f0 d4 f7 4a bf 9f 46 ff 3d 29 6f 4a 3f 20 6e 7d ba
       -0.79284406 0.12464642 0.79075867 -0.0009667594

tabnet.tabnet.initial_splitter.shared.glu_layers.0.bn.bn.weight f4 [128]
000000 cc 94 61 3f 21 c6 6c 3f 76 e1 68 3f 7e f0 65 3f
       0.8811767 0.9248982 0.90969026 0.89820087
000010 c5 62 8b 3f 49 64 8d 3f 83 5e 8d 3f 7a 0a 67 3f
       1.0889517 1.104623 1.1044468 0.9025036
000020 a7 5c 8b 3f 8f 53 6f 3f 28 87 6f 3f dc 72 68 3f
       1.088765 0.93486875 0.9356561 0.9080026
000030 d2 3b 6d 3f e5 7f 66 3f 1b 5e 8a 3f d2 c9 89 3f
       0.92669404 0.900389 1.0809969 1.0764716
000040 77 5e 6c 3f 61 27 8b 3f c0 54 87 3f f2 3c 84 3f
       0.9233164 1.0871392 1.0572739 1.0331099
000050 56 ed 88 3f 9a 10 69 3f 00 07 6a 3f 6d e7 6b 3f
       1.0697429 0.91040957 0.9141693 0.9215
000060 f3 3e 87 3f 61 29 8d 3f f4 41 7d 3f f0 b2 84 3f
       1.0566086 1.1028253 0.9892876 1.0367107
000070 87 b1 67 3f 90 8f 8a 3f c1 74 8a 3f 96 0f 76 3f
       0.9050526 1.0825062 1.081688 0.9611753
000080 d4 f2 65 3f 7a 77 8b 3f 71 e9 8a 3f 30 d8 86 3f
       0.8982365 1.0895836 1.0852491 1.0534725
000090 59 d3 8d 3f 9d 3a 6e 3f 81 fe 65 3f d3 08 88 3f
       1.1080123 0.93058187 0.8984147 1.0627693
0000a0 21 b4 70 3f 88 73 89 3f 74 1d 78 3f 3f ae 80 3f
       0.94024855 1.0738382 0.9691994 1.0053176
0000b0 04 5f 6a 3f 3e 39 86 3f 3e c3 87 3f 50 1e 8a 3f
       0.9155123 1.0486219 1.0606458 1.0790501
0000c0 b6 06 87 3f a8 68 6d 3f 39 c8 6c 3f f2 68 6f 3f
       1.0548923 0.9273782 0.92493016 0.9351951
0000d0 40 8d 6b 3f 4c bc 6b 3f f1 26 68 3f 05 c0 8b 3f
       0.92012405 0.92084193 0.9068442 1.0917975
0000e0 a5 12 8b 3f 86 f2 89 3f c6 48 6e 3f fd df 8a 3f
       1.0865065 1.0777137 0.93079793 1.0849606
0000f0 eb ec 86 3f 2b 72 8c 3f e3 24 84 3f 20 3f 85 3f
       1.0541052 1.0972341 1.0323757 1.0409889
000100 56 ab 89 3f e7 1e 6c 3f 83 ce 64 3f 7c a8 6a 3f
       1.0755413 0.92234653 0.8937761 0.91663337
000110 6e 4b 7b 3f 63 20 6c 3f 20 33 80 3f d3 b4 67 3f
       0.9816197 0.9223692 1.0015602 0.9051029
000120 de a2 86 3f 8a e6 67 3f 48 3f 66 3f 42 54 88 3f
       1.0518453 0.9058615 0.8994031 1.0650713
000130 28 69 67 3f 7f 56 6a 3f a3 69 88 3f bd bc 8a 3f
       0.9039483 0.9153823 1.0657238 1.0838848
000140 a1 43 88 3f 9f 4b 7a 3f 08 3a 88 3f ec 5b 8c 3f
       1.0645639 0.9777164 1.064271 1.0965552
000150 86 8b 6e 3f 00 0e 85 3f c0 50 75 3f 6b 45 71 3f
       0.93181646 1.0394897 0.9582634 0.9424655
000160 18 92 71 3f eb dc 91 3f 3e 00 7a 3f ab 7e 6c 3f
       0.94363546 1.1395544 0.9765662 0.9238078
000170 ce 80 6b 3f f7 20 89 3f 63 42 8b 3f 38 5c 6b 3f
       0.91993415 1.0713185 1.0879635 0.9193759
000180 65 1d 8b 3f 2a 3c 69 3f 8c 55 86 3f 8e c3 88 3f
       1.0868345 0.9110743 1.0494857 1.0684679
000190 e2 15 74 3f f6 e9 6f 3f a1 ca 88 3f 2a 42 64 3f
       0.9534589 0.9371637 1.0686837 0.8916346
0001a0 6b 78 77 3f 4a f8 8a 3f f7 02 6e 3f 70 da 82 3f
       0.9666812 1.0857022 0.92973274 1.0222912
0001b0 f0 c9 66 3f b8 46 8a 3f 3b 34 82 3f ad be 85 3f
       0.9015188 1.0802832 1.017219 1.0448815
0001c0 39 5c 8b 3f 0c 5b 7f 3f e9 fd 6e 3f 76 12 85 3f
       1.0887519 0.997483 0.93356186 1.0396259
0001d0 8d 02 71 3f 17 a8 6b 3f a9 08 8a 3f 7d 5d 69 3f
       0.9414452 0.9205336 1.0783893 0.91158277
0001e0 6e 4a 88 3f 11 ed 8b 3f 31 e9 6d 3f aa 0c 81 3f
       1.0647714 1.0931722 0.92933947 1.008199
0001f0 2d 3f 87 3f a8 4e 66 3f c4 74 6c 3f 23 57 6b 3f
       1.0566155 0.8996377 0.9236567 0.91929835

tabnet.tabnet.initial_splitter.shared.glu_layers.0.bn.bn.bias f4 [128]
000000 14 97 99 bd d6 e2 75 3d 66 61 d0 bd f1 a0 94 3c
       -0.07499519 0.06003078 -0.10174827 0.01814315
000010 09 ab a6 3d 62 16 59 bd 40 2c d1 3d b2 41 b4 3c
       0.08138091 -0.05299986 0.10213518 0.022003982
000020 80 9a d7 3d 4e fa 33 bd 38 5f bd 3d b3 48 94 bd
       0.105275154 -0.04393988 0.09246677 -0.07240429
000030 28 4a 7b bd c1 e1 8f 3d fa 8a da 3d b9 40 b9 3d
       -0.061350018 0.07025481 0.10671039 0.09045548
000040 e9 bb 75 bd 5f 08 48 ba 0b bf de bd 82 81 6c bd
       -0.05999366 -0.0007630642 -0.10876282 -0.057740696
000050 6f 49 90 bd 06 16 b8 3d 7d 73 a0 3d 23 56 70 bd
       -0.07045256 0.08988576 0.07834528 -0.058675896
000060 3c 05 9e 3d 09 d1 83 bd 6c 85 d2 3d ac f2 a8 3d
       0.07715842 -0.06436355 0.102793545 0.08249411
000070 cf 29 9b 3d 43 4e 92 bd 34 1d cc 3c 82 f5 d1 bc
       0.07576334 -0.071438335 0.024916269 -0.025629763
000080 4e ed a3 bd d0 a5 b4 bd 34 45 f9 3d fa b6 de bc
       -0.08004247 -0.08820689 0.121714026 -0.02718686
000090 3a 2b da bd 21 64 47 3d bb 5e ab bd 1b 56 a3 3d
       -0.10652776 0.048679475 -0.08367678 0.07975408
0000a0 80 9a a4 3d 09 42 a1 3d 5b 62 8f 3d cf 4c b0 3d
       0.08037281 0.07873923 0.07001182 0.086084
0000b0 0e f3 de 3d b6 40 89 bd 97 73 4e bd 1e c4 dd bd
       0.10886203 -0.06701796 -0.050403204 -0.10828422
0000c0 61 e9 9e 3d 14 08 a1 bd 36 7c b0 3d a6 7e ce 3d
       0.07759357 -0.07862869 0.08617441 0.1008275
0000d0 e2 15 ac bd df 10 86 bd f0 8c 54 3d f4 51 7b bd
       -0.08402611 -0.06546187 0.05189222 -0.061357453
0000e0 f5 c6 b6 3d 87 8c a5 bd 07 18 a5 bc 6a 77 7a 3d
       0.08924667 -0.08083444 -0.020153059 0.06114904
0000f0 b4 d1 9c bd ac 17 be bd cf 76 e1 3d 89 f6 bb bd
       -0.07657185 -0.09281859 0.11008989 -0.09177882
000100 1d b6 bc bd 4d 07 9a bd 58 31 a5 bd 1b 51 61 3c
       -0.09214423 -0.07520924 -0.08066052 0.013752247
000110 d2 bb b6 3d 24 24 be 3d 33 a4 c0 3d 52 c0 22 3d
       0.08922543 0.09284237 0.094063185 0.039734192
000120 e4 bb b4 3d a0 d5 ca 3d 67 53 6e bd ff aa b1 bd
       0.088249 0.09904027 -0.058185007 -0.08675193
000130 eb 04 88 bd 13 45 d4 bd f0 0d ae 3d dd 05 8c 3d
       -0.06641563 -0.10364737 0.08498752 0.06837056
000140 be 0c 9c bd ae 9e 9d 3d 4e e7 62 3d c0 53 5c 3d
       -0.07619618 0.076962814 0.05539637 0.053790808
000150 a5 94 90 3d b4 a0 ad bd 0a 02 c1 bd 47 d0 da bd
       0.07059602 -0.08477917 -0.09424217 -0.10684257
000160 bd 78 64 3d 5f e9 c9 3d ae 79 ff bc e1 29 83 3d
       0.055779207 0.09858965 -0.031185951 0.06404472
000170 78 cb 51 bd 5d 6a 8f 3d 63 74 a1 3d 9c cb 6c 3d
       -0.051219434 0.07002709 0.07883527 0.057811365
000180 88 29 c3 bd c1 09 c4 3d 4d d7 bf 3d f8 e3 96 bd
       -0.09529406 0.09572173 0.09367237 -0.073677
000190 f1 36 f0 3d f2 ef a6 bd 60 96 a2 bd 3f 16 7a 3d
       0.11729229 -0.08151235 -0.07938838 0.06105637
0001a0 0c 2a a6 bd 7c 0c 85 3d bd 78 a0 3d 18 8a 62 bc
       -0.081134886 0.06496522 0.07835529 -0.013826869
0001b0 bf a8 91 bd 8e 20 79 3c 94 6b 94 3d 67 94 ba 3d
       -0.07112264 0.015205516 0.072470814 0.09110337
0001c0 48 1c 86 3b b2 7b 94 bd 83 b4 af bd 54 8e 86 bd
       0.004092727 -0.072501555 -0.08579352 -0.06570116
0001d0 30 68 a0 bd a6 a3 9a bd bd 66 aa bd 88 4c cc 3d
       -0.07832372 -0.07550745 -0.08320377 0.09975535
0001e0 22 12 c2 3d 34 a9 97 3d c3 7d 8b bd 64 9d 81 3d
       0.09476115 0.0740532 -0.068110965 0.06328848
0001f0 bb 8b ef bc 4c 11 c8 3d 24 d0 9b 3d 1d 9c 6f 3d
       -0.029241433 0.09768924 0.07608059 0.05849849

tabnet.tabnet.initial_splitter.shared.glu_layers.0.bn.bn.running_mean f4 [128]
000000 a3 c7 5d 3b fa 69 d9 bc b0 f1 6c ba 9f 9d ba b9
       0.0033840917 -0.026539791 -0.00090387 -0.0003559412
000010 aa 07 02 39 0b 78 00 3c f0 71 a3 ba 99 9b 38 39
       0.00012400621 0.0078411205 -0.0012469869 0.00017605572
000020 ed e4 bf 3c 53 52 89 3b 6c 3f ca 3b 76 09 70 bc
       0.02342459 0.004190722 0.0061721113 -0.014650693
000030 e7 fc 05 3c 44 66 8f 3b 99 ea 2e 3b 29 cf 88 3c
       0.008177972 0.0043762047 0.0026690124 0.016700344
000040 8a 97 a0 3b cd 5f d8 ba 57 cc 1d bc c7 61 93 3a
       0.0049008774 -0.0016508043 -0.009631238 0.001124435
000050 bf d7 cc bb df 47 06 bc bb 67 cb 3b 20 89 56 3c
       -0.006251305 -0.008195846 0.006207434 0.013094217
000060 a4 bc 98 3a e3 e4 cd ba c0 4a 1a bc e8 74 61 3c
       0.0011652899 -0.0015708472 -0.009417236 0.013760783
000070 ff b3 04 bb 0c da c1 ba 1a f1 f7 3b 9f e7 8e 3c
       -0.0020248888 -0.0014789714 0.0075665833 0.01744443
000080 56 a3 1b bc 9c 70 85 3b f3 20 d1 bb 52 63 ac 3c
       -0.009499392 0.004072262 -0.0063821017 0.021043453
000090 f3 b8 fa bc 18 d2 74 3c 56 ce 42 3c a2 4f 7b bc
       -0.030605769 0.014942668 0.011890015 -0.01533881
0000a0 3f 03 69 3b e2 75 60 bb 5d 30 ef 3c 27 fe 81 3b
       0.0035554913 -0.003424995 0.029197866 0.003967065
0000b0 59 fe 54 3c 81 b0 c7 3b b9 05 17 3d 76 7d 85 3c
       0.013000094 0.006094039 0.036870692 0.016295176
0000c0 4e e4 33 3b c0 e9 12 bb ff 5f ca 3c b1 22 8d bc
       0.0027449313 -0.0022417158 0.024703978 -0.017228456
0000d0 07 92 cb 3c 6f 3b 72 bc 11 c5 1b bc c7 92 50 bc
       0.024849905 -0.014784678 -0.0095074335 -0.012730307
0000e0 6a 9b a6 3c d9 d3 86 3c b6 06 72 bc fc dc 6c bc
       0.02033778 0.016458439 -0.014772108 -0.014456984
0000f0 be e5 d0 3b 6a bc e0 3c 4b a3 50 bb d6 17 5e bc
       0.0063750437 0.027433593 -0.0031835611 -0.013555488
000100 90 17 14 3c 14 29 86 bc d7 b2 f5 3c 72 e1 af bc
       0.009038821 -0.01637701 0.029992504 -0.021469805
000110 6b 6c 65 bc 90 a3 ad bb bd 72 66 bb 96 aa 3c 3b
       -0.0140029 -0.005299039 -0.0035163604 0.00287882
000120 72 34 bf 3c 76 44 8e 3c 40 68 c5 bb 37 c3 0a 3c
       0.023340438 0.01736663 -0.0060243905 0.008469394
000130 a1 d2 be 3b 6b 78 a4 bb 0b 65 6e 3c ce c5 19 3c
       0.0058234488 -0.0050192378 0.014550458 0.009385539
000140 75 9a 14 3c d7 1c 02 bc c6 24 35 bc 97 3f 5b 3b
       0.009070029 -0.007941446 -0.011056131 0.003345465
000150 32 08 94 bb ae c7 dd 3b 96 ed 08 3c 2b a7 64 bc
       -0.0045175785 0.0067681884 0.008357426 -0.013955872
000160 3e 88 eb bb fe 41 d6 3b f9 15 99 ba 5e 76 30 bc
       -0.007187872 0.0065386286 -0.0011679522 -0.010770408
000170 82 7a 1f 3b 4a c4 6c bc 50 9f 5d bc 18 8d bd bc
       0.0024334495 -0.014451096 -0.013526753 -0.023138568
000180 13 17 46 3b 18 0d b2 bb 19 fd 84 39 c7 4d d7 3b
       0.0030226156 -0.00543369 0.00025365574 0.006570551
000190 44 54 6e 3b e9 fc 03 bd 5e 75 54 3c 12 d0 e8 ba
       0.0036366144 -0.032223616 0.012967436 -0.0017762205
0001a0 37 9d ac bb 9b 8c 31 bc af 97 cf 3b 3f d9 e9 bc
       -0.005267765 -0.010836746 0.0063352208 -0.028545974
0001b0 46 1b 75 3c 70 0b 3a bb 75 af 88 3b 02 ca a7 bc
       0.014960116 -0.0028388165 0.0041713067 -0.020482067
0001c0 1e 32 05 bc 1a b9 17 bc 95 4a 5d 3c 83 a0 de bb
       -0.008129625 -0.00926044 0.013506551 -0.006794037
0001d0 8f ed e1 bb c0 15 f2 3b 75 eb d2 bb 4c 8a c5 3b
       -0.0068947743 0.0073878467 -0.00643676 0.006028449
0001e0 7a b3 45 3c 36 1c 1e bc f7 70 2b 3c 9e 89 97 bc
       0.012066716 -0.009650281 0.010463945 -0.018498238
0001f0 9f 55 a2 bc 28 3f dd bc ab 68 95 bb 83 73 86 ba
       -0.019816218 -0.027007654 -0.0045595965 -0.0010257814

tabnet.tabnet.initial_splitter.shared.glu_layers.0.bn.bn.running_var f4 [128]
000000 5e 87 ab 3f 1b a6 37 41 2d b3 db 40 88 26 98 3e
       1.3400686 11.478053 6.865622 0.29716897
000010 b2 d4 09 3f 8b 2c 8c 3f 65 9a 84 3f 33 fe f0 3e
       0.5384017 1.0951093 1.0359617 0.4706894
000020 b6 b1 95 40 e8 93 99 3f 00 3e ae 3f 86 20 40 40
       4.677943 1.1998262 1.3612671 3.001985
000030 7d f0 8f 40 55 bb ed 3e c6 56 ca 3e 8b ca 14 40
       4.4981065 0.46431985 0.39519328 2.3248622
000040 b2 50 8f 3f fd 6d 6c 3f 19 be 22 40 49 cd ef 3e
       1.1196501 0.9235533 2.5428526 0.46836308
000050 d2 02 6c 40 88 97 53 40 10 2c cc 40 40 e7 d3 3f
       3.6876721 3.3061237 6.3803787 1.6554947
000060 09 ca 13 40 86 8a c8 3f f6 aa 94 3f cd 2c c5 3f
       2.3092062 1.5667274 1.1614673 1.5404297
000070 21 28 aa 3f 59 e5 3a 40 7d 86 29 3f c8 3e 2e 40
       1.3293496 2.9202483 0.6622084 2.7225819
000080 86 a0 13 40 9c 8b 3e 40 ea 5b b6 40 13 a3 90 40
       2.3066726 2.977271 5.69872 4.5199065
000090 81 a3 9d 40 0a d9 c7 3f c0 5f 3d 40 a3 0b 57 41
       4.926209 1.561311 2.958969 13.440341
0000a0 1d a9 b5 3f 32 78 20 40 5f a5 b2 40 56 44 25 40
       1.4192234 2.5073361 5.582687 2.582296
0000b0 5a a8 ed 40 2e a9 2d 3f 99 f7 f4 40 ce ee 59 40
       7.4268007 0.6783627 7.6552243 3.4052005
0000c0 27 32 33 3f ef 61 28 40 aa 74 00 41 9a 59 46 40
       0.699984 2.6309774 8.028482 3.0992188
0000d0 6f 48 f1 40 91 1e 0b 40 ed 8c 93 3f ae 7f 59 40
       7.540092 2.1737406 1.1527382 3.398418
0000e0 ec ce c9 40 89 30 b7 40 1d 76 07 40 b5 da ee 3f
       6.306509 5.7246747 2.116584 1.8660494
0000f0 4f 57 91 40 bb 40 a6 40 8d fd ba 3e 3e 7a c3 3f
       4.541908 5.1954017 0.3652157 1.527168
000100 37 ba 33 40 7f ef d7 3f 75 89 df 40 6b f0 ac 40
       2.8082407 1.6869963 6.9855294 5.404348
000110 8a aa 3d 40 57 19 86 3f 58 fc c1 3f 9c 3f e0 3f
       2.9635339 1.0476483 1.5155134 1.7519412
000120 42 18 48 40 14 54 30 40 22 7d 34 40 28 9e 0f 40
       3.1264806 2.7551317 2.8201375 2.244028
000130 0a 97 fc 3f 38 af 18 40 71 52 9e 3f 3d 39 b6 3f
       1.9733593 2.3856945 1.2368909 1.4236218
000140 dc 89 a3 3f db f2 9e 3f e5 b4 76 3f 18 52 9c 3f
       1.2776446 1.2417864 0.96369773 1.2212553
000150 49 dd 97 3f fd 03 04 3f ad f0 e9 40 a3 88 05 40
       1.1864406 0.51568586 7.3106294 2.0864646
000160 da 47 28 41 dd f1 0a 41 9f 86 b1 3f 66 fc da 3f
       10.517542 8.684049 1.3869208 1.7108276
000170 c2 49 e3 3e a0 e8 db 40 5e 50 88 40 f7 3f 4e 40
       0.4439221 6.8721466 4.2598104 3.222654
000180 6f 3d db 3e 7e 49 43 3f 95 a8 60 40 de 08 f2 40
       0.42820308 0.76284015 3.5102894 7.5635824
000190 8a f4 39 40 38 be a5 40 05 c7 88 40 8b 36 21 40
       2.9055505 5.17947 4.2742944 2.518954
0001a0 67 e4 ef 3f c4 db 1c 40 38 9c f4 3f 65 d0 34 41
       1.8741578 2.4509134 1.9110174 11.300878
0001b0 9f 09 03 40 78 1e d2 40 70 34 d2 3e cc d6 39 40
       2.0474622 6.5662193 0.41055632 2.9037352
0001c0 fe ce 26 3f a0 b6 14 40 58 c5 ac 40 1b 0a 8e 40
       0.65159595 2.3236465 5.39909 4.4387336
0001d0 ad cb 31 40 bc 68 59 40 8d ba 3c 40 20 02 dc 3f
       2.7780564 3.3970175 2.9488862 1.7188148
0001e0 7c b1 04 40 28 fd 3c 3f d4 37 d2 3f 1b b7 4c 40
       2.0733328 0.73823786 1.6423287 3.1986759
0001f0 73 be 19 41 80 31 80 40 ae c6 e2 3f 45 c3 0e 40
       9.608996 4.0060425 1.7716882 2.2306683

tabnet.tabnet.initial_splitter.shared.glu_layers.1.fc.weight f4 [128, 64]
000000 ac 56 34 3f c2 d2 c5 3e 8d 11 27 3f 67 49 ae 3e
       0.7044475 0.38637358 0.65261155 0.34040377
000010 97 4f 92 3e df 67 09 bf 87 e8 e6 be aa 2e 23 bf
       0.28576347 -0.5367412 -0.4509928 -0.6374308
000020 88 73 ae be 32 be d7 3e a7 4f 5c 3e f7 d6 52 be
       -0.34072518 0.42137295 0.2151476 -0.20589815
000030 82 b6 0f 3f df 0d b2 bd 8b 8f 54 3f 9f 51 a2 3e
       0.5613786 -0.08694052 0.8303153 0.31702897
000040 a3 5d b8 3e 42 a9 8b bf de da e7 be 75 e7 dd be
       0.3600894 -1.0911028 -0.4528417 -0.4334065
000050 6c 05 f5 bc ae 7b 4f be ef 4e 99 be 90 ea 31 be
       -0.029909812 -0.20262024 -0.29943034 -0.17374635
000060 43 7b 74 3e 21 f6 26 3f d9 46 ae 3e 97 cf d8 be
       0.23875146 0.6521931 0.34038427 -0.42345878
000070 13 44 53 bf ee 7f 06 3f cc bf 81 3e be 6f bb 3e
       -0.8252575 0.52538955 0.25341642 0.3660869
000080 e8 05 8b 3d 94 10 41 be d7 d4 dd bd d7 27 89 bf
       0.06788236 -0.1885398 -0.108316116 -1.0715283
000090 b8 ac e6 3e 50 7a 49 3f e0 6c 51 be 57 c1 9c 3e
       0.4505365 0.7870226 -0.20451689 0.30616257
0000a0 5b fa 4a bf 6e a0 63 3d 91 ca 18 3f bb 0c f4 be
       -0.7928826 0.05557292 0.5968409 -0.47665963
0000b0 98 47 b3 3e 27 04 44 bf 50 81 d4 be 0f ce 44 3f
       0.3501556 -0.76568836 -0.41504908 0.7687692
0000c0 e1 55 b4 3e bb c4 53 3d 63 bf a7 be 2d 20 a9 be
       0.3522177 0.05170129 -0.32763204 -0.3303236
0000d0 47 0d 83 3f 3e fc 4d 3e 1b 09 45 bf f7 e5 ff 3d
       1.0238427 0.20115754 -0.7696702 0.12495034
0000e0 a2 da 65 be 2d 06 ea be 2e 55 d3 bf 1b 44 24 3e
       -0.22446683 -0.45707837 -1.651037 0.16041605
0000f0 ea 80 c7 bd b2 22 62 3f 0d 30 94 be 71 0d 37 bf
       -0.09741385 0.8833419 -0.2894291 -0.71504885
000100 bc 3b 7d 3f 1e 6f 4f bf 2b 77 db be 51 f2 81 be
       0.9891927 -0.81028926 -0.42864355 -0.25380185
000110 e6 2d f0 be 34 ff 8b bd 29 d9 88 3f 8c af 59 be
       -0.46910018 -0.068357855 1.0691272 -0.21258372
000120 d2 ea 3f bf d4 d8 04 3f 1d f3 d0 3d 33 e1 ac 3e
       -0.7496768 0.51893353 0.1020262 0.33765563
000130 91 9a 0d 3f ba a2 e1 be 2d 80 7e be e1 42 8a be
       0.55313975 -0.44069463 -0.24853583 -0.2700415
000140 94 e9 5e bd 89 8a dc 3d 62 04 16 3e 97 df 02 bf
       -0.054421976 0.10768611 0.1465011 -0.5112242
000150 3c 9f d6 be d3 9f 51 bf 57 6c 48 bf 6e 6c 0f 3f
       -0.4191836 -0.818845 -0.78290313 0.56024826
000160 f4 73 67 3f a4 2b 48 3e 46 0d fa 3d 28 25 89 be
       0.90411305 0.19547898 0.12209563 -0.2678616
000170 dd 8c ab 3e a0 92 14 bf 57 64 39 3f b0 cb d2 be
       0.33505908 -0.5803623 0.7241873 -0.41171026
000180 40 85 1c 3e 98 19 9b bd 71 e2 9d 3e cd 31 0a 3f
       0.15285206 -0.07573241 0.30836824 0.5398224
000190 72 bf 34 3e 0e 37 9e 3e f5 2e 6b bd e8 d1 88 3d
       0.17651156 0.30901378 -0.05741783 0.066806614
0001a0 50 48 5c 3b 43 97 9e be 90 a9 3c bf ad 79 0e 3f
       0.0033612438 -0.3097478 -0.7369623 0.5565441
0001b0 22 ba 22 3f 33 cc ef be c5 89 16 3f fa d1 14 3f
       0.63565266 -0.4683548 0.5880397 0.581329
0001c0 6d a1 a3 bf a2 23 20 3f 70 76 3b 3f 59 ed c9 3e
       -1.2783638 0.6255437 0.73227596 0.39438894
0001d0 73 d1 89 3c 8b b2 cd be 73 42 7b be 16 0c aa bd
       0.016823506 -0.4017528 -0.24537067 -0.083030865
0001e0 4a 25 27 3f 61 12 72 3f 3c 24 17 3e 86 9d b4 3e
       0.65291274 0.94559294 0.14759916 0.3527643
0001f0 4d 90 e3 bd eb 50 88 be 3e 70 d6 be f0 6c cf be
       -0.111115076 -0.26624236 -0.4188251 -0.405128
000200 cf 90 09 be 0f 91 0f 3f e4 3e 9e 3f 18 28 b1 3d
       -0.13434146 0.56080717 1.2362943 0.086502254
000210 56 af 16 bf a1 e0 6c be 38 00 86 3e b9 e7 6a 3e
       -0.5886129 -0.23132564 0.26172042 0.22939958
000220 8f fc 07 bd 3d ac e8 3e f4 85 41 bf 34 6a 90 be
       -0.033199843 0.45443907 -0.7559502 -0.28206027
000230 e7 d5 4f bf 64 88 89 3e e6 8e ae be 07 e1 4a bf
       -0.81185764 0.2686187 -0.34093398 -0.79249614
000240 71 b7 f0 be 46 8c 68 bc c2 62 89 bd 17 bc df bc
       -0.47014955 -0.0141936 -0.0670829 -0.027311368
000250 ab 30 39 3e 8f ec 7f 3e 08 14 66 3f 36 8e d1 bc
       0.18084972 0.24992584 0.89874315 -0.025580507
000260 5d 86 0b 3f 87 b9 25 bf 2e c6 8f bd d1 f9 a7 be
       0.545019 -0.6473622 -0.07020222 -0.32807782
000270 79 6d 63 be 32 5e 9c 3f a6 ce 60 bf 05 7f 0e bf
       -0.22209729 1.2216246 -0.8781532 -0.55662566
000280 3e 1b 25 3f db 48 1a be 70 16 a0 3c bd dd cc bd
       0.64494693 -0.15066855 0.019541949 -0.10003231
000290 fe 75 1b 3d b0 2b 8f 3d 30 78 d6 3d 1a e7 e3 bc
       0.037954323 0.069907546 0.10472143 -0.027820159
0002a0 64 0d 4b 3e 5b 42 0d bf f9 d2 d1 3e 81 6b f5 3e
       0.19829327 -0.55179375 0.40981272 0.4793358
0002b0 d4 87 2b bd ce ba f5 bc de c7 72 3e fa 90 88 3f
       -0.041877583 -0.029996302 0.23709056 1.0669243
0002c0 83 f3 e8 3e ed 4a 44 3f 4d 8d d8 3e ec 60 15 3e
       0.45498285 0.7667683 0.42295304 0.14587754
0002d0 f1 75 c1 be b0 44 21 3e 14 3c 21 bf 2c 52 a0 3e
       -0.37785295 0.15748858 -0.62982297 0.31312692
0002e0 00 9c 58 3f 4f f6 0c bf bd f4 61 bf db 9f 99 3c
       0.8461304 -0.5506334 -0.88264066 0.018752983
0002f0 95 ea 11 be 34 c8 1c be c3 f6 97 be 88 d0 31 be
       -0.14249642 -0.15310746 -0.29680452 -0.17364705
000300 7a 8b b3 3e f8 6e 67 be 32 4f 81 3f fa 3b f0 3c
       0.3506735 -0.22600925 1.0102293 0.029325474
000310 e1 0c 69 3e 81 88 b9 be c4 e1 3c be 02 9a f3 bd
       0.22758819 -0.36236957 -0.18445498 -0.11894609
000320 e4 56 28 3f 07 41 41 bc 89 08 24 3f 58 09 cc 3d
       0.65757585 -0.011795289 0.64075524 0.0996272
000330 79 dc 68 3d f2 1b 2c 3f 47 a5 a0 be f8 9e 1e 3e
       0.056850884 0.6723014 -0.31376097 0.1549033
000340 ab 0e 97 3f 1e cb e7 3c 4b c7 c1 bd 26 18 6d 3f
       1.1801351 0.028295096 -0.0946184 0.9261497
000350 ba 08 9f 3e 81 ff e7 be 7a 08 6f be 14 41 22 be
       0.31061345 -0.45312122 -0.23343077 -0.15845138
000360 fa d1 af 3d 8f 77 83 bc d2 80 9e 3e 55 f9 dd be
       0.08584972 -0.01604822 0.30957657 -0.43354288
000370 e8 6e 5c bf df 16 03 be bc 00 e8 3e dc fc 76 3e
       -0.8610673 -0.12801693 0.4531306 0.24119896
000380 3e 39 19 bf 1a 15 88 be ab 07 7d 3e 1f 41 6e be
       -0.5985297 -0.265786 0.24709956 -0.23267029
000390 73 95 cd 3e e4 7c a0 3e 0c 6d 17 3f 8c f9 c9 3c
       0.40153083 0.31345284 0.5915077 0.024655126
0003a0 82 1d 7a bf 78 ee 82 3e be 4b 32 3f 36 61 94 3d
       -0.97701275 0.25572562 0.69646823 0.07245104
0003b0 e6 d1 3e bf 9c 6c 60 be 65 0f 1a bf 90 27 c5 be
       -0.7453903 -0.21916431 -0.6017974 -0.38506746
0003c0 a7 02 f0 be da fe ee bd 13 6a 33 3f 2a 41 ee bd
       -0.46877024 -0.11669703 0.7008373 -0.11633523
0003d0 ca 92 9a 3f e1 8e c1 be 77 ce a6 3e 2e f9 1a 3d
       1.2076046 -0.3780432 0.32579395 0.037835293
0003e0 2e 5a 0d bf 25 b3 81 3c 03 ed d6 bd 96 cc 59 be
       -0.5521573 0.015832493 -0.10494425 -0.2126945
0003f0 01 e4 a1 3e a0 fe 36 bd 06 a0 7b 3e 9e f6 66 be
       0.31619266 -0.044676423 0.24572763 -0.22555014

tabnet.tabnet.initial_splitter.shared.glu_layers.1.bn.bn.weight f4 [128]
000000 cd b1 71 3f 0f 46 65 3f 63 5d 65 3f 10 31 8b 3f
       0.9441193 0.89560026 0.8959562 1.0874348
000010 b6 23 8a 3f 2f 03 6e 3f 6e 7e 80 3f 74 7a 65 3f
       1.0792148 0.9297361 1.0038583 0.89639974
000020 9d 56 82 3f 95 21 84 3f 79 b4 63 3f 3f 1f 89 3f
       1.0182682 1.0322748 0.88947254 1.071266
000030 ad bb 6a 3f 04 45 6f 3f 72 7d 8a 3f 8a 7f 68 3f
       0.9169262 0.93464684 1.0819533 0.9081961
000040 fd 47 6a 3f 72 35 87 3f e3 86 87 3f bc 48 8d 3f
       0.91516095 1.0563185 1.0588039 1.1037822
000050 6e f9 88 3f 30 ab 7b 3f a6 76 85 3f 71 d8 87 3f
       1.070112 0.98308086 1.0426834 1.0612928
000060 e9 03 89 3f 23 b2 7c 3f 5e cc 6b 3f c6 0c 60 3f
       1.0704318 0.98709315 0.92108715 0.8751949
000070 87 d7 82 3f d8 d6 88 3f 12 76 8b 3f 4b 3a 8a 3f
       1.0222024 1.0690565 1.0895407 1.079904
000080 ab 84 64 3f 4c 33 6b 3f d0 80 82 3f 01 e4 8b 3f
       0.89264935 0.9187515 1.019556 1.0928956
000090 23 92 6a 3f 3d f9 6d 3f 7f d8 7d 3f db a2 8d 3f
       0.91629237 0.9295843 0.9915847 1.1065325
0000a0 e5 bb 6a 3f ed b0 88 3f 19 2b 8b 3f 56 80 80 3f
       0.91692954 1.0678993 1.0872527 1.0039165
0000b0 dc e5 65 3f 63 ce 60 3f 2d e1 69 3f f7 85 89 3f
       0.8980386 0.8781492 0.91359216 1.0744008
0000c0 ee 69 89 3f ad f8 86 3f 0a 19 8c 3f 46 89 71 3f
       1.0735452 1.054464 1.0945141 0.9435009
0000d0 64 15 88 3f ee ff 83 3f bc 51 89 3f 53 15 8a 3f
       1.0631528 1.0312479 1.0728068 1.0787758
0000e0 8a 9d 6d 3f c5 9a 6b 3f 19 eb 89 3f e1 52 8a 3f
       0.9281851 0.92033035 1.0774871 1.0806543
0000f0 6c 7e 68 3f 99 76 87 3f 46 7a 6a 3f b2 37 87 3f
       0.90817904 1.0583068 0.91592824 1.0563872
000100 e8 3a 73 3f 4c 5c 6c 3f 76 9c 84 3f 28 12 8a 3f
       0.9501176 0.92328334 1.0360248 1.0786791
000110 82 43 8b 3f 5b 40 8d 3f 8d 40 89 3f 9c 9d 83 3f
       1.0879977 1.1035265 1.0722824 1.0282474
000120 a0 76 82 3f a7 8f 86 3f 12 ca 88 3f ef ca 89 3f
       1.0192451 1.0512589 1.0686667 1.0765055
000130 42 9a 66 3f 5b 83 67 3f 07 a5 80 3f a7 8f 87 3f
       0.9007913 0.9043481 1.0050362 1.0590714
000140 33 03 86 3f 86 c6 88 3f 47 48 6d 3f fd f5 8a 3f
       1.0469726 1.0685585 0.9268841 1.085632
000150 86 c2 89 3f 7e 2a 85 3f 11 43 8d 3f fc ee 86 3f
       1.0762489 1.0403593 1.1036092 1.0541682
000160 fb 08 89 3f 14 87 88 3f a1 ea 6e 3f e7 7b 88 3f
       1.0705866 1.0666223 0.93326765 1.0662812
000170 9c 8d 85 3f bc b6 88 3f 02 c8 7f 3f 16 89 88 3f
       1.0433841 1.0680766 0.9991456 1.0666835
000180 d6 36 71 3f 8d da 69 3f ca 1c 89 3f cf 14 78 3f
       0.942243 0.9134911 1.0711911 0.9690675
000190 5f cb 8c 3f 74 3c 6f 3f 49 a4 89 3f e5 9d 7c 3f
       1.0999564 0.9345162 1.0753261 0.9867843
0001a0 1a 5e 86 3f 63 b4 8b 3f f3 0e 8b 3f 23 23 6b 3f
       1.0497468 1.0914425 1.0863937 0.9185049
0001b0 0c eb 81 3f ef f6 71 3f 49 a6 6b 3f 1f cc 89 3f
       1.0149856 0.94517416 0.92050606 1.0765418
0001c0 61 a3 89 3f db ee 6b 3f 9e 1c 8c 3f 62 44 73 3f
       1.0752984 0.9216134 1.0946233 0.9502622
0001d0 5a fd 67 3f 1b bd 8a 3f c3 c6 6b 3f b7 4d 6e 3f
       0.9062096 1.083896 0.9210016 0.93087333
0001e0 89 0b 89 3f 50 69 88 3f bf 44 77 3f 0c ae 6c 3f
       1.0706645 1.0657139 0.96589273 0.92453074
0001f0 a0 5e 85 3f 6f 6a 6c 3f 59 2d 85 3f e5 7f 8a 3f
       1.0419502 0.92349905 1.0404464 1.082028

tabnet.tabnet.initial_splitter.shared.glu_layers.1.bn.bn.bias f4 [128]
000000 8b 36 42 3d 68 d6 6f 3d cf 13 f1 bd a4 d0 98 3d
       0.047415297 0.058554083 -0.11771356 0.0746167
000010 23 b7 9a 3d ca 32 58 bd 03 85 a8 3d 0f f2 a5 bd
       0.07554462 -0.05278281 0.08228495 -0.0810281
000020 7b 16 01 be f0 fc bb bd ec 82 9c 3d d8 b7 86 3d
       -0.12606232 -0.091791034 0.07642159 0.06578034
000030 eb cf d2 bd fb 68 9f bd 66 48 90 3d 7b 3e 56 bd
       -0.102935635 -0.07783695 0.07045059 -0.05230568
000040 7d 14 0b 3d 6c 92 62 bd 12 15 92 3d b5 0a 31 3d
       0.033955086 -0.05531542 0.07132925 0.0432231
000050 47 55 f7 bd fc 6f 48 bd 25 b6 40 3d c7 82 b7 3d
       -0.12076812 -0.04893492 0.047048707 0.08960491
000060 18 98 9d bd d0 39 09 3d 16 a7 b5 3d a3 a1 92 bd
       -0.07695025 0.0335024 0.0886976 -0.07159736
000070 59 6d d5 3d 0a dd 51 3c c9 8b 10 bd 15 11 b8 3d
       0.10421247 0.0128090475 -0.03528956 0.08987633
000080 32 1e b4 bd e3 16 d6 3d 19 75 ae 3d 7f c6 ba 3d
       -0.08794822 0.10453584 0.08518428 0.091198914
000090 8b 05 88 3d f8 70 33 3d cf 33 b1 3d 5b 50 d2 3c
       0.06641682 0.043808907 0.0865246 0.025673082
0000a0 f5 db c8 3d aa 2d 03 bd 12 d5 5c bd 00 7b 6d bd
       0.098075785 -0.03202597 -0.053914137 -0.05797863
0000b0 1c 08 9e bd c1 17 4c 3d ed db a6 3d be 48 97 bd
       -0.077163905 0.04982734 0.08147416 -0.07386921
0000c0 08 07 8d bd c8 a1 5d bd e9 77 c8 3d 7b 07 c2 3d
       -0.06886107 -0.054109365 0.09788496 0.09474083
0000d0 73 2a dd bd 9a c5 42 bd d7 f9 b5 bd 64 a1 a2 bd
       -0.10799112 -0.04755173 -0.08885544 -0.07940939
0000e0 9c 04 aa bd 4c 33 66 3d 45 dc a2 3d 4d 2e 23 3d
       -0.083016604 0.056201264 0.07952169 0.039839078
0000f0 fd f3 1f bd 43 70 a2 3b 54 25 9f bd b3 c1 81 3d
       -0.039051045 0.0049572303 -0.07770792 0.06335773
000100 9b 1f fc 3c 0b 06 89 3d b9 aa c2 bd b3 34 b3 3d
       0.03077679 0.06690606 -0.09505219 0.08750286
000110 97 35 99 3d 95 89 9f bd 0a 9d 8d bd f5 06 ce bd
       0.074809246 -0.077899136 -0.069147184 -0.10059921
000120 58 35 b3 bd 68 d7 de 3b f9 7a e8 bd e1 de 86 3d
       -0.08750409 0.006800581 -0.1135158 0.065854795
000130 d9 72 3a bd e6 6e 02 bb ff d9 bf 3d 6c 4b b4 bd
       -0.045519684 -0.0019902526 0.09367751 -0.08803448
000140 0d 27 98 bd 37 f7 aa bd 68 29 84 3d eb 78 e8 3d
       -0.07429323 -0.08347934 0.0645321 0.11351188
000150 6b 7e 90 3d 81 46 c7 bd 25 e8 0c 3d 94 f8 8d 3d
       0.07055362 -0.097302444 0.034401078 0.06932178
000160 70 73 b2 3d 2e 7e c6 bd 52 f9 c2 bd 80 62 ba bd
       0.08713424 -0.096920356 -0.0952021 -0.09100819
000170 85 93 00 3d 00 58 88 3d bd ac 9a 3d 71 49 a6 3d
       0.031390686 0.0665741 0.075524785 0.081194766
000180 9f c6 d6 bc 0e 67 ac bd 81 bd 89 bd ec 0f 8e 3d
       -0.026217757 -0.084180936 -0.06725598 0.069366306
000190 1e e0 bf bd 86 7c 7b bd 57 9f b0 bb 23 db ce 3d
       -0.09368919 -0.06139805 -0.0053900885 0.10100391
0001a0 fa 83 a2 bd 4c 1a 73 3d 2f 18 af 3d 1c 5a a4 3d
       -0.07935329 0.05935125 0.085495345 0.080249995
0001b0 4a 48 e7 bd ec 63 c9 bd 03 69 b8 bd 56 0d 91 3d
       -0.11293085 -0.09833512 -0.090044044 0.07082622
0001c0 92 71 95 3d 5a e5 a2 3d e0 fe af 3d da d5 58 bd
       0.072970524 0.079539016 0.085935354 -0.05293832
0001d0 6c 86 8b 3d 61 67 d4 bb 46 b3 95 3d cb d1 9b 3d
       0.06812748 -0.0064820503 0.07309584 0.07608374
0001e0 ab 70 8f bd 45 77 9e bd 3c 34 8f 3d c5 52 b4 3d
       -0.070039116 -0.077375926 0.06992385 0.088048495
0001f0 de a1 a9 bd 3f b1 97 3d cc ad ac bd 5a 3d 63 3d
       -0.08282827 0.07406854 -0.084315866 0.05547843
