fastai/models/model.pth (torch, 476874 bytes, 137 tensors)

embeds.0.weight f4 [4, 3]
000000 e1 a8 8c 34 7c 4b d3 b3 9d 4a 02 35 f2 03 a8 3d
       2.6199908e-07 -9.839184e-08 4.853735e-07 0.082038775
000010 e7 c0 47 c0 7c 82 2a be e9 30 ea bd ad e9 87 3f
       -3.1211488 -0.16651338 -0.1143511 1.0618187
000020 16 fe ac 3d f3 d8 2a 3e fe 3d d3 40 0a 09 14 3d
       0.084469005 0.16684322 6.6013174 0.036141433

embeds.1.weight f4 [9, 5]
000000 60 9e 5b 31 a5 e8 06 b5 00 f6 25 33 a5 b2 c9 b4
       3.195872e-09 -5.025743e-07 3.8640792e-08 -3.7569149e-07
000010 fd 5a 82 34 0d 28 aa 40 72 da 1d c0 9d a3 88 3e
       2.428059e-07 5.317389 -2.4664578 0.26687327
000020 33 57 1d 3d 44 26 cc c0 9e ce 01 40 d7 a0 89 c0
       0.038413238 -6.379671 2.028236 -4.300884
000030 df d5 97 bb a3 de 42 3b 86 83 13 c0 ec 4f 3f c0
       -0.0046336497 0.0029734753 -2.3049026 -2.989253
000040 cf be 87 3f 14 24 22 be e0 62 88 be 25 4f f1 bd
       1.0605105 -0.15834075 -0.26637936 -0.11782674
000050 19 2c 5f bf c7 eb e2 3f 61 31 b4 3c d4 22 a2 bc
       -0.8717666 1.7728204 0.021996202 -0.019791998
000060 c7 55 ff 3d 8e fd 30 40 ee 28 e6 3f 85 c4 ea 3d
       0.124675326 2.7654757 1.7981241 0.114632644
000070 29 d9 e6 3d 6c 13 b5 bf 48 6f 38 be 7e 9a 78 bf
       0.11271889 -1.4146552 -0.180112 -0.97110736
000080 9a 27 73 bd 11 df 8d bd 06 c8 ac 3f 8c 56 b5 bf
       -0.05936394 -0.06927312 1.3498542 -1.4167037
000090 62 6d eb 3f 5c 60 19 be b1 cc 45 3e 58 1e 91 40
       1.8392756 -0.14978164 0.19316365 4.534954
0000a0 28 e4 b7 be 9b fd 94 c0 83 c5 54 bd 94 5c 85 3e
       -0.35916257 -4.6559577 -0.051946174 0.26047194
0000b0 61 b7 de 3f
       1.7399713

tab_net.initial_bn.weight f4 [9]
000000 5c ef ba bf a2 76 5b c0 73 71 57 c0 97 57 cb bf
       -1.4604297 -3.4291158 -3.3662994 -1.5886105
000010 c3 a4 ca c0 b0 3a 19 41 b1 60 b5 3f 47 c3 ad c0
       -6.3326125 9.576828 1.4170133 -5.4300876
000020 56 b9 99 c0
       -4.803874

tab_net.initial_bn.bias f4 [9]
000000 0b a6 d2 3f ff e3 e3 40 78 28 f6 3f cb 91 02 c1
       1.6456922 7.1215816 1.92311 -8.160594
000010 ee 98 74 41 72 c6 b2 3f dd e4 87 3f 2a f0 df c1
       15.287336 1.3966811 1.0616719 -27.992268
000020 88 7a 8f c1
       -17.93483

tab_net.initial_bn.running_mean f4 [9]
000000 5f 95 ea bc 01 96 0a bf 63 c7 55 bd 2f 16 86 be
       -0.028635679 -0.5413514 -0.052192103 -0.261888
000010 b7 df 7c bf 8b fa 8f bd d2 7e 76 bd 07 01 f6 3d
       -0.9877886 -0.07030209 -0.06017954 0.12011915
000020 dc 4d 9f ba
       -0.0012153941

tab_net.initial_bn.running_var f4 [9]
000000 b7 06 e4 3c 67 2a 58 40 18 3b 36 3d ab ad c6 40
       0.027835233 3.377588 0.04448995 6.2086997
000010 ac 36 8b 40 86 ad 2c 3d 8e 38 a6 3d eb 2b 9c 40
       4.350424 0.042157672 0.08116256 4.880361
000020 0b 2c ed 40
       7.4116263

tab_net.initial_splitter.shared.shared_layers.0.weight f4 [128, 9]
000000 45 62 b5 3d ed 77 0b 40 b6 88 82 3d ed da a5 3f
       0.08856634 2.1791947 0.06373732 1.2957436
000010 8e df 5c 40 df 46 bb bd 66 56 1c 3e b0 10 45 40
       3.4511447 -0.09144377 0.15267333 3.0791435
000020 8d ac 50 3f 35 a0 98 bc ca c2 07 40 ce 9b f6 bc
       0.8151329 -0.01863108 2.121264 -0.03010359
000030 1b 7d 09 be 5c 00 5a 3e 6d 54 8b 3d 8e 2a ec bd
       -0.1342663 0.212892 0.06803212 -0.11531554
000040 2b 5d 60 c0 46 d5 49 be 3f d3 35 bd 6d f9 8e 3f
       -3.5056865 -0.19710264 -0.044390913 1.1169869
000050 d2 32 40 3d 5a 87 1e c0 fc 82 cb bf 3e 5c 4f be
       0.046923466 -2.4770112 -1.5899348 -0.20250031
000060 09 12 46 be 61 9f 85 3f bd 31 89 bf 07 bf 83 bc
       -0.19342817 1.0439264 -1.0718304 -0.0160823
000070 ec 42 36 40 f9 e1 39 3d 15 72 97 3f 52 80 55 40
       2.8478346 0.04538152 1.183169 3.335957
000080 ca 01 2f bd 4f 98 f1 39 89 b6 88 c0 1d 4d 12 40
       -0.042726316 0.0004608058 -4.272282 2.2859566
000090 7d 20 ab ba a1 be c5 be 1d 67 0a bc b3 8a 06 c0
       -0.0013055947 -0.38622 -0.008447436 -2.1022155
0000a0 63 c8 e1 bf aa 58 1e 3c 4b 1e 5f bc ac d6 89 c0
       -1.7639278 0.009664694 -0.013618062 -4.307455
0000b0 e2 65 fb bf 30 8a dd 3c 4b 18 91 be ed 64 13 be
       -1.9640467 0.027043432 -0.28338847 -0.14393969
0000c0 da 9a f2 bf b7 8d 22 c0 0e e0 28 be ba 67 68 3e
       -1.8953507 -2.5398996 -0.1649172 0.22695819
0000d0 f8 ae 14 c0 70 6f ec 3f 40 ce 9b 3b 79 3a f3 bc
       -2.3231792 1.8471508 0.0047548115 -0.029690968
0000e0 a4 47 b2 3a 4f 39 a6 3f 6b 23 94 c0 4f 30 f5 38
       0.0013601673 1.2986239 -4.6293235 0.000116915086
0000f0 b1 63 ce ba 8b 5c 63 3c 88 9b ec bf 54 19 cb bd
       -0.0015746263 0.013877044 -1.8484964 -0.0991694
000100 74 82 9e 40 a7 2f b7 bd e6 9f 25 bf 5a d5 ae 3f
       4.9534245 -0.08944636 -0.6469711 1.365886
000110 72 b3 6d be 22 85 99 be fe 5b b9 3f 6b 41 34 bd
       -0.23212984 -0.29984385 1.4481199 -0.0440077
000120 15 a0 49 3e bc 23 1d 3e c6 20 16 be 6e b2 ba 3d
       0.19689973 0.15345663 -0.1466094 0.09116064
000130 5a 15 3e c0 90 6a 0b 3e 55 94 8d bd 60 44 1a bf
       -2.9700532 0.13614869 -0.06913058 -0.6026058
000140 2c fc 5c bf 86 3c ad 3d ac e1 86 be 95 67 7b 3c
       -0.86322284 0.084588096 -0.2634405 0.01534452
000150 7b e5 e8 c0 39 2f 57 bf b3 eb 0a be cd 0f 0f be
       -7.2780128 -0.8405643 -0.13566475 -0.13970871
000160 91 ac 3b 40 0d fb 0d c0 2d db 84 3d 53 3b 9d c0
       2.9324076 -2.218448 0.06487117 -4.9134917
000170 d9 c6 50 3e 06 2c dc bf 66 cb 1d c0 8f b9 38 3d
       0.20388354 -1.7200935 -2.4655395 0.045098837
000180 9c 09 3f 3e c2 3f 11 3f f2 65 7f be 9e 0c cd 3c
       0.1865601 0.5673791 -0.24941233 0.02503043
000190 31 09 43 40 96 b0 9b 3d a8 80 11 3e c0 13 b0 3d
       3.047436 0.076020405 0.14209235 0.08597517
0001a0 2e 88 1b be 88 f1 f2 3d 75 ef f9 be c1 77 fc 3f
       -0.15188667 0.11862475 -0.48815504 1.9724046
0001b0 d0 35 ae bc b2 e6 43 bf 3c f4 8c bc 0d 57 ac bf
       -0.021265894 -0.7652389 -0.017206304 -1.3464066
0001c0 ab 40 65 c0 68 d2 c8 3c 42 e9 a4 bc ab d1 5c c0
       -3.582072 0.024514392 -0.020130757 -3.450297
0001d0 d1 e6 49 bf ec 0e a2 bc bb 3e 46 3f 6c ed 85 bd
       -0.7886782 -0.019782506 0.7743947 -0.06539425
0001e0 d9 f5 b0 3f 0d aa 1b 40 bd 9a 97 ba 11 7a 51 bd
       1.3825027 2.432254 -0.0011566501 -0.051141802
0001f0 25 98 2c c0 b0 10 df bf 09 2f 3e 3d eb 8b 7c be
       -2.6967862 -1.7426968 0.046431575 -0.2466275
000200 11 0f e5 ba a2 bc 9d 40 66 68 a2 3f 43 49 b3 bd
       -0.0017475804 4.9292765 1.268811 -0.08754208
000210 35 d8 78 bd 8c 77 c7 c0 2f f4 28 c0 ea 6e 69 bd
       -0.060753066 -6.233343 -2.6399038 -0.05699054
000220 1d 72 cc bd a4 b8 18 bc e0 c1 74 40 c1 86 18 40
       -0.09982703 -0.0093213655 3.8243332 2.3832247
000230 4c 01 b0 3d 8b 95 8f 3e 95 f7 61 c0 39 2c 2c 3e
       0.08593997 0.2804378 -3.5307362 0.16813745
000240 11 da a5 bd de ec bb bd 3b 54 f9 bd 5a 92 00 3e
       -0.080982335 -0.09176038 -0.12174269 0.12555829
000250 6d 17 e9 3f 85 8e a4 bd 56 44 41 be 96 a4 8c c0
       1.8210274 -0.08034996 -0.18873724 -4.395091
000260 1f b6 fd bd 0f 1f 9b bd d2 90 06 40 0c fd d4 3d
       -0.123882525 -0.07574283 2.1025891 0.10399827
000270 1c 3b 33 bf e4 e4 d4 c0 62 b7 c5 bd d1 17 83 3d
       -0.7001207 -6.6529408 -0.09654118 0.06401027
000280 f4 89 a3 40 49 88 9f 3f c5 83 c5 bc 70 cc 10 40
       5.11059 1.2463466 -0.024110684 2.2624779
000290 e6 33 45 bb da 79 30 40 93 fb fa 3f b6 be 90 3c
       -0.0030090748 2.7574372 1.9608024 0.017669063
0002a0 7b d4 8e 3b ce 2d 4b 40 ab fd 9d 3e 18 30 6b bd
       0.0043588257 3.1746707 0.30857596 -0.057418913
0002b0 eb c8 0a bf b4 13 98 3b a3 45 1e c0 09 a2 42 40
       -0.54212826 0.0046410207 -2.4730003 3.0411398
0002c0 cf 5a 17 3c ed bd c1 3c 0d 1b 0a c0 3b 58 89 3d
       0.009237959 0.023650134 -2.157901 0.06706282
0002d0 cc 52 7f 3d 92 8f b6 bd d1 d5 b9 bd 8d df ea 3e
       0.06233482 -0.089141026 -0.09073985 0.4587368
0002e0 3b 4a 59 40 3c 9e ae 3c bc 0e bf 3d 7a 8e 23 bf
       3.3951557 0.021315686 0.09328982 -0.63889277
0002f0 ae 07 42 bf 77 c2 0e be 75 a6 23 be 84 3a 0e 3e
       -0.7579297 -0.1394137 -0.15981467 0.1388951
000300 48 76 ad bf 25 6d 78 c0 39 7a 78 3d 74 48 50 3e
       -1.3551722 -3.8816617 0.060663436 0.20340139
000310 61 ec 6f c0 e2 17 21 3f de f0 4c bb 5d e7 66 c0
       -3.7488024 0.6292707 -0.0031271498 -3.6078713
000320 3f 7a 03 3d 5e 7c 14 c0 26 98 42 bf b5 94 80 3c
       0.032099005 -2.3200908 -0.7601341 0.015695909
000330 91 e1 b5 bd 27 58 87 bf 01 71 af 3e 59 11 83 3e
       -0.08880914 -1.0573777 0.34265903 0.25599173
000340 bb 63 83 40 be f5 19 bd 2e 2c 11 40 ae e9 81 c0
       4.105924 -0.037587874 2.2683215 -4.0597754
000350 a8 9f 69 3d 53 ba 81 3b 5b e8 28 40 02 bb b0 bf
       0.057037026 0.003958979 2.6391819 -1.380707
000360 07 fc 00 3e 5e 25 d7 3f 71 21 d7 3d 43 ac 68 c0
       0.12596141 1.6808279 0.10504425 -3.635514
000370 c9 06 98 bf 20 e8 28 3e df 4c 5a be 14 61 2b c0
       -1.1877071 0.16494799 -0.21318386 -2.6778002
000380 8b e6 05 c0 1b 64 34 bd 8f ff 48 be 29 d4 88 bc
       -2.0921962 -0.04404078 -0.19628738 -0.016702728
000390 a6 eb 88 c0 1e c5 2f bf 07 d2 90 bd cc fa e5 3d
       -4.2787657 -0.6866015 -0.070713095 0.11229476
0003a0 97 3b 2f c0 5a 69 11 40 aa df 46 3d 8b ab ca bd
       -2.738012 2.2720551 0.048553146 -0.098960005
0003b0 61 4f 73 bd 3f b0 47 be 88 69 33 c0 f9 2f 66 3d
       -0.059401873 -0.19500826 -2.803316 0.056198094
0003c0 e1 cd 37 3c 9b 51 12 bf 4c 93 99 be 0b 6c f3 3d
       0.011218519 -0.5715577 -0.2999519 0.11885842
0003d0 38 67 b4 3d 43 c1 28 be 9a b6 99 be 06 2a f8 3c
       0.0880875 -0.16479973 -0.30022126 0.030293476
0003e0 fd ef 65 3e 3e ed 9e bc dd 8e 01 c0 ed 89 4b be
       0.2245483 -0.019400235 -2.0243447 -0.19876833
0003f0 66 57 82 bb 7f 1a a4 3e e1 ea 93 3b 52 9c 9d be
       -0.003977704 0.32051465 0.0045140837 -0.30783325

tab_net.initial_splitter.shared.shared_layers.1.weight f4 [128, 64]
000000 55 3d bd bf dd 7c a4 be 06 e4 ba be 2f 72 af 40
       -1.4784342 -0.32126513 -0.36502093 5.4826884
000010 3a ff 1c c0 85 a1 64 be 1c 35 ef bf 3b ff 4c 3f
       -2.4530778 -0.2232724 -1.8688083 0.8007695
000020 08 6a ab 40 7f 0f 19 be 75 bd ba 3f 50 86 fc 3e
       5.3566933 -0.14947318 1.4589068 0.49321222
000030 46 f8 11 40 d2 ab 47 bf d5 a6 aa 3e ae 60 19 40
       2.2807784 -0.7799655 0.33330408 2.3965259
000040 9a 39 ae 3d 10 47 e6 bf c3 04 88 c0 77 91 59 40
       0.085070804 -1.7990437 -4.2505813 3.3995035
000050 bc a9 67 40 23 33 ed bf 31 5c fa be c7 b8 18 c0
       3.6197348 -1.8531231 -0.4889846 -2.386278
000060 ff 58 92 c0 74 13 11 c0 c5 8c 14 bf 94 19 d6 bf
       -4.573364 -2.2668123 -0.580273 -1.6726556
000070 8c 29 ba 3f 20 2f 5c 3f b5 82 07 40 08 07 d2 bb
       1.4543929 0.8600941 2.1173527 -0.0064095296
000080 fe ec 5d c0 ea 29 06 c0 39 07 28 c0 66 c3 63 40
       -3.4675899 -2.0963082 -2.6254408 3.5588012
000090 98 b3 96 40 ac 18 80 40 8b db 2e be eb 56 0c c0
       4.709423 4.0030117 -0.17075936 -2.192805
0000a0 18 c4 ba bf 02 6f eb 3e 23 7d a4 c0 bf 49 ec 3f
       -1.4591093 0.4598313 -5.1402755 1.8460006
0000b0 23 df 01 c0 f3 c0 1e bf 3f ed 2a bf dd d2 bf bf
       -2.0292442 -0.6201317 -0.6676826 -1.4986225
0000c0 92 ec 88 3f c3 77 dd bf 92 72 b3 bf 02 62 e1 3c
       1.0697196 -1.7302173 -1.4019339 0.027512554
0000d0 3c 3a 89 3f 5f 74 f2 3f 36 76 10 c0 9b ed a6 40
       1.0720897 1.8941764 -2.257215 5.2165046
0000e0 0e df f3 3f ba 9a 1b 40 83 ea 86 3f 1b 72 0b c0
       1.9052446 2.4313188 1.0540317 -2.1788394
0000f0 39 83 40 3f 84 e9 91 40 be 62 1c 40 7f 36 90 bf
       0.7520023 4.5597553 2.4435267 -1.1266631
000100 5f 9f df bf b9 7e 0b c0 1f 96 9b 3d e9 36 5e 3d
       -1.7470511 -2.1796095 0.07596993 0.054251585
000110 e1 42 07 40 44 40 89 bf 92 7c 74 bf c5 78 87 3e
       2.113457 -1.0722737 -0.9550258 0.26459327
000120 50 0c 1a 40 15 83 cd bf 2d b5 7d bf 00 81 3d bc
       2.4070015 -1.6055628 -0.9910458 -0.0115664005
000130 a6 b0 09 40 4a b6 c8 3e 58 2f c5 bf 8b 0b a2 40
       2.1514068 0.39201576 -1.5405073 5.063909
000140 44 62 6d c0 ec be bd bf 34 12 44 c0 f7 ff b4 3f
       -3.7091227 -1.482389 -3.063611 1.4140614
000150 0d f5 4e 40 0c 9b 4b c0 6e 38 49 3f 0c 27 42 bf
       3.2337067 -3.1813383 0.7860173 -0.7584083
000160 ec 01 08 c0 6e f3 70 c0 d5 b0 6b c0 52 d2 62 bf
       -2.1251173 -3.7648578 -3.682668 -0.88602173
000170 ce 3f fe bf 36 48 94 be fa 2b be 3f 34 69 d6 bd
       -1.9863222 -0.28961343 1.485717 -0.10469285
000180 79 20 61 c0 23 bd 70 bf 87 87 33 40 a4 51 36 be
       -3.517607 -0.940386 2.805147 -0.17804581
000190 9a 28 4f bf 98 63 15 bf dd 0b aa 3f 33 f5 a7 3f
       -0.8092133 -0.58355093 1.328487 1.3121704
0001a0 2c 28 2c 40 0a e4 cb 3e 11 f9 8e bf 00 ff 85 40
       2.689952 0.39822417 -1.1169759 4.187378
0001b0 2a a7 c0 3f a6 f4 a7 bf f5 a7 a4 be 35 b4 0d 40
       1.5051014 -1.3121536 -0.3215939 2.214124
0001c0 00 04 8f 40 e5 56 c1 3e 0e 65 17 40 68 e6 ac 3f
       4.4692383 0.37761608 2.365543 1.3507814
0001d0 72 7f 05 40 e9 66 91 3f 98 bc 8f c0 4e 18 cb 3f
       2.0859036 1.1359531 -4.4917717 1.5866792
0001e0 b3 a0 b5 3f 77 64 a4 bf dc 17 81 bf 7b 42 70 40
       1.4189667 -1.284316 -1.0085406 3.7540576
0001f0 3e 87 65 bd b3 69 f5 3f b4 f0 a0 bf 5d ae 92 be
       -0.05603718 1.9172882 -1.2573457 -0.28648654
000200 22 1e b7 bf f3 45 1c 40 ab ba b7 3f 13 ef 1e c0
       -1.4306071 2.4417694 1.4353842 -2.483342
000210 cb 40 90 c0 46 9b 6a 3f 3f 0f 25 bf eb 05 a4 bf
       -4.5079093 0.9164318 -0.6447639 -1.2814306
000220 e9 36 7e c0 05 7d 2e c0 2d ed d7 3e 47 1b 72 c0
       -3.9721014 -2.7263806 0.42173138 -3.7829149
000230 be 7c 33 40 38 04 10 c0 f0 0d 42 c0 5d f2 29 c0
       2.8044887 -2.2502575 -3.0321007 -2.6554177
000240 6f 7c 95 bf 2f 34 ea c0 36 3f 16 40 68 7d 8c bf
       -1.1678599 -7.31887 2.347608 -1.0975771
000250 4a 0d 40 bf f5 f0 ad 3f cb b2 14 c0 62 3f 01 bf
       -0.7502028 1.3589159 -2.3234127 -0.5048734
000260 58 06 49 40 b6 01 26 c0 de 9d c4 3f 05 7b 94 3f
       3.1410122 -2.5938544 1.5360677 1.1600043
000270 84 f1 79 40 29 80 7e bd 38 d6 cb 3f 7b ed a6 3d
       3.905366 -0.06213394 1.5924749 0.081507646
000280 65 67 17 40 eb 37 4b be e3 33 af 3f 6d 40 92 bf
       2.3656857 -0.1984555 1.368771 -1.1425911
000290 79 f3 66 c0 72 1b 05 40 9e 1f 0d c0 f3 5a da bf
       -3.6086104 2.0798001 -2.2050548 -1.7059005
0002a0 ee 87 60 c0 6c 51 95 40 c0 1d 0b 3f f0 bd 6e c0
       -3.5082965 4.666189 0.5434227 -3.7303429
0002b0 1d 9a 29 c0 3f 6c 38 3f a4 aa ef bf 2c f1 0d c0
       -2.6500313 0.7204017 -1.872395 -2.217845
0002c0 8b d5 c5 40 20 f1 8a 40 ca 68 95 bf a5 04 dd bf
       6.1823173 4.341934 -1.1672604 -1.7267042
0002d0 a3 4c a3 c0 02 66 51 c0 77 ae 68 40 74 55 88 c0
       -5.103105 -3.271851 3.6356485 -4.2604313
0002e0 03 03 2f 40 8b 06 b0 3f 76 fc 60 c0 e2 22 3f 40
       2.7345588 1.3751997 -3.515409 2.986504
0002f0 95 d3 9c 40 da bd 0d c0 2e ca 93 3f 9c 99 15 3f
       4.900828 -2.2147126 1.1546075 0.58437514
000300 f7 51 2d bf db ba 8b c0 60 5f 13 40 a6 b7 6c 40
       -0.67703193 -4.3665595 2.3026962 3.698709
000310 77 7e 9f bf 4f c6 43 c0 5e b2 e4 3d d8 4b 96 3f
       -1.2460469 -3.0589788 0.11166833 1.1741896
000320 98 8c 2b 40 cf 7c 44 bf 1f 6e 80 3f 35 5b 06 40
       2.6804562 -0.7675294 1.0033606 2.0993168
000330 d8 8d 2e 40 ef 1b 61 bf d2 b0 4e c0 67 36 fc 3f
       2.7274075 -0.8793325 -3.2295423 1.9704102
000340 7d d6 2d 40 a0 d5 1d 40 79 7d 3e c0 1e c0 99 3f
       2.7162163 2.4661636 -2.9764082 1.2011755
000350 72 80 05 40 47 22 a3 bf 9a c1 25 40 3a 00 90 c0
       2.0859647 -1.2744836 2.5899415 -4.5000277
000360 40 d1 fa bf a8 cd 6d 3e 08 1d 15 c0 d1 67 f7 be
       -1.9595108 0.23222983 -2.329897 -0.48321393
000370 24 79 3b 3f d9 53 87 bf aa 47 e5 bd 6a 9b c6 3c
       0.7323172 -1.0572463 -0.111953095 0.02424403
000380 96 1b 61 3e d5 19 ea 3e 6c e2 16 c0 5e 15 f6 3f
       0.2198318 0.45722833 -2.3575697 1.9225271
000390 c7 e9 a6 40 0a 4d cb bf 6d d2 98 be 07 86 3c 3f
       5.2160373 -1.5882885 -0.29848042 0.7364201
0003a0 ea 0a 61 3f 09 47 14 c0 b0 a9 7c c0 98 06 46 bf
       0.8790728 -2.3168356 -3.947857 -0.7735381
0003b0 a6 e4 b0 bf 16 23 22 c0 3b 55 c8 bf 8d 54 eb be
       -1.3819778 -2.5333915 -1.565101 -0.45962945
0003c0 b4 86 d8 3f cf 87 8d be 7d 63 e4 be 9b 67 19 3f
       1.6916108 -0.27642676 -0.44607154 0.59923714
0003d0 b2 b9 8d 3e 03 6a e0 3f e1 b1 f8 bf a8 df d1 3f
       0.27680737 1.7532352 -1.9429284 1.639638
0003e0 36 6d 83 40 7f dc d5 3f b0 ed 1d 40 97 b7 14 bf
       4.1070814 1.6707915 2.4676323 -0.58092636
0003f0 bd e0 fc 3f 83 71 6b 3f 2d 18 91 3f 93 d8 ee bf
       1.9756085 0.9197008 1.1335503 -1.8659843

tab_net.initial_splitter.shared.glu_layers.0.fc.weight f4 [128, 9]
000000 45 62 b5 3d ed 77 0b 40 b6 88 82 3d ed da a5 3f
       0.08856634 2.1791947 0.06373732 1.2957436
000010 8e df 5c 40 df 46 bb bd 66 56 1c 3e b0 10 45 40
       3.4511447 -0.09144377 0.15267333 3.0791435
000020 8d ac 50 3f 35 a0 98 bc ca c2 07 40 ce 9b f6 bc
       0.8151329 -0.01863108 2.121264 -0.03010359
000030 1b 7d 09 be 5c 00 5a 3e 6d 54 8b 3d 8e 2a ec bd
       -0.1342663 0.212892 0.06803212 -0.11531554
000040 2b 5d 60 c0 46 d5 49 be 3f d3 35 bd 6d f9 8e 3f
       -3.5056865 -0.19710264 -0.044390913 1.1169869
000050 d2 32 40 3d 5a 87 1e c0 fc 82 cb bf 3e 5c 4f be
       0.046923466 -2.4770112 -1.5899348 -0.20250031
000060 09 12 46 be 61 9f 85 3f bd 31 89 bf 07 bf 83 bc
       -0.19342817 1.0439264 -1.0718304 -0.0160823
000070 ec 42 36 40 f9 e1 39 3d 15 72 97 3f 52 80 55 40
       2.8478346 0.04538152 1.183169 3.335957
000080 ca 01 2f bd 4f 98 f1 39 89 b6 88 c0 1d 4d 12 40
       -0.042726316 0.0004608058 -4.272282 2.2859566
000090 7d 20 ab ba a1 be c5 be 1d 67 0a bc b3 8a 06 c0
       -0.0013055947 -0.38622 -0.008447436 -2.1022155
0000a0 63 c8 e1 bf aa 58 1e 3c 4b 1e 5f bc ac d6 89 c0
       -1.7639278 0.009664694 -0.013618062 -4.307455
0000b0 e2 65 fb bf 30 8a dd 3c 4b 18 91 be ed 64 13 be
       -1.9640467 0.027043432 -0.28338847 -0.14393969
0000c0 da 9a f2 bf b7 8d 22 c0 0e e0 28 be ba 67 68 3e
       -1.8953507 -2.5398996 -0.1649172 0.22695819
0000d0 f8 ae 14 c0 70 6f ec 3f 40 ce 9b 3b 79 3a f3 bc
       -2.3231792 1.8471508 0.0047548115 -0.029690968
0000e0 a4 47 b2 3a 4f 39 a6 3f 6b 23 94 c0 4f 30 f5 38
       0.0013601673 1.2986239 -4.6293235 0.000116915086
0000f0 b1 63 ce ba 8b 5c 63 3c 88 9b ec bf 54 19 cb bd
       -0.0015746263 0.013877044 -1.8484964 -0.0991694
000100 74 82 9e 40 a7 2f b7 bd e6 9f 25 bf 5a d5 ae 3f
       4.9534245 -0.08944636 -0.6469711 1.365886
000110 72 b3 6d be 22 85 99 be fe 5b b9 3f 6b 41 34 bd
       -0.23212984 -0.29984385 1.4481199 -0.0440077
000120 15 a0 49 3e bc 23 1d 3e c6 20 16 be 6e b2 ba 3d
       0.19689973 0.15345663 -0.1466094 0.09116064
000130 5a 15 3e c0 90 6a 0b 3e 55 94 8d bd 60 44 1a bf
       -2.9700532 0.13614869 -0.06913058 -0.6026058
000140 2c fc 5c bf 86 3c ad 3d ac e1 86 be 95 67 7b 3c
       -0.86322284 0.084588096 -0.2634405 0.01534452
000150 7b e5 e8 c0 39 2f 57 bf b3 eb 0a be cd 0f 0f be
       -7.2780128 -0.8405643 -0.13566475 -0.13970871
000160 91 ac 3b 40 0d fb 0d c0 2d db 84 3d 53 3b 9d c0
       2.9324076 -2.218448 0.06487117 -4.9134917
000170 d9 c6 50 3e 06 2c dc bf 66 cb 1d c0 8f b9 38 3d
       0.20388354 -1.7200935 -2.4655395 0.045098837
000180 9c 09 3f 3e c2 3f 11 3f f2 65 7f be 9e 0c cd 3c
       0.1865601 0.5673791 -0.24941233 0.02503043
000190 31 09 43 40 96 b0 9b 3d a8 80 11 3e c0 13 b0 3d
       3.047436 0.076020405 0.14209235 0.08597517
0001a0 2e 88 1b be 88 f1 f2 3d 75 ef f9 be c1 77 fc 3f
       -0.15188667 0.11862475 -0.48815504 1.9724046
0001b0 d0 35 ae bc b2 e6 43 bf 3c f4 8c bc 0d 57 ac bf
       -0.021265894 -0.7652389 -0.017206304 -1.3464066
0001c0 ab 40 65 c0 68 d2 c8 3c 42 e9 a4 bc ab d1 5c c0
       -3.582072 0.024514392 -0.020130757 -3.450297
0001d0 d1 e6 49 bf ec 0e a2 bc bb 3e 46 3f 6c ed 85 bd
       -0.7886782 -0.019782506 0.7743947 -0.06539425
0001e0 d9 f5 b0 3f 0d aa 1b 40 bd 9a 97 ba 11 7a 51 bd
       1.3825027 2.432254 -0.0011566501 -0.051141802
0001f0 25 98 2c c0 b0 10 df bf 09 2f 3e 3d eb 8b 7c be
       -2.6967862 -1.7426968 0.046431575 -0.2466275
000200 11 0f e5 ba a2 bc 9d 40 66 68 a2 3f 43 49 b3 bd
       -0.0017475804 4.9292765 1.268811 -0.08754208
000210 35 d8 78 bd 8c 77 c7 c0 2f f4 28 c0 ea 6e 69 bd
       -0.060753066 -6.233343 -2.6399038 -0.05699054
000220 1d 72 cc bd a4 b8 18 bc e0 c1 74 40 c1 86 18 40
       -0.09982703 -0.0093213655 3.8243332 2.3832247
000230 4c 01 b0 3d 8b 95 8f 3e 95 f7 61 c0 39 2c 2c 3e
       0.08593997 0.2804378 -3.5307362 0.16813745
000240 11 da a5 bd de ec bb bd 3b 54 f9 bd 5a 92 00 3e
       -0.080982335 -0.09176038 -0.12174269 0.12555829
000250 6d 17 e9 3f 85 8e a4 bd 56 44 41 be 96 a4 8c c0
       1.8210274 -0.08034996 -0.18873724 -4.395091
000260 1f b6 fd bd 0f 1f 9b bd d2 90 06 40 0c fd d4 3d
       -0.123882525 -0.07574283 2.1025891 0.10399827
000270 1c 3b 33 bf e4 e4 d4 c0 62 b7 c5 bd d1 17 83 3d
       -0.7001207 -6.6529408 -0.09654118 0.06401027
000280 f4 89 a3 40 49 88 9f 3f c5 83 c5 bc 70 cc 10 40
       5.11059 1.2463466 -0.024110684 2.2624779
000290 e6 33 45 bb da 79 30 40 93 fb fa 3f b6 be 90 3c
       -0.0030090748 2.7574372 1.9608024 0.017669063
0002a0 7b d4 8e 3b ce 2d 4b 40 ab fd 9d 3e 18 30 6b bd
       0.0043588257 3.1746707 0.30857596 -0.057418913
0002b0 eb c8 0a bf b4 13 98 3b a3 45 1e c0 09 a2 42 40
       -0.54212826 0.0046410207 -2.4730003 3.0411398
0002c0 cf 5a 17 3c ed bd c1 3c 0d 1b 0a c0 3b 58 89 3d
       0.009237959 0.023650134 -2.157901 0.06706282
0002d0 cc 52 7f 3d 92 8f b6 bd d1 d5 b9 bd 8d df ea 3e
       0.06233482 -0.089141026 -0.09073985 0.4587368
0002e0 3b 4a 59 40 3c 9e ae 3c bc 0e bf 3d 7a 8e 23 bf
       3.3951557 0.021315686 0.09328982 -0.63889277
0002f0 ae 07 42 bf 77 c2 0e be 75 a6 23 be 84 3a 0e 3e
       -0.7579297 -0.1394137 -0.15981467 0.1388951
000300 48 76 ad bf 25 6d 78 c0 39 7a 78 3d 74 48 50 3e
       -1.3551722 -3.8816617 0.060663436 0.20340139
000310 61 ec 6f c0 e2 17 21 3f de f0 4c bb 5d e7 66 c0
       -3.7488024 0.6292707 -0.0031271498 -3.6078713
000320 3f 7a 03 3d 5e 7c 14 c0 26 98 42 bf b5 94 80 3c
       0.032099005 -2.3200908 -0.7601341 0.015695909
000330 91 e1 b5 bd 27 58 87 bf 01 71 af 3e 59 11 83 3e
       -0.08880914 -1.0573777 0.34265903 0.25599173
000340 bb 63 83 40 be f5 19 bd 2e 2c 11 40 ae e9 81 c0
       4.105924 -0.037587874 2.2683215 -4.0597754
000350 a8 9f 69 3d 53 ba 81 3b 5b e8 28 40 02 bb b0 bf
       0.057037026 0.003958979 2.6391819 -1.380707
000360 07 fc 00 3e 5e 25 d7 3f 71 21 d7 3d 43 ac 68 c0
       0.12596141 1.6808279 0.10504425 -3.635514
000370 c9 06 98 bf 20 e8 28 3e df 4c 5a be 14 61 2b c0
       -1.1877071 0.16494799 -0.21318386 -2.6778002
000380 8b e6 05 c0 1b 64 34 bd 8f ff 48 be 29 d4 88 bc
       -2.0921962 -0.04404078 -0.19628738 -0.016702728
000390 a6 eb 88 c0 1e c5 2f bf 07 d2 90 bd cc fa e5 3d
       -4.2787657 -0.6866015 -0.070713095 0.11229476
0003a0 97 3b 2f c0 5a 69 11 40 aa df 46 3d 8b ab ca bd
       -2.738012 2.2720551 0.048553146 -0.098960005
0003b0 61 4f 73 bd 3f b0 47 be 88 69 33 c0 f9 2f 66 3d
       -0.059401873 -0.19500826 -2.803316 0.056198094
0003c0 e1 cd 37 3c 9b 51 12 bf 4c 93 99 be 0b 6c f3 3d
       0.011218519 -0.5715577 -0.2999519 0.11885842
0003d0 38 67 b4 3d 43 c1 28 be 9a b6 99 be 06 2a f8 3c
       0.0880875 -0.16479973 -0.30022126 0.030293476
0003e0 fd ef 65 3e 3e ed 9e bc dd 8e 01 c0 ed 89 4b be
       0.2245483 -0.019400235 -2.0243447 -0.19876833
0003f0 66 57 82 bb 7f 1a a4 3e e1 ea 93 3b 52 9c 9d be
       -0.003977704 0.32051465 0.0045140837 -0.30783325

tab_net.initial_splitter.shared.glu_layers.0.bn.bn.weight f4 [128]
000000 c7 13 45 c0 c6 95 d8 c0 50 d6 19 40 e6 82 73 40
       -3.079332 -6.768283 2.4037056 3.8048644
000010 26 02 8d 3f f8 9d 0d c0 75 e9 66 3f 04 70 42 41
       1.1016281 -2.2127666 0.9019998 12.152348
000020 ed 66 d5 c0 1a 37 7c c0 b6 8e e0 40 b5 26 39 c0
       -6.668814 -3.9408631 7.017421 -2.8929875
000030 1e ad dc bf 61 5b 41 c0 cc 19 06 40 46 3d f9 c0
       -1.7240331 -3.0212023 2.0953245 -7.7887297
000040 c7 13 c8 3f 11 15 76 40 98 c6 21 c0 97 37 6b c0
       1.5631036 3.8450358 -2.5277462 -3.675268
000050 eb a3 67 c0 e1 a1 6e bf 87 51 a0 bf e0 1a 4c c1
       -3.6193798 -0.9321576 -1.252488 -12.756561
000060 a7 59 0b 41 00 bc 74 c0 4c 48 d2 3f 95 2b 09 41
       8.709388 -3.8239746 1.6428313 8.57314
000070 13 86 a2 3f e9 7a 33 c1 10 32 95 40 d3 a0 3d c0
       1.2697166 -11.217507 4.662361 -2.962941
000080 a9 e3 40 40 0f 38 e4 40 50 51 43 40 5b 17 09 41
       3.0138953 7.131843 3.051838 8.568202
000090 a5 15 0a bf 36 9e 6a 40 a3 d9 c9 40 db 49 32 c1
       -0.53939277 3.6659064 6.307817 -11.143031
0000a0 bf f0 3f 40 8d 6a e6 3d d2 b2 0e 40 65 ce 0c c0
       2.999069 0.11250792 2.2296643 -2.2000973
0000b0 57 3c 03 be ff 20 b2 c1 52 92 3f 40 89 4b 1a c0
       -0.12815987 -22.266111 2.9933057 -2.4108603
0000c0 d5 be 0e 40 5e a2 42 c1 43 4c 97 c0 b9 6b 46 40
       2.2303975 -12.16464 -4.7280593 3.1003249
0000d0 95 6c 4a bf d9 ee 30 40 85 78 57 c0 63 b3 b5 40
       -0.79071933 2.764578 -3.366731 5.678148
0000e0 30 42 ca 3f 06 35 72 c0 d5 05 8c bf fe 9a fe 40
       1.5801449 -3.7844863 -1.093928 7.95642
0000f0 bf eb 92 bf b1 4d 4a 41 74 46 86 41 9f 74 af c0
       -1.1478194 12.643968 16.7844 -5.482986
000100 bf 70 fa 40 ef 4a f3 be 31 c4 7f c0 2c ca dd 3e
       7.826263 -0.47518107 -3.9963496 0.43318307
000110 f9 6f 26 40 57 5d b6 c0 4c 34 5b bf 0b d8 b2 40
       2.6005843 -5.698894 -0.85626674 5.5888724
000120 6b a6 ba 40 ba 26 ba 40 34 a3 30 41 94 72 c3 c0
       5.8328147 5.8172274 11.0398445 -6.1077366
000130 44 09 f9 3f f7 52 eb 3f b1 f8 0d 3f d1 17 20 41
       1.9455953 1.8384694 0.554576 10.005815
000140 2c 83 03 41 60 dd 4d 41 a2 9e 93 c0 d9 3d 8b 40
       8.219524 12.866547 -4.6131144 4.3513
000150 99 5e 9d c0 ec c3 09 41 8d 20 cb c0 e2 1c 58 c1
       -4.9177976 8.6103325 -6.3477235 -13.507051
000160 df dc 20 40 fe d8 86 c0 fa 1e 5c be 32 e0 39 41
       2.513481 -4.2139883 -0.21496192 11.617235
000170 a9 2d 44 3f c2 c0 8b 3f 60 4c 24 41 40 72 5a 3f
       0.7663217 1.09182 10.268646 0.8533058
000180 c7 0e f1 bf 5a c3 0d 41 cf 0a 25 c1 13 22 ec 40
       -1.8832635 8.860193 -10.315139 7.3791595
000190 0c a3 89 bf cf ed 2b 40 58 64 95 c0 b5 f3 a4 3f
       -1.0752883 2.6863897 -4.668499 1.2886873
0001a0 82 77 5e c1 d9 2c ad c0 ea 65 9a 40 ec be ca bf
       -13.904177 -5.4117246 4.8249407 -1.5839515
0001b0 e6 83 59 40 ff 6f c3 bd be 61 1b bf 87 72 d1 3f
       3.3986754 -0.09542846 -0.6069602 1.6363076
0001c0 d2 ab 42 40 48 14 2b 40 b2 f1 bd 40 ca f6 26 c0
       3.041737 2.6731129 5.935754 -2.6088128
0001d0 5f c7 1a 40 83 ce f8 c0 df 1c 3e 3f 69 a9 7e 3f
       2.4184186 -7.775209 0.74262804 0.9947725
0001e0 03 dd 02 be d3 e5 1a bf 64 6c 03 41 21 58 c7 40
       -0.12779622 -0.60506934 8.213963 6.229508
0001f0 23 1a d5 3d b6 44 77 40 0e 04 50 41 26 b5 43 41
       0.10405376 3.8635688 13.00099 12.231726

tab_net.initial_splitter.shared.glu_layers.0.bn.bn.bias f4 [128]
000000 70 13 bb 40 16 ac c8 40 3c 0b c7 bf 14 39 35 40
       5.8461227 6.2710066 -1.5550303 2.8316088
000010 b2 bc b8 3f d5 d4 f6 c0 3d 51 1c c0 ec be 6e c0
       1.4432585 -7.7134805 -2.4424584 -3.730403
000020 cc c8 be 3f a7 35 b0 40 6a b3 8f c0 fe 73 99 3d
       1.4905028 5.5065494 -4.490651 0.07492827
000030 b2 62 88 3f 28 36 0e c0 7e 07 e9 3f c3 69 9a 40
       1.065512 -2.2220554 1.8205411 4.8254104
000040 42 51 ce c0 c5 19 1d 41 eb 24 87 c0 1f 6c 1f c0
       -6.447419 9.818791 -4.2232566 -2.4909742
000050 53 88 90 c0 0e 76 95 c0 38 ab 08 c1 44 0a 1f 41
       -4.516641 -4.670661 -8.541801 9.940006
000060 7d db bf 3e 98 b5 ba c0 82 86 9c c0 84 84 26 41
       0.37472144 -5.834667 -4.8914194 10.407352
000070 f0 f6 15 40 ed 85 a2 40 40 71 a1 41 81 c2 7e 40
       2.3431969 5.0788484 20.180298 3.9806216
000080 7e 07 40 c1 56 f0 27 41 65 ab d3 bf 81 13 3c 41
       -12.001829 10.496176 -1.653668 11.754762
000090 46 4d 51 3f 72 82 fb 3f aa f2 57 c0 66 71 fa 3f
       0.81758535 1.9649184 -3.374186 1.9565856
0000a0 67 bc 11 41 e3 42 0c c1 74 6b 32 3f 8f 7e e7 bf
       9.108497 -8.76633 0.6969521 -1.8085498
0000b0 89 48 7a 40 b5 65 ac 40 81 03 2e bf 54 82 bd bf
       3.9106772 5.3874154 -0.67974097 -1.4805398
0000c0 41 18 5f c0 71 7e dc 3f 9a 7b 73 3f 6c 21 ac c0
       -3.4858553 1.7226087 0.95110476 -5.37908
0000d0 63 d1 a8 c0 e0 b6 e7 c0 47 18 73 c0 c8 f6 08 c0
       -5.27556 -7.2410736 -3.7983568 -2.1400623
0000e0 9f 05 8a c0 13 54 6c bd df 08 1e c1 4f d0 e0 40
       -4.313186 -0.057697367 -9.877166 7.0254283
0000f0 8e 9e 91 40 ea f2 32 bf a8 54 6b c0 5d a4 6d c1
       4.550605 -0.6990191 -3.677042 -14.852628
000100 53 92 81 40 20 4e 04 41 9c c3 7b 40 77 f7 f0 c0
       4.049112 8.2690735 3.933814 -7.530208
000110 35 84 f2 c0 d1 7d 02 bf 7f e5 c8 c0 9d 5c 1b 41
       -7.5786386 -0.5097323 -6.2780147 9.710111
000120 ba 94 54 40 37 29 d5 40 b2 dc 34 bf 2a b5 f7 bf
       3.3215775 6.661281 -0.70649254 -1.9352162
000130 1b 39 1a c1 74 67 03 c1 7a 4a 73 c0 12 47 2f c0
       -9.638942 -8.212757 -3.8014207 -2.7387128
000140 e0 3c 7d 40 da 89 80 bf 9b 49 5f c0 17 64 85 c0
       3.9568405 -1.0042069 -3.4888675 -4.168468
000150 ea 9f 2d be 2f e9 0c 40 73 12 27 c0 62 e8 5a c0
       -0.16955534 2.2017324 -2.610501 -3.4204335
000160 aa 65 75 40 0e 92 37 bf 2b 51 b4 c0 48 f6 6f 3c
       3.83433 -0.71707237 -5.634908 0.01464612
000170 ac 93 d0 c0 b9 ea 0b c1 1c c7 f6 c0 b0 b1 cc c0
       -6.5180264 -8.744805 -7.7118053 -6.3966904
000180 b8 f7 42 c1 ed 2a 05 40 96 f6 0e 40 f5 a8 09 3f
       -12.185478 2.080745 2.2338004 0.5377343
000190 28 5d 2a c1 20 9c 52 c0 1f 66 a2 40 0a 9f 10 41
       -10.647743 -3.290779 5.074966 9.038828
0001a0 53 7c aa bf e0 d6 90 40 36 ca 7e 40 1e b5 02 c1
       -1.3319191 4.52623 3.981092 -8.169218
0001b0 aa dc 92 3e 70 98 28 41 48 44 db c0 05 60 ca c0
       0.28683978 10.537216 -6.852085 -6.324221
0001c0 b5 d0 ba c0 d6 25 0e 41 76 0f c0 bf 90 1d 36 bf
       -5.837977 8.884237 -1.5004718 -0.7113886
0001d0 de 94 22 c1 67 75 be c0 57 8b 0a c1 3b d5 59 40
       -10.161345 -5.9518313 -8.6590185 3.4036396
0001e0 ee 9b f2 40 a6 9d e4 c0 f3 ed a1 3f dd e1 ee c0
       7.5815344 -7.144244 1.2650741 -7.465071
0001f0 d2 76 00 41 bd b1 c9 40 dd 18 a9 bd db af 7b 40
       8.029009 6.3029466 -0.082566954 3.9326084

tab_net.initial_splitter.shared.glu_layers.0.bn.bn.running_mean f4 [128]
000000 68 d4 90 c1 b7 a5 f5 42 9d 05 a2 3f 0d 1b fa 42
       -18.103714 122.82366 1.2657963 125.05283
000010 fe 93 00 43 d4 83 77 c1 94 b4 56 c2 34 c2 ad 41
       128.5781 -15.469685 -53.676346 21.719826
000020 53 b5 bc c1 6b 22 fa 41 18 68 a4 c2 04 61 80 c1
       -23.588537 31.266806 -82.20331 -16.04737
000030 70 51 68 42 9d 8f 0f 43 db fe 47 43 ec 92 92 42
       58.07953 143.56099 199.99553 73.28696
000040 e9 80 08 43 b9 a7 6e c3 b3 df 78 c2 97 21 f7 42
       136.50356 -238.65517 -62.218456 123.565605
000050 6c 4a 9e 42 e3 bd 25 42 fb cd 68 41 e4 c2 c2 c2
       79.145355 41.435436 14.550288 -97.380646
000060 ea 51 05 43 da 5b 11 42 37 54 ae c1 13 64 52 42
       133.31998 36.3397 -21.79112 52.59773
000070 25 55 07 c1 dd 7a 92 42 96 c0 00 c2 d9 4e 24 c2
       -8.458287 73.23997 -32.188072 -41.077
000080 29 b8 c7 42 fb b7 1d c3 ae 58 5b 41 40 05 2e 41
       99.85969 -157.71867 13.70915 10.876282
000090 65 ca db 42 38 e4 55 c2 44 ad 5a c2 f2 8a e0 42
       109.8953 -53.47287 -54.669205 112.27138
0000a0 99 a1 d0 c2 3b 1c a6 c2 a9 f5 75 c2 94 bf 80 42
       -104.31562 -83.05514 -61.489902 64.374176
0000b0 6d b6 4d 42 26 98 42 42 7d 74 8b c2 54 1b 5c 41
       51.42815 48.648582 -69.727516 13.756672
0000c0 ec 85 4e c2 b7 8d 88 c2 56 d0 4f 42 22 88 ed c2
       -51.630783 -68.27679 51.953453 -118.765884
0000d0 f6 88 19 c3 43 43 77 42 6c d9 38 c2 10 27 ab 42
       -153.535 61.815685 -46.212326 85.576294
0000e0 62 51 83 c3 aa 5b 51 42 bd 71 15 43 c4 04 37 c2
       -262.6358 52.339516 149.44429 -45.754654
0000f0 ca 4e 1e 43 4d d7 41 42 57 ee 3b 43 3f 51 cc 42
       158.30777 48.460255 187.93102 102.15868
000100 f3 53 82 c2 93 d8 ec 40 8c 35 91 c2 46 70 ef c1
       -65.16396 7.4014373 -72.60458 -29.929821
000110 66 56 bb c2 91 17 bb 41 95 00 92 42 6e b3 56 42
       -93.66875 23.386507 73.00114 53.675224
000120 46 24 9e c1 86 12 44 c2 34 a5 34 41 01 c3 61 c2
       -19.767712 -49.01809 11.290333 -56.440434
000130 df 2c f9 bf 7b 8d 68 42 0a a4 02 3f 45 57 ee 42
       -1.9466819 58.138165 0.51031554 119.17045
000140 d6 f5 47 42 63 cb 08 43 97 e5 ae 41 2b 86 9b c1
       49.990074 136.79448 21.862104 -19.440512
000150 17 5c b5 c1 62 e9 63 c1 e4 d7 fb c2 6e 85 1e c2
       -22.669966 -14.244478 -125.92166 -39.630302
000160 a7 e2 9f c1 85 0c 86 c2 68 e1 16 c1 f1 41 9c c2
       -19.98567 -67.02445 -9.430031 -78.12879
000170 7a 7f 27 c2 3f d8 56 c2 8b eb d8 40 37 dd 0f 42
       -41.87449 -53.711178 6.778753 35.96603
000180 f4 02 fd 41 8a d7 bb c1 55 ee b2 41 79 01 d5 c2
       31.626442 -23.480244 22.366373 -106.50288
000190 fc a4 14 43 e0 a9 49 c1 91 15 84 c2 0f 37 0f c3
       148.64447 -12.603973 -66.04212 -143.21507
0001a0 01 23 de 41 6b 2b c1 40 08 97 9b 41 88 50 17 40
       27.767092 6.03655 19.448746 2.3642902
0001b0 45 e4 cd 42 1f 21 b4 c0 0c 26 83 c2 f7 ae 9b 42
       102.94584 -5.629043 -65.57431 77.84173
0001c0 98 3d b9 42 0f ac 63 42 82 f2 03 c2 3f c3 ea 40
       92.6203 56.918026 -32.986824 7.3363338
0001d0 92 71 af c2 03 ea 27 41 d1 04 85 43 9e 2a 4c c2
       -87.72182 10.494632 266.03763 -51.04162
0001e0 95 05 75 c1 c3 36 bb 42 aa 4b fd 41 ad 46 bd 42
       -15.313863 93.60696 31.661945 94.63804
0001f0 35 57 02 c2 24 e9 b2 c2 d8 97 a3 42 77 df 6a 42
       -32.585163 -89.45535 81.79657 58.718227

tab_net.initial_splitter.shared.glu_layers.0.bn.bn.running_var f4 [128]
000000 7e 07 51 44 44 b0 ad 43 c9 4d 26 43 fa 71 8a 44
       836.11707 347.37708 166.30385 1107.5618
000010 86 4e 49 44 11 34 f0 43 8e 2e 94 44 c7 6a be 43
       805.2269 480.40677 1185.4548 380.8342
000020 c6 cc e0 43 45 af 00 44 15 0f eb 43 dd ac 42 43
       449.5998 514.7386 470.11783 194.67525
000030 10 68 75 44 6b af 15 44 24 e9 e0 44 07 49 04 44
       981.626 598.7409 1799.2856 529.14105
000040 6e d0 2b 44 61 3e 00 45 43 4c d5 43 1e d4 d4 43
       687.2567 2051.8987 426.5958 425.65717
000050 03 a7 05 44 ea 4b 82 44 0e e2 30 43 09 e2 8c 44
       534.60956 1042.3723 176.88303 1127.0636
000060 5a aa a3 43 bd 84 71 43 9b c9 be 43 d5 2f 8f 42
       327.33087 241.51851 381.57504 71.59342
000070 c7 44 a5 41 9e 94 d1 42 b8 3f 9f 44 90 33 10 43
       20.658583 104.79027 1273.9912 144.20142
000080 ed 7f 78 44 17 47 5a 44 aa 76 2c 43 00 6a 03 44
       993.99884 873.1108 172.46353 525.65625
000090 27 13 83 44 7b 91 26 44 db ad 14 44 de cd 0c 44
       1048.5985 666.27313 594.7165 563.2167
0000a0 4c a4 23 44 05 b8 0d 44 76 5a 42 44 ad c5 33 44
       654.56714 566.8753 777.41345 719.0887
0000b0 d2 72 f0 44 60 87 2e 44 89 f5 a7 44 08 79 87 43
       1923.5881 698.11523 1343.673 270.94556
0000c0 37 b1 50 44 69 90 a9 43 1d 2e 6e 44 60 a4 35 44
       834.769 339.1282 952.7205 726.56836
0000d0 54 79 4d 44 21 96 a8 43 43 8f a3 43 7f 72 35 44
       821.89575 337.17288 327.11923 725.789
0000e0 7a 6c a4 44 e5 72 27 44 c0 db 43 44 b6 f5 df 43
       1315.3899 669.7952 783.4336 447.91962
0000f0 01 62 89 44 23 b1 e5 43 bd f6 8a 44 ad 28 a3 43
       1099.0626 459.38388 1111.7106 326.31778
000100 15 6b f6 43 81 cd 7d 41 5f 75 29 43 26 98 ef 43
       492.83658 15.862672 169.45848 479.18866
000110 ce af f7 43 80 2a 76 43 9c 3a 07 44 5d f1 e4 43
       495.37347 246.16602 540.9158 457.88565
000120 04 f5 04 44 49 98 cf 42 43 c9 a8 43 e1 d7 a0 43
       531.82837 103.79743 337.57236 321.68655
000130 62 81 44 44 c3 9a e6 43 4b 7f 80 44 4a 7f 12 44
       786.0216 461.20908 1027.9779 585.9889
000140 87 de a2 43 83 ee 1f 44 3f 47 37 44 5f d9 82 42
       325.7385 639.72675 733.1132 65.42455
000150 6d cd 06 44 63 89 39 44 56 d3 16 44 a4 a0 f7 43
       539.2098 742.14667 603.3021 495.255
000160 92 21 31 44 d7 f2 ed 43 f4 26 3f 43 4e 23 8d 43
       708.52454 475.8972 191.15216 282.27582
000170 e7 41 c0 42 94 15 23 43 8e c8 af 42 2a ab 65 43
       96.128716 163.08429 87.89171 229.66861
000180 96 e7 89 43 60 d9 91 43 39 cd e0 41 38 5d 8d 43
       275.80927 291.69824 28.100206 282.72827
000190 4d 4c 48 44 2c 56 43 44 d3 4c cb 43 e0 7e 40 44
       801.1922 781.34644 406.6002 769.9824
0001a0 a6 5b 93 42 3d e2 db 43 56 20 d1 43 16 59 a0 41
       73.679 439.7675 418.25262 20.043499
0001b0 93 e7 ff 43 ff ad 0a 44 e3 e8 1e 44 f6 8e 9c 43
       511.80917 554.7187 635.63885 313.11688
0001c0 d9 09 05 44 01 48 54 43 da 28 93 43 f9 de 33 43
       532.1539 212.28127 294.31915 179.87099
0001d0 84 52 0b 44 50 66 1e 44 87 ce d9 44 93 19 50 44
       557.2893 633.59863 1742.454 832.3996
0001e0 35 ec 89 42 4f 90 10 44 07 01 1c 44 78 ef 97 43
       68.96134 578.2548 624.01605 303.87085
0001f0 ef 66 8d 42 a9 39 ab 43 35 23 51 43 84 1b 11 43
       70.70104 342.45047 209.13753 145.10748

tab_net.initial_splitter.shared.glu_layers.1.fc.weight f4 [128, 64]
000000 55 3d bd bf dd 7c a4 be 06 e4 ba be 2f 72 af 40
       -1.4784342 -0.32126513 -0.36502093 5.4826884
000010 3a ff 1c c0 85 a1 64 be 1c 35 ef bf 3b ff 4c 3f
       -2.4530778 -0.2232724 -1.8688083 0.8007695
000020 08 6a ab 40 7f 0f 19 be 75 bd ba 3f 50 86 fc 3e
       5.3566933 -0.14947318 1.4589068 0.49321222
000030 46 f8 11 40 d2 ab 47 bf d5 a6 aa 3e ae 60 19 40
       2.2807784 -0.7799655 0.33330408 2.3965259
000040 9a 39 ae 3d 10 47 e6 bf c3 04 88 c0 77 91 59 40
       0.085070804 -1.7990437 -4.2505813 3.3995035
000050 bc a9 67 40 23 33 ed bf 31 5c fa be c7 b8 18 c0
       3.6197348 -1.8531231 -0.4889846 -2.386278
000060 ff 58 92 c0 74 13 11 c0 c5 8c 14 bf 94 19 d6 bf
       -4.573364 -2.2668123 -0.580273 -1.6726556
000070 8c 29 ba 3f 20 2f 5c 3f b5 82 07 40 08 07 d2 bb
       1.4543929 0.8600941 2.1173527 -0.0064095296
000080 fe ec 5d c0 ea 29 06 c0 39 07 28 c0 66 c3 63 40
       -3.4675899 -2.0963082 -2.6254408 3.5588012
000090 98 b3 96 40 ac 18 80 40 8b db 2e be eb 56 0c c0
       4.709423 4.0030117 -0.17075936 -2.192805
0000a0 18 c4 ba bf 02 6f eb 3e 23 7d a4 c0 bf 49 ec 3f
       -1.4591093 0.4598313 -5.1402755 1.8460006
0000b0 23 df 01 c0 f3 c0 1e bf 3f ed 2a bf dd d2 bf bf
       -2.0292442 -0.6201317 -0.6676826 -1.4986225
0000c0 92 ec 88 3f c3 77 dd bf 92 72 b3 bf 02 62 e1 3c
       1.0697196 -1.7302173 -1.4019339 0.027512554
0000d0 3c 3a 89 3f 5f 74 f2 3f 36 76 10 c0 9b ed a6 40
       1.0720897 1.8941764 -2.257215 5.2165046
0000e0 0e df f3 3f ba 9a 1b 40 83 ea 86 3f 1b 72 0b c0
       1.9052446 2.4313188 1.0540317 -2.1788394
0000f0 39 83 40 3f 84 e9 91 40 be 62 1c 40 7f 36 90 bf
       0.7520023 4.5597553 2.4435267 -1.1266631
000100 5f 9f df bf b9 7e 0b c0 1f 96 9b 3d e9 36 5e 3d
       -1.7470511 -2.1796095 0.07596993 0.054251585
000110 e1 42 07 40 44 40 89 bf 92 7c 74 bf c5 78 87 3e
       2.113457 -1.0722737 -0.9550258 0.26459327
000120 50 0c 1a 40 15 83 cd bf 2d b5 7d bf 00 81 3d bc
       2.4070015 -1.6055628 -0.9910458 -0.0115664005
000130 a6 b0 09 40 4a b6 c8 3e 58 2f c5 bf 8b 0b a2 40
       2.1514068 0.39201576 -1.5405073 5.063909
000140 44 62 6d c0 ec be bd bf 34 12 44 c0 f7 ff b4 3f
       -3.7091227 -1.482389 -3.063611 1.4140614
000150 0d f5 4e 40 0c 9b 4b c0 6e 38 49 3f 0c 27 42 bf
       3.2337067 -3.1813383 0.7860173 -0.7584083
000160 ec 01 08 c0 6e f3 70 c0 d5 b0 6b c0 52 d2 62 bf
       -2.1251173 -3.7648578 -3.682668 -0.88602173
000170 ce 3f fe bf 36 48 94 be fa 2b be 3f 34 69 d6 bd
       -1.9863222 -0.28961343 1.485717 -0.10469285
000180 79 20 61 c0 23 bd 70 bf 87 87 33 40 a4 51 36 be
       -3.517607 -0.940386 2.805147 -0.17804581
000190 9a 28 4f bf 98 63 15 bf dd 0b aa 3f 33 f5 a7 3f
       -0.8092133 -0.58355093 1.328487 1.3121704
0001a0 2c 28 2c 40 0a e4 cb 3e 11 f9 8e bf 00 ff 85 40
       2.689952 0.39822417 -1.1169759 4.187378
0001b0 2a a7 c0 3f a6 f4 a7 bf f5 a7 a4 be 35 b4 0d 40
       1.5051014 -1.3121536 -0.3215939 2.214124
0001c0 00 04 8f 40 e5 56 c1 3e 0e 65 17 40 68 e6 ac 3f
       4.4692383 0.37761608 2.365543 1.3507814
0001d0 72 7f 05 40 e9 66 91 3f 98 bc 8f c0 4e 18 cb 3f
       2.0859036 1.1359531 -4.4917717 1.5866792
0001e0 b3 a0 b5 3f 77 64 a4 bf dc 17 81 bf 7b 42 70 40
       1.4189667 -1.284316 -1.0085406 3.7540576
0001f0 3e 87 65 bd b3 69 f5 3f b4 f0 a0 bf 5d ae 92 be
       -0.05603718 1.9172882 -1.2573457 -0.28648654
000200 22 1e b7 bf f3 45 1c 40 ab ba b7 3f 13 ef 1e c0
       -1.4306071 2.4417694 1.4353842 -2.483342
000210 cb 40 90 c0 46 9b 6a 3f 3f 0f 25 bf eb 05 a4 bf
       -4.5079093 0.9164318 -0.6447639 -1.2814306
000220 e9 36 7e c0 05 7d 2e c0 2d ed d7 3e 47 1b 72 c0
       -3.9721014 -2.7263806 0.42173138 -3.7829149
000230 be 7c 33 40 38 04 10 c0 f0 0d 42 c0 5d f2 29 c0
       2.8044887 -2.2502575 -3.0321007 -2.6554177
000240 6f 7c 95 bf 2f 34 ea c0 36 3f 16 40 68 7d 8c bf
       -1.1678599 -7.31887 2.347608 -1.0975771
000250 4a 0d 40 bf f5 f0 ad 3f cb b2 14 c0 62 3f 01 bf
       -0.7502028 1.3589159 -2.3234127 -0.5048734
000260 58 06 49 40 b6 01 26 c0 de 9d c4 3f 05 7b 94 3f
       3.1410122 -2.5938544 1.5360677 1.1600043
000270 84 f1 79 40 29 80 7e bd 38 d6 cb 3f 7b ed a6 3d
       3.905366 -0.06213394 1.5924749 0.081507646
000280 65 67 17 40 eb 37 4b be e3 33 af 3f 6d 40 92 bf
       2.3656857 -0.1984555 1.368771 -1.1425911
000290 79 f3 66 c0 72 1b 05 40 9e 1f 0d c0 f3 5a da bf
       -3.6086104 2.0798001 -2.2050548 -1.7059005
0002a0 ee 87 60 c0 6c 51 95 40 c0 1d 0b 3f f0 bd 6e c0
       -3.5082965 4.666189 0.5434227 -3.7303429
0002b0 1d 9a 29 c0 3f 6c 38 3f a4 aa ef bf 2c f1 0d c0
       -2.6500313 0.7204017 -1.872395 -2.217845
0002c0 8b d5 c5 40 20 f1 8a 40 ca 68 95 bf a5 04 dd bf
       6.1823173 4.341934 -1.1672604 -1.7267042
0002d0 a3 4c a3 c0 02 66 51 c0 77 ae 68 40 74 55 88 c0
       -5.103105 -3.271851 3.6356485 -4.2604313
0002e0 03 03 2f 40 8b 06 b0 3f 76 fc 60 c0 e2 22 3f 40
       2.7345588 1.3751997 -3.515409 2.986504
0002f0 95 d3 9c 40 da bd 0d c0 2e ca 93 3f 9c 99 15 3f
       4.900828 -2.2147126 1.1546075 0.58437514
000300 f7 51 2d bf db ba 8b c0 60 5f 13 40 a6 b7 6c 40
       -0.67703193 -4.3665595 2.3026962 3.698709
000310 77 7e 9f bf 4f c6 43 c0 5e b2 e4 3d d8 4b 96 3f
       -1.2460469 -3.0589788 0.11166833 1.1741896
000320 98 8c 2b 40 cf 7c 44 bf 1f 6e 80 3f 35 5b 06 40
       2.6804562 -0.7675294 1.0033606 2.0993168
000330 d8 8d 2e 40 ef 1b 61 bf d2 b0 4e c0 67 36 fc 3f
       2.7274075 -0.8793325 -3.2295423 1.9704102
000340 7d d6 2d 40 a0 d5 1d 40 79 7d 3e c0 1e c0 99 3f
       2.7162163 2.4661636 -2.9764082 1.2011755
000350 72 80 05 40 47 22 a3 bf 9a c1 25 40 3a 00 90 c0
       2.0859647 -1.2744836 2.5899415 -4.5000277
000360 40 d1 fa bf a8 cd 6d 3e 08 1d 15 c0 d1 67 f7 be
       -1.9595108 0.23222983 -2.329897 -0.48321393
000370 24 79 3b 3f d9 53 87 bf aa 47 e5 bd 6a 9b c6 3c
       0.7323172 -1.0572463 -0.111953095 0.02424403
000380 96 1b 61 3e d5 19 ea 3e 6c e2 16 c0 5e 15 f6 3f
       0.2198318 0.45722833 -2.3575697 1.9225271
000390 c7 e9 a6 40 0a 4d cb bf 6d d2 98 be 07 86 3c 3f
       5.2160373 -1.5882885 -0.29848042 0.7364201
0003a0 ea 0a 61 3f 09 47 14 c0 b0 a9 7c c0 98 06 46 bf
       0.8790728 -2.3168356 -3.947857 -0.7735381
0003b0 a6 e4 b0 bf 16 23 22 c0 3b 55 c8 bf 8d 54 eb be
       -1.3819778 -2.5333915 -1.565101 -0.45962945
0003c0 b4 86 d8 3f cf 87 8d be 7d 63 e4 be 9b 67 19 3f
       1.6916108 -0.27642676 -0.44607154 0.59923714
0003d0 b2 b9 8d 3e 03 6a e0 3f e1 b1 f8 bf a8 df d1 3f
       0.27680737 1.7532352 -1.9429284 1.639638
0003e0 36 6d 83 40 7f dc d5 3f b0 ed 1d 40 97 b7 14 bf
       4.1070814 1.6707915 2.4676323 -0.58092636
0003f0 bd e0 fc 3f 83 71 6b 3f 2d 18 91 3f 93 d8 ee bf
       1.9756085 0.9197008 1.1335503 -1.8659843

tab_net.initial_splitter.shared.glu_layers.1.bn.bn.weight f4 [128]
000000 71 5c 3f c0 e8 f3 bb bf 22 32 82 c0 1e fd 2c 40
       -2.9900172 -1.4683809 -4.0686197 2.702949
000010 e7 84 aa 3f 23 f2 b7 3f 57 6e bb 40 91 72 f7 be
       1.3321809 1.4370769 5.857219 -0.48329595
000020 39 75 90 40 a8 71 22 41 09 66 0b c0 eb ed be 3f
       4.5143094 10.152748 -2.1781027 1.4916357
000030 4b 6d a4 3f 13 5e 02 41 5f f2 3d bf 8f 90 1e c1
       1.2845854 8.147967 -0.74197954 -9.910293
000040 f7 de 12 40 34 ae e5 40 2f 40 67 bf d8 55 ba bf
       2.2948587 7.177515 -0.9033231 -1.4557447
000050 43 73 7b 3f bc d4 a1 40 04 e9 87 c0 eb ae 88 c0
       0.9822275 5.0572186 -4.2471943 -4.2713523
000060 bd 4d 53 40 6f d8 a4 40 75 d0 a2 40 8e 2e 3e c0
       3.3016198 5.15142 5.0879464 -2.9715915
000070 3f fe 48 40 1e 09 cb bf 74 04 4d 3f 91 f2 2b 40
       3.140518 -1.5862157 0.8008492 2.68668
000080 10 96 34 c1 19 61 58 bf 0f 1a cc c0 6e 42 53 40
       -11.286636 -0.8452316 -6.378181 3.3009295
000090 f1 16 e7 c0 aa a1 93 40 71 6d f1 3f eb 9b 97 40
       -7.2215505 4.6134844 1.8861524 4.737783
0000a0 8b 7f dc bf 25 5c 6c c0 aa ba f5 40 b9 11 9d bf
       -1.7226423 -3.693124 7.679036 -1.2271034
0000b0 f2 c6 57 40 0f 61 28 40 a1 14 43 40 42 60 64 40
       3.3715177 2.630924 3.048134 3.568375
0000c0 81 e2 15 c1 9a da c6 40 91 31 da 40 f9 11 89 be
       -9.367799 6.2141848 6.8185506 -0.26771525
0000d0 38 c0 8a c0 0d 8b 09 41 f5 e8 e0 40 0f ec 06 41
       -4.335964 8.596448 7.028437 8.4326315
0000e0 7c a1 ed 40 de ce 28 c0 c5 19 3d c1 47 a1 0d 3f
       7.4259624 -2.6376262 -11.818791 0.55324215
0000f0 37 a0 ec 40 fb e8 e2 bf 63 83 ec c0 0f d9 e7 3e
       7.3945575 -1.772735 -7.3910384 0.4528279
000100 b1 1d 7d c0 2a c7 1a bf 9c eb 23 c1 86 f1 0d c1
       -3.9549372 -0.6046015 -10.245022 -8.871466
000110 de 8a 05 40 18 d1 d3 3f 64 37 79 3f 17 cc fb 3f
       2.0866008 1.6548185 0.97350144 1.9671658
000120 1d 69 22 c0 dc b9 23 41 c0 43 e2 c0 77 b1 2a be
       -2.5376656 10.232876 -7.0707703 -0.1666926
000130 3a 16 d4 3f ab ea bd 3f 39 13 4f 3c 22 f6 97 bf
       1.6569283 1.483724 0.01263886 -1.1871989
000140 8f 2a 96 3f 34 41 b7 40 05 f3 7d 3f 79 3b 22 41
       1.1731738 5.7267094 0.99198943 10.13952
000150 aa 08 9e be 78 da a4 40 93 37 ca 40 c6 65 bd c0
       -0.30865985 5.1516685 6.319284 -5.9186735
000160 f8 1b 5e c0 f6 ea ee c0 71 46 23 40 e8 bc 24 41
       -3.470457 -7.4661818 2.5511744 10.29612
000170 bb 29 a6 3d 63 a6 a4 be f5 03 2d bf b3 ef ef c0
       0.08113428 -0.32158193 -0.6758416 -7.49801
000180 c9 35 4f 3c 4f 99 45 c0 9e f6 99 c0 e7 4e 65 40
       0.012647101 -3.0874822 -4.8113546 3.5829408
000190 fe 4b 72 40 67 47 34 40 18 2d 06 41 13 dd 7c 40
       3.7858882 2.816858 8.386009 3.9509933
0001a0 59 c9 03 41 c3 96 04 c0 d0 57 08 41 04 35 08 3f
       8.236657 -2.0717018 8.521439 0.53205895
0001b0 44 c1 03 41 59 8f d0 40 93 80 3b 41 6a db e2 3f
       8.234684 6.5174985 11.71889 1.772321
0001c0 13 cc 32 bf 20 fb f0 c0 2e 71 7a 3f 94 72 fc 3f
       -0.6984264 -7.530655 0.9782895 1.9722466
0001d0 c8 3e a4 3e 4f 36 10 c1 78 a9 1d c0 54 f2 14 41
       0.32079148 -9.013259 -2.4634686 9.309162
0001e0 c4 c1 f6 3f c2 2a 19 c1 a9 c5 27 c1 97 af 45 c0
       1.9277883 -9.572939 -10.485757 -3.0888422
0001f0 97 c1 36 41 71 3e e7 40 dc f7 39 41 f9 80 8a bf
       11.422263 7.2263722 11.623013 -1.0820609

tab_net.initial_splitter.shared.glu_layers.1.bn.bn.bias f4 [128]
000000 d1 1b 5b 40 17 9d ec c0 e5 97 91 40 de 40 92 c0
       3.4235728 -7.394176 4.549792 -4.5704184
000010 4b dc 46 3e d3 a1 03 c1 ee 53 88 40 17 b7 80 bf
       0.19419973 -8.227008 4.2602453 -1.0055875
000020 83 11 39 40 58 b3 cc 41 0d 42 e6 40 fb a6 04 41
       2.8916938 25.58757 7.195563 8.290767
000030 2c 97 53 3f f4 49 aa be 6c 68 81 be 31 f4 51 3f
       0.82652545 -0.33259547 -0.2527498 0.8201323
000040 bb cb 49 bf cd 43 95 40 25 8f 5a c0 cc 4c 04 41
       -0.78826493 4.6645265 -3.4149868 8.268749
000050 38 55 57 be 64 2a 87 40 f6 8e ef 40 9a 85 c2 40
       -0.21028602 4.2239246 7.4862013 6.078809
000060 8c 0f 60 40 04 28 0b c1 13 5d 49 40 dc 0f d1 c0
       3.500949 -8.697269 3.1463058 -6.533186
000070 fc 78 de bf 66 11 05 be 64 48 66 40 bc a4 a6 c0
       -1.7380672 -0.12994918 3.5981684 -5.207609
000080 77 00 b4 40 54 59 56 40 ae 80 3b 40 e2 1e 44 c0
       5.6250567 3.3492022 2.929729 -3.064385
000090 bf c3 dc c0 d2 9b 78 3e 9d c0 e8 40 52 d7 3d 40
       -6.898895 0.2427819 7.2735124 2.966267
0000a0 68 0d 08 c1 e9 f8 ee 3f 45 90 18 bf 06 be 85 3f
       -8.503273 1.8669711 -0.5959514 1.0448616
0000b0 de bf be 40 a0 f0 1f c1 8e 86 6c 41 41 60 3d 3e
       5.9609213 -9.996246 14.78285 0.18493749
0000c0 13 fc dc be cf 32 97 bc 9b 44 16 c1 e1 ad 46 3f
       -0.43161067 -0.018456845 -9.391749 0.7760907
0000d0 2b ab 88 40 f5 bd 16 41 a4 f4 96 40 4e a0 65 40
       4.2708945 9.421376 4.7173634 3.5879092
0000e0 cb 6d 0d 40 d0 93 05 41 ee 46 ae 40 85 e1 94 40
       2.2098262 8.348587 5.4461584 4.6525292
0000f0 2b dc 15 c1 8b 78 f2 40 1c 06 11 41 11 65 26 c0
       -9.366252 7.5772147 9.063992 -2.5999186
000100 16 81 d6 c0 88 b1 df 40 9e 09 97 c0 a7 f8 b5 c0
       -6.7032576 6.9904213 -4.719924 -5.686603
000110 c0 e5 55 c0 92 1c f0 40 81 df dc 40 27 d9 b1 40
       -3.3421478 7.5034876 6.902283 5.557758
000120 6d ca d9 c0 fd 26 25 40 f7 2f b0 3f 21 bc d4 c0
       -6.80596 2.5805047 1.3764638 -6.647965
000130 9b 5a 6a 40 1d 18 04 41 0d 83 9e c0 78 dc 1a 41
       3.66178 8.255887 -4.9534974 9.678825
000140 f1 d5 a7 c0 ba eb c6 40 ae 30 64 40 b7 78 63 be
       -5.244866 6.216275 3.5654712 -0.22214018
000150 3c 32 b0 c0 aa d7 68 3e e1 aa fb 3f 8e ad 83 bf
       -5.506132 0.2273852 1.9661523 -1.028734
000160 14 08 4f 3f 14 23 65 be 2b 54 bf 40 34 5f ac 3f
       0.808717 -0.22376662 5.9790244 1.3466554
000170 e8 43 f2 c0 91 35 68 c0 95 f7 b3 40 bb a0 34 40
       -7.5707893 -3.6282694 5.6239724 2.8223102
000180 bd 14 f4 40 c6 08 e1 c0 17 3c 63 40 88 32 ae 3f
       7.6275315 -7.032321 3.5505426 1.3609171
000190 1b 59 5b c0 71 3d 4e 40 03 e0 3d 40 d3 f0 df bf
       -3.4273136 3.2225 2.9667976 -1.7495369
0001a0 b1 cb cf 40 94 d6 ef 40 34 c2 71 bf 72 61 b1 c0
       6.4936147 7.4949436 -0.94436955 -5.543145
0001b0 e8 de f5 c0 64 27 bc 40 c5 25 19 c0 cd 1b ff c0
       -7.68346 5.8798084 -2.3929303 -7.9721437
0001c0 6b c3 c7 40 b4 e0 e8 3d b8 10 0a 41 87 ad f6 c0
       6.2426047 0.11370984 8.629082 -7.7086825
0001d0 69 51 24 41 33 b0 22 40 41 c8 ff c0 f9 79 22 40
       10.269876 2.5420043 -7.993195 2.5386946
0001e0 a9 84 26 41 e4 77 5c c0 3c 14 cc 3f e3 07 41 bd
       10.407388 -3.4448175 1.5943675 -0.047126662
0001f0 41 80 46 c0 2c 8f c5 bf 93 a1 83 c0 73 ce 01 c1
       -3.101578 -1.5434318 -4.1134734 -8.112903
